trained_models/actor_500.pkl (torch, 21855 bytes, 6 tensors)

model.0.weight f4 [64, 8]
00000000: 44ad 3fbe 7fe1 653e 0bfe 04be f06b 44bd
00000010: 4e52 8abe ae5d a93e aeca 0abe bb03 a5be
00000020: 9175 64be 30c0 57be 7482 28bd b87a c73e
00000030: 3060 d0b9 30e6 203e ef4b e6bd 7e54 d8bc
00000040: 9899 543d 361e 283d c7a3 c4bd 76e8 c2bd
00000050: d708 10be 906b 833b a399 ff3d 104b aa3e
00000060: 0c32 9abc 3478 2bbe a34f c43e 3e71 41be
00000070: 186d 223d 2262 e13d e29e 3fbe 4bea 79be
00000080: cdc9 643e 8a6c 5c3c 505b 26be 239e 0c3d
00000090: 4b26 1dbd 3e90 0ebe 7262 bbbe 2bd4 ac3e
000000a0: 8df2 d63e 0b0f 173d 71dc e1bd e9f7 e8bd
000000b0: 03c9 1a3e c9e9 42be 5ef2 0cbe 7efa 0e3e
000000c0: e430 9bbe 9736 a53c 12d9 c13e 6cc4 e93d
000000d0: 507e e7be 64db 1a3d 857c e23d 0444 dabd
000000e0: a46e 043e 45ff 863b 0d15 963d aee5 ce3d
000000f0: 0ec0 483e 243a 3fbe b4f7 1bbe 7ced ce3e
00000100: 6b54 f23d 1529 de3d a61e 573d c513 fabe
00000110: dc2c 37be 5134 893e ac2c bdbe 54a5 c4be
00000120: 5e38 973e bb78 f1bd 29fb 95be af4b 623d
00000130: d54a dfbd 49e4 893d 8f9a 96be 2202 1f3e
00000140: 3e68 803b e039 db3c 493b 84be 7f00 39be
00000150: 3371 f03e dfc6 ca3e 9a7a 84be 3ea3 703e
00000160: 3ef7 a4be d82d a5be 74e4 c1bd b33c ddbc
00000170: 405f fbbe 41d6 203d ff19 d1bc 4ae7 2c3c
00000180: 9ed2 c6be bbfe 7dbe 01c4 e2bc 8699 4ebd
00000190: 9a10 7dbe a248 123e 7aec 30be 0738 8d3e
000001a0: 54be a03e a036 ae3e 5061 ef3e cbee cb3d
000001b0: 5537 e0be eb85 40be 77be a13d e3d9 a23c
000001c0: 76eb 34be da41 6bbe 097f 513e 6100 20be
000001d0: 37ee 4f3d 3cff 81be c77f 073e 1775 bdbe
000001e0: 56b9 2fbe 028b 353e 923a 8fbd dce1 e9bd
000001f0: 6dbd c8be 57f4 cc3d 8202 8dbe 8ac6 21be
00000200: d613 1d3e 6382 cabe 523d 3a3e 3023 90be
00000210: 8c68 9b3e 53a5 b03e 199c 533e 448c 893e
00000220: ec4a 753e 8fc2 7cbe 5b2d bbbe de70 3bbe
00000230: 2b6d 2ebe 02fd 0dbd 76f6 873e 4a58 333e
00000240: 3aba 353e dfa3 7a3d e6ee 90be d8a9 c73d
00000250: 301a b6bc e5fc eb3d 34d4 e33d c5a0 613e
00000260: 4fb6 e3be 4ddd 6dbe 075f 073e 0766 373e
00000270: 6795 99be 547f a0be b08e cfbd b983 01be
00000280: 20a9 a03e bfa9 0d3d 9f1d f0bd 2a95 14bf
00000290: 9509 db3e e924 5d3d 408d dbbe 853e ea3e
000002a0: 37f4 983e b38b 133d 97dc 89be 2d64 18be
000002b0: 07ef 4dbe 3540 debd e8a6 abbd 47f6 2cbe
000002c0: cfc5 9f3c 036d 743e 1cff 3fbe e939 cb3d
000002d0: 5432 263e 0bbc 92be de67 bf3d cf09 e13e
000002e0: aab3 8bbd dbcb c0bd 7f15 c03e 4b7b f8bd
000002f0: 127c 8e3e 899f 37bd a329 cf3e 86ea febe
00000300: 4729 c73e e582 84be a26f 813e 18da 99bd
00000310: 5ec6 b23e 4943 c8bc 3b07 193e 0042 1f3e
00000320: ef0c a7bd c52c 29be c238 b8be cf31 95bd
00000330: 6c4f 863d 71d2 99be 919e 723e c03a b53e
00000340: 0843 063d ca9d f8bd 1669 473e d3ae 57bd
00000350: 94a4 913e b97c 9f3d 0caf 1a3e 31d4 b4be
00000360: b870 883e 29a3 10be 164b a13e 9029 953e
00000370: 213d c9be b103 843e acf5 5fbc 7bb5 7b3e
00000380: 6706 633d 91ff 28be 1ace 43be aaf5 7e3e
00000390: ec0d 733e e869 373e b91f 85bd d639 64be
000003a0: 3750 873e e9ef a63c c4ae 87bd e893 92be
000003b0: 7a65 21be eea8 1a3e d76a a5be e3e4 5dbd
000003c0: ed7b 4e3e 2e0a 343e d0f4 093d 04ba ca3d
000003d0: 28dc d0bd dfc5 7cbe a749 0abe 1332 aabe
000003e0: 3d2d 9dbe ff25 173e 2ab9 0ebf d8ec d93d
000003f0: 79b3 1a3e 383a 36be d14d 3fbb 1861 b83e
-0.1871844 0.22449301 -0.12987535 -0.0479545 -0.27015918 0.33079284 -0.13553879 -0.3222941
-0.22310473 -0.21069407 -0.041140035 0.38960814 -0.00039744517 0.1571281 -0.11244952 -0.026407477
0.05190429 0.041044436 -0.096015505 -0.09516995 -0.14065872 0.004010625 0.12480476 0.33260393
-0.018822692 -0.16745073 0.38342008 -0.18890855 0.03965482 0.110050455 -0.18712953 -0.24405782
0.22342606 0.013453612 -0.1624577 0.0343305 -0.038366597 -0.13922212 -0.36598545 0.3375562
0.41981927 0.03687958 -0.11028374 -0.1137541 0.15115742 -0.19034494 -0.1376433 0.13962743
-0.30310738 0.020167632 0.37860924 0.114144176 -0.45213556 0.037806883 0.110589065 -0.10657504
0.12932831 0.004119786 0.07328234 0.10102402 0.19604513 -0.18674523 -0.1523121 0.4041556
0.11832508 0.108476795 0.052519463 -0.48843208 -0.17888206 0.26797727 -0.36948144 -0.38407385
0.29535192 -0.11790606 -0.29293182 0.05524796 -0.10902945 0.06732995 -0.29414794 0.15528157
0.0039186766 0.026760995 -0.2582648 -0.18066595 0.46961364 0.39604852 -0.25874788 0.23499772
-0.3221988 -0.32261539 -0.09467402 -0.027006483 -0.49096107 0.03926683 -0.025525091 0.0105531905
-0.38832563 -0.24804203 -0.027681353 -0.05043938 -0.24713364 0.1428552 -0.17277709 0.27581808
0.3139521 0.3402605 0.4675393 0.099576555 -0.43792215 -0.18801086 0.078976564 0.019879287
-0.17667946 -0.22974339 0.20458616 -0.15625145 0.05076429 -0.2539004 0.13232337 -0.37003395
-0.17160544 0.17728809 -0.06993593 -0.114200324 -0.3920702 0.100075416 -0.27540976 -0.15798393
0.15339598 -0.39552602 0.18187454 -0.28151846 0.303532 0.34501132 0.20665015 0.26864827
0.23954362 -0.24683593 -0.3655804 -0.18304774 -0.17033832 -0.034665115 0.26555222 0.17514148
0.17746821 0.061191436 -0.28307265 0.09749192 -0.022229284 0.11522845 0.11124459 0.22033985
-0.44475028 -0.23228951 0.13219844 0.17910014 -0.29996797 -0.31347144 -0.10134637 -0.12647904
0.31379032 0.03458571 -0.117244 -0.58040106 0.42780748 0.05399028 -0.42881203 0.45750824
0.2987382 0.0360219 -0.2692611 -0.14881964 -0.20110713 -0.1085209 -0.08381444 -0.16890822
0.019503502 0.2386971 -0.1874966 0.09923155 0.16230136 -0.2865909 0.09345983 0.43952796
-0.068213776 -0.09413882 0.375164 -0.12132891 0.27829033 -0.04482988 0.40461454 -0.49788302
0.3889868 -0.25881115 0.25280482 -0.07512301 0.34916967 -0.024446147 0.14944164 0.15552521
-0.08156764 -0.16520984 -0.35980803 -0.07284891 0.06558117 -0.30043367 0.23693301 0.35396385
0.03277877 -0.12139471 0.19473681 -0.05265696 0.28445876 0.07787461 0.15105838 -0.3531814
0.26648498 -0.1412474 0.315026 0.29133272 -0.3930445 0.25784066 -0.013669413 0.24580948
0.055426028 -0.16503741 -0.1912159 0.24898401 0.2373578 0.17911494 -0.06500191 -0.22287688
0.26428387 0.02037807 -0.06625131 -0.2862847 -0.15761366 0.15103504 -0.32308075 -0.05417336
0.20164461 0.17582008 0.033680737 0.09898761 -0.101982415 -0.24684857 -0.13504659 -0.3324133
-0.30698577 0.14760588 -0.5575129 0.106408775 0.15107526 -0.17795646 -0.002919067 0.36011577

model.0.bias f4 [64]
00000000: aa8e 123d d59b f6be 86a7 b2bd f849 d63c
00000010: 1ac1 983e 3764 e7be 9f10 74be c0ba abbd
00000020: c81c f9bd 30b2 d13e d9b8 ba3e d149 523e
00000030: 604a 613d c20c 0ebe 272e 7d3e 0315 4fbd
00000040: 9e4f ad3e bb2b a23e 1fb6 8f3e cedc 47be
00000050: 1248 a03e c440 abbe 3b36 503e cfd8 37be
00000060: a83f e13e 2e04 383e 0676 9b3e f9d0 91be
00000070: 0d76 85be d6b8 303e f138 983e 06cc 5fbc
00000080: 3379 80be 45be 383e 5d15 22be 9e78 3b3e
00000090: 9076 d0be 5cba 56be 4d2e 6fbd cee2 a8be
000000a0: 4a33 32be 502b a9bd a652 b1bd bbdf 07be
000000b0: c8f8 4f3e 7e07 b6be 3d50 64be 737d 293c
000000c0: d667 ed3d 7565 fe3e ce14 3fbe 01b4 333d
000000d0: 1a52 3dbd ef3f 083e 86fe d83d b9e0 283e
000000e0: 805a 923d 3556 af3c a258 2ebe 314e 8cbd
000000f0: 557a 9a3c 9565 97be 1373 9bbe 6bcc 973e
0.035780586 -0.48165765 -0.08723359 0.026158318 0.29834825 -0.45193645 -0.23834465 -0.08385229
-0.12163693 0.4095626 0.36469153 0.20535971 0.05500257 -0.13872054 0.24724637 -0.050557148
0.33849806 0.3167399 0.28068635 -0.19517824 0.31304985 -0.3344785 0.20333187 -0.179538
0.43993878 0.17970344 0.30363482 -0.28479746 -0.26066628 0.1725801 0.29730943 -0.013659483
-0.25092468 0.18041332 -0.15828462 0.1830773 -0.40715456 -0.20969528 -0.058393765 -0.32985538
-0.17402378 -0.08260214 -0.08658342 -0.1326894 0.20309746 -0.3555259 -0.22296233 0.010344851
0.11592071 0.4968678 -0.1866028 0.043872837 -0.046220876 0.13305639 0.105954215 0.16491975
0.07146168 0.021403411 -0.17025998 -0.06850851 0.01885716 -0.29569688 -0.30361232 0.29648146

model.2.weight f4 [64, 64]
00000000: aa1d 96bd ed89 2dbd 81c2 b9bc 3864 d6bc
00000010: e7bd ff3d 4dda d03d 9579 85bd 1610 243e
00000020: 9610 0abe 3ce4 7e3e 37f4 1bbd 9a04 8abd
00000030: 0c9f d0bc 8950 b3bc 51ac fe3b 8a38 9bbc
00000040: 9b1d 823e 5845 d83d bb99 143e 016a 19be
00000050: f787 8f3d 7299 62bd 577b a43d f3b7 2b3d
00000060: 6fd2 063e d8ad 4bbd 6a8b 473d a07b e43c
00000070: 8997 023d 9080 b23d b109 3a3e 1020 0ebe
00000080: ae50 703c 98de 3c3d f696 a6ba 22aa 1d3e
00000090: 0f4d 78bd 1c13 a43d 4b60 323c c7c8 8d3d
000000a0: 97c4 a7bd 2266 a93c 1700 793d 6220 afbd
000000b0: 0d5b f2bc b550 20bd f179 1fbd 934c 813d
000000c0: 9d2b b9bd aef4 483e 862c 2bbe dee5 2ebe
000000d0: 2f01 69bd a05b b53d f59b 843d 7153 c3bd
000000e0: 1876 e23d 5dab e63c c7d2 d43d bf86 18be
000000f0: 1c68 09bd 44e2 f7bd fb7f 81be 7237 d03d
00000100: a867 12be 2626 3b3d 87b9 4c3e 0988 873e
00000110: 76b2 313e 1792 013d ece4 c43c 4eff f5bb
00000120: 78dd 3ebc b235 8dbd 3b7d d83c 9d37 7ebb
00000130: 8141 d13c cfef 893c a4ca 1c3e 6f13 593d
00000140: 401c 263e 2eb6 27bc 80e6 2c3e cd51 cebd
00000150: 3f74 023e 9052 bbbd d5c9 523d 2831 4f3d
00000160: cb87 8cbc 73d6 9c3d e65e 293d 788d a33b
00000170: 5517 e23d 6abc bcbc efc7 433d a833 043d
00000180: 4674 3f3e 8a9b 533c 5d4e 1f3d 8bb1 85be
00000190: e7d5 c13d 7e65 88bb f96c d0bd 0b8f 313e
000001a0: 5ab6 9cbd 8df3 0dbb d4a1 d43d df0d b1ba
000001b0: 0105 a43c 091a 9dbd ec28 be3d 5ce8 463e
000001c0: ad39 b1bd b497 183e a0a0 c73d c814 36bd
000001d0: 3218 fabd 2edb 8d3d 76a2 193d b917 063e
000001e0: 6c47 923d 30f6 2abd c8c3 a33d 513d d93c
000001f0: cb4f 623d 1398 e4bd 5830 58bd f54a 333d
00000200: 2b7a dd3a 63c6 7b3d 7ed5 8c3d 6038 f03d
00000210: 1b2b 0c3e e55f efbd f8e4 efbd 3edc b73d
00000220: 7ecb e73d c79c 16be de5a 473e 38ae 47be
00000230: 7bfa 5fbb 092f 69be d13c 02be 2330 623c
00000240: 49ee bbbd 2b3d 013e 7ab5 943d 09ca cabe
00000250: 7333 153d 9037 b43d 067b 26b8 ce6b a0bd
00000260: a4e6 623c 062b 64bd f2ca 3fbb 5205 063c
00000270: c1d5 cabd 330e 59bd f22f 12bc 3553 a83c
00000280: 9548 93bc 8f9d 37be e27e 633d da7a 263e
00000290: 480a 65bd a6c6 cd3d c9e0 f13d a048 49be
000002a0: d6b2 f93c 0b68 2f3e f6cf 1a3e d6e3 2bbd
000002b0: 9151 3ebc 7489 93bd 7a5b a73d 95a1 8f39
000002c0: 3df6 f23c aff2 3ebb 4a8e 063d 516e f7bb
000002d0: a74b 373e 3c1e fdbd 9959 8abd 280f 873d
000002e0: ec43 35be 9498 03ba 1cd7 513b fe8b 8bbe
000002f0: 8249 683d 46d9 3cbe f99b 543d 6415 333e
00000300: 0b53 2ebe 3d40 073d e332 483e a542 fb3d
00000310: 4fcb b93d 811b 7ebc 0fad 7ebc 9d55 1e3e
00000320: c4e4 143d 46f9 263e e0bc 323e 464e c33d
00000330: 32e4 9dbc 46ae 19bd 332e 2fbd bf58 99bd
00000340: 3d4a 0c3e a18e a5ba 672b 2b3e 4912 2e3e
00000350: 820f b83d 73ea 9ebd 69e0 803d cd00 8cbd
00000360: 7b57 f53d acf7 eabc 0bbf 913d 2412 febd
00000370: 6d18 14be 7333 1c3e 3c0c 263e a23c 933c
00000380: ad54 d3bc ffd0 18bd 74c5 353e eab2 e7bc
00000390: ce8f 25bc 6115 9dbd 9050 b93d 04dc 37bc
000003a0: 3541 01be 3364 94bd 616f 583d ad5d d13d
000003b0: b349 d7bc f42a 833c 647d 76bd 3350 a73d
000003c0: 18e5 7abe f498 073d 3cbe 06be 1c5d a0bc
000003d0: 349c 35be 128c 773b 76af 03bc ae91 243e
000003e0: 0934 2d3e 271e ed3c fd6b 62bd 8fc3 4dbd
000003f0: e8a1 00be 3c9a 2f3d f553 86be 4292 173e
-0.07329877 -0.042367864 -0.022675755 -0.026170835 0.12487393 0.101978876 -0.065173306 0.16021761
-0.1348289 0.24891752 -0.0380747 -0.06739159 -0.025466464 -0.021888988 0.0077720066 -0.018947858
0.25413212 0.10560101 0.14511769 -0.14981844 0.07008355 -0.055322118 0.08031338 0.041923475
0.13166212 -0.049726337 0.04871694 0.02789098 0.031882796 0.087159276 0.1816776 -0.13879418
0.014667673 0.04611072 -0.0012709785 0.15396932 -0.060620364 0.08011457 0.010887216 0.06923061
-0.081917934 0.020678584 0.0607911 -0.085510984 -0.029584432 -0.03913947 -0.03893465 0.063134335
-0.09041522 0.19624588 -0.16716203 -0.17079875 -0.056885894 0.08855367 0.06475059 -0.095373996
0.11057681 0.028157884 0.10391765 -0.14895152 -0.033546552 -0.121037036 -0.25292954 0.10166825
-0.14297354 0.045690678 0.19992648 0.26470974 0.17353234 0.031633463 0.02403494 -0.0075072413
-0.011649482 -0.06895007 0.026426902 -0.0038790472 0.02554393 0.016837982 0.15311676 0.05299705
0.16221714 -0.010236306 0.16884804 -0.10074196 0.12739657 -0.09146607 0.051462013 0.05058399
-0.017154595 0.076580904 0.041350268 0.0049912296 0.110396065 -0.023039062 0.047798093 0.032275826
0.18696699 0.012915501 0.038893092 -0.26112017 0.09464627 -0.0041624894 -0.10177035 0.17339723
-0.07651968 -0.002166006 0.10382429 -0.0013508162 0.020021917 -0.076709814 0.09285149 0.19424576
-0.08653579 0.1490162 0.09747434 -0.044453412 -0.12211646 0.06926571 0.03750845 0.13094987
0.07142529 -0.04173869 0.07996327 0.026518496 0.055251878 -0.11161818 -0.05278048 0.043772656
0.0016897371 0.061468493 0.06876658 0.11729503 0.13688318 -0.11688212 -0.11713594 0.08977555
0.1131811 -0.14708243 0.19468257 -0.19500053 -0.0034176398 -0.22771849 -0.12718512 0.013805422
-0.09176309 0.1262099 0.072611764 -0.39607266 0.03642602 0.0879966 -3.969206e-05 -0.07833062
0.013848934 -0.055705093 -0.0029265252 0.008179979 -0.099040516 -0.052992057 -0.008922564 0.020547489
-0.017978946 -0.17931198 0.055540927 0.16257802 -0.055918008 0.10047655 0.118104525 -0.1965661
0.030480783 0.17129533 0.15118393 -0.04196533 -0.011616127 -0.072039515 0.08171745 0.00027395473
0.029658431 -0.002913635 0.03285054 -0.0075509925 0.17899953 -0.123592824 -0.06755371 0.06594688
-0.17701691 -0.00050199893 0.0032019084 -0.27255243 0.056710728 -0.18442258 0.05190656 0.17488629
-0.17023866 0.033020247 0.19550662 0.12268571 0.09071981 -0.015509487 -0.01554419 0.15462346
0.03635098 0.16306028 0.17454863 0.09536414 -0.019273851 -0.037519716 -0.04276867 -0.0748763
0.13700195 -0.0012631008 0.16715775 0.16999163 0.08987333 -0.077595614 0.06292803 -0.0683609
0.11979576 -0.028682552 0.07116517 -0.12405804 -0.14462443 0.15254001 0.16215605 0.017973248
-0.025797212 -0.03730869 0.17751104 -0.028283555 -0.0101050865 -0.07670093 0.09048569 -0.011221889
-0.12622531 -0.07245674 0.052840594 0.10222945 -0.02628026 0.016011693 -0.060178176 0.08169594
-0.24501455 0.03310485 -0.13158506 -0.019575648 -0.17735368 0.0037772697 -0.008037439 0.16071197
0.16914381 0.028945042 -0.055278767 -0.050235327 -0.12561762 0.0428717 -0.2623593 0.14801887

model.2.bias f4 [64]
00000000: f8a5 843d 9a0b 073e 437e c23d 8c75 3dbc
00000010: 79e5 eb3c 2826 693d bf6a 833d a0a1 a4bb
00000020: 76c7 6f3d 7fe9 0a3e bd3f 29bd 50c4 9e3d
00000030: 6f45 833d 4b51 343b 7951 373e d0f5 083e
00000040: 5efd eb3c 0dff 263d 4eea 5c3e ead7 1b3e
00000050: dce6 b7bd 5f50 9cbd 136d a6bb 1e23 d13d
00000060: 0bed aa3d bcc6 c1bd 44b6 1c3e b1e2 8fbd
00000070: 3e5b ecbc 668c 6f3c d38d f8bc 625f 9e3d
00000080: a7ed 61bc 0f24 8a3d d594 e8bc c156 193e
00000090: fab6 ff3d e8eb 443d 38a8 893d 09f8 003e
000000a0: 0781 1a3e 67b0 b1bc f9e5 b63c 2c70 033e
000000b0: 0d12 ecbd 0d1f 7ebd b6b9 cebd eb17 713d
000000c0: 1d82 08be 5b6d 3b3d 72d8 463c 442c 2f3d
000000d0: d45a c0bd d485 ccbd 15c5 e43d 1abd 363e
000000e0: acfd 2a3e 5e69 f9bd a926 60bc b811 333d
000000f0: aaca 0cbd 0216 683d 0e7f de3d a294 74bd
0.064769685 0.1318802 0.09496739 -0.01156367 0.028795945 0.056921154 0.064168446 -0.00502415
0.05853983 0.13565634 -0.04132055 0.077522874 0.06409728 0.0027514275 0.17902173 0.1337502
0.028807338 0.04077058 0.21573755 0.15219083 -0.0897958 -0.07632517 -0.0050789206 0.10211776
0.083459936 -0.09461734 0.15303904 -0.0702566 -0.028852101 0.014620876 -0.030341065 0.077330366
-0.013789571 0.06745159 -0.028391281 0.149745 0.12486072 0.04807654 0.06721538 0.12594618
0.15088283 -0.02169056 0.022326456 0.12835759 -0.115268804 -0.06204133 -0.10094015 0.0588607
-0.13330884 0.045758586 0.0121365655 0.042766824 -0.09392324 -0.09986463 0.11170403 0.17845574
0.1669833 -0.121783 -0.013681092 0.04371807 -0.034372963 0.056661613 0.108640775 -0.05971206

model.4.weight f4 [2, 64]
00000000: 9831 423e 3889 123e 8cf7 d5bd 6d96 213e
00000010: 7c83 28bd af81 bf3d 2e1e 083e ff4c 9b3d
00000020: aacb d03c dac1 fb3d d967 75bd 6245 163e
00000030: a114 2a3c 580a ec3d 1674 163e 3a42 ff3d
00000040: 1aef 333e 10ea c43d 75ae 563e 0042 8b3d
00000050: b569 173c 66fd b4bd 6ced ba3d 80fc c53d
00000060: 83ba 0f3e cfab 043e 3194 523e ee5b 513e
00000070: 0c18 cfbc 5be9 3cbd 614f 4b3e 3cdd e6bd
00000080: 66b3 f73d 4c5d 523e 04c5 16bd 40f2 d43d
00000090: 739f a43e 2c5b 00bd aec3 19be 2d0d 763e
000000a0: 7d7f 8d3d 69a7 f63c a476 123b 4f8f f03d
000000b0: 2b7a c23d 2c32 683d 9a64 ef3d 3bab 1c3e
000000c0: 1566 86bd dc19 463e 8b52 a1be 4862 bd3c
000000d0: 749d a6bd a34c cf3c 93bb 0d3e 9c8c 193e
000000e0: e4ff 6f3e eb58 aabd d72a b8be e03e c03d
000000f0: ef3d 383e da54 8ebd 06c4 673e a7e5 8bbd
00000100: a9f3 0abe 3f50 8b3d ce9a e73d 5a7d 033c
00000110: bd42 0bbd a0c9 1dbe 1c96 5d3d 41e1 4a3e
00000120: 3e5a 00be 7b3f 1dbe 4432 913d 7a73 93be
00000130: c21f 203e 0385 883e 34fd 63bd 55e8 bc3b
00000140: 94be 123e 9962 763e 21d6 a7bd f6fd 7dbe
00000150: 2e27 543e 7cc2 90be a2df 803e a470 10be
00000160: 717f ffbd 3b9a ab3d deee 62bd 0f49 1ebe
00000170: f5cb 05bc aef8 54be 9f4f ef3d d1ee ddbd
00000180: eaef 56be 18da a5bd 5087 733e 7aa0 923d
00000190: 901d e53d 68a0 3c3e 3463 8ebd 2cef 6b3c
000001a0: aa55 87be ba75 783e f843 70be 21cd 193d
000001b0: 86b5 763d 302e 843d 8abb 933e a429 48be
000001c0: 84b8 6e3c a5e5 423e 96cf 03be 53eb 8c3e
000001d0: 7a41 0ebd 19c8 6bbe 8948 5ebe a6d5 ea3c
000001e0: b579 ebbc a987 6abd b997 293c 243e 013e
000001f0: 39de 9dbd b3a7 bdbd b9b8 06be 4596 fabc
0.18964231 0.14310157 -0.104476064 0.15780039 -0.04114102 0.09350907 0.13292763 0.07583045
0.02548774 0.122928336 -0.05991349 0.14674905 0.010380895 0.115254104 0.14692721 0.124638036
0.17571679 0.096149564 0.20964988 0.06799698 0.009241511 -0.088373944 0.09127316 0.09667301
0.14035992 0.12956165 0.20564343 0.20445225 -0.025280021 -0.046120983 0.198545 -0.11272666
0.120947644 0.20543402 -0.036808982 0.10397768 0.321529 -0.03133695 -0.15016052 0.24028464
0.06909082 0.030109124 0.0022348547 0.11746084 0.09495958 0.056688473 0.1168911 0.15299694
-0.06562439 0.19345802 -0.31508288 0.023118153 -0.081355006 0.025305098 0.13841085 0.14995044
0.23437458 -0.08317741 -0.35970184 0.093869925 0.17992376 -0.06949778 0.22633371 -0.06830912
-0.13569511 0.06802415 0.113088235 0.008025492 -0.033999193 -0.15408945 0.054098234 0.1981249
-0.12534425 -0.15356247 0.070896655 -0.2879904 0.15637115 0.2666398 -0.055661395 0.005765001
0.14330512 0.2406105 -0.08195139 -0.2480391 0.20718071 -0.2827338 0.25170618 -0.14105469
-0.124754794 0.083790265 -0.055403583 -0.15457557 -0.008166303 -0.20797989 0.116851084 -0.10836566
-0.20989957 -0.08098239 0.23782086 0.07159515 0.11187279 0.18420565 -0.06952515 0.014400285
-0.26432544 0.24263659 -0.23463428 0.03754914 0.060231708 0.06454122 0.28854018 -0.19547135
0.014570359 0.19032915 -0.12872157 0.27523288 -0.034730412 -0.2302555 -0.21707357 0.028666329
-0.028744558 -0.05725828 0.010351115 0.12621361 -0.07708401 -0.09260502 -0.13156404 -0.030589232

model.4.bias f4 [2]
00000000: 4fef 603c 664a 803d
0.013728931 0.062641904
