trained_models/critic_1000.pkl (torch, 23903 bytes, 5 tensors)

model.0.weight f4 [64, 17]
1.1571666 1.221132 -0.13884331 0.35523558 -0.4457432 -0.16381656 0.10107459 -0.12760827
-0.30195105 -0.050413273 0.21488689 -0.036030527 0.029988464 0.019775122 -0.017202066 0.08735391
-0.06404774 -0.11486819 -0.085977025 0.3468507 -0.10702089 0.1569452 -0.17744729 0.33446503
0.017148633 0.5032326 0.37326536 0.15178488 0.037893992 0.061583094 -0.023461895 -0.114124514
-0.05663132 -0.010838552 6.217767 -0.050041083 1.5601633 -0.02946645 0.6474686 -0.15705916
0.03939264 -0.38130805 -0.30031344 1.0368716 0.83999634 0.13893722 0.09544829 -0.0644062
0.08173889 0.077023424 0.0070534344 1.2668803 -0.8344938 0.9499596 0.47320813 0.28333044
-0.59916437 -0.05171461 -0.15557551 -0.7332352 -0.8725748 0.073068 -0.056848165 -0.116787076
-0.034520853 0.011594493 -0.055396263 0.15953614 -0.7449987 -1.1393689 -0.30933753 -0.1662654
-0.20272894 0.06051037 0.27747792 -0.0053081233 -0.0132117 -0.11890097 -0.24465866 -0.03430506
-0.025389139 -0.022284059 -0.0101451725 0.010129157 0.013751678 0.073169015 0.043569375 0.82105
0.4931028 -0.15039942 0.32227486 -0.22021805 -0.4834281 0.47964066 0.005968371 -0.07921274
0.0067224624 0.022461094 0.036322545 -0.016912866 -0.024280747 -0.02559257 -0.8569377 -0.24029095
-1.28991 1.8480904 -0.41254577 -1.3344154 -1.1235251 -1.2338195 -0.5499424 0.053399816
0.54361606 0.2621856 0.018539919 0.029173402 0.013727707 0.14626807 -0.027704464 1.4120748
0.8623571 1.9258965 0.8496853 0.47558764 0.15255368 -0.2733791 -0.45013088 -0.42258736
-0.0428683 0.22845894 0.06480963 0.11304764 0.05253384 -0.092351615 -0.023537086 0.003438977
-0.6709108 -1.0972568 -2.339147 -0.22667636 -0.5237557 -0.49274787 0.6737785 0.8240912
-0.0045676986 -0.6580248 0.3333087 0.26453874 0.047255624 0.010929923 -0.10000323 -0.07815329
-0.063162416 -1.0244949 1.7855562 -0.173944 0.77681965 -0.051440325 -0.14375255 -0.5423591
-0.56721425 -0.25122952 -0.6415227 -0.57630724 -0.12526865 -0.08534539 -0.029018372 -0.12707469
-0.10665612 -0.0012145867 0.10071248 -1.692697 -1.7252021 -0.9011335 -0.28881407 -0.8165877
0.5926146 0.7123671 0.17490035 0.13336694 -0.27072632 -0.073047295 -0.06231875 0.03643573
-0.147534 0.012168747 -0.060486164 2.751534 -1.2336413 -1.4935719 -0.20091379 -0.34863588
-0.12443181 -0.25782087 0.8854549 -0.7499775 1.2289292 0.6616068 0.10085293 0.23231831
0.001838845 0.08015271 0.09030724 -0.017703816 3.534703 -2.3836725 -0.036919024 -0.5238598
0.10639934 0.45493415 0.21098445 -0.16285676 -0.5184202 0.4225654 -0.106212266 0.036460094
-0.00085626135 -0.00050791726 0.04707207 0.022190664 0.0033882633 0.5091029 1.8514923 -0.25693664
-0.29540175 0.08406339 0.27635747 -0.074035265 -0.07252292 0.0025003748 -0.20490173 0.039116897
0.023325412 -0.01765507 -0.038815454 0.016908891 -0.03026233 0.028911406 -0.27882513 -0.14962699
-0.6046993 0.49226287 -0.11437382 -1.5311897 -0.896051 0.014878316 -1.1534641 -0.055110987
0.029122354 -0.086336315 0.016296437 0.05945197 0.32883912 0.08689685 0.038385816 2.2275207
00000000: 091e 943f 0e4e 9c3f f12c 0ebe 70e1 b53e
00000010: 7438 e4be 87bf 27be 3200 cf3d beab 02be
00000020: 5499 9abe 267e 4ebd 4f0b 5c3e bf94 13bd
00000030: 5eaa f53c 70ff a13c 59eb 8cbc 9be6 b23d
00000040: 762b 83bd 0340 ebbd b914 b0bd 6a96 b13e
00000050: c52d dbbd 3eb6 203e beb4 35be 003f ab3e
00000060: 4a7b 8c3c dad3 003f a31c bf3e 7f6d 1b3e
00000070: bb36 1b3d 8e3e 7c3d 2933 c0bc 1dba e9bd
00000080: 3ef6 67bd 2f94 31bc f2f7 c640 e1f7 4cbd
00000090: 6eb3 c73f a063 f1bc 81c0 253f 1ed4 20be
000000a0: 2d5a 213d cf3a c3be afc2 99be 35b8 843f
000000b0: 000a 573f 8f45 0e3e 657a c33d 66e7 83bd
000000c0: b866 a73d 75be 9d3d 7f20 e73b 2229 a23f
000000d0: 63a1 55bf 8d30 733f 5648 f23e b010 913e
000000e0: d662 19bf b3d2 53bd 304f 1fbe 4db5 3bbf
000000f0: 1061 5fbf ada4 953d 9fd9 68bd 102e efbd
00000100: bd65 0dbd d4f6 3d3c 31e7 62bd 715d 233e
00000110: 3cb8 3ebf d7d6 91bf 7d61 9ebe 7a41 2abe
00000120: 2d98 4fbe b9d9 773d 9611 8e3e c4ef adbb
00000130: e375 58bc 5a82 f3bd cd87 7abe 7683 0cbd
00000140: e2fc cfbc 0f8d b6bc f037 26bc c4f4 253c
00000150: b84e 613c a3d9 953d cd75 323d 5530 523f
00000160: f877 fc3e 4e02 1abe 3601 a53e d780 61be
00000170: e383 f7be 7693 f53e 5392 c33b 4a3a a2bd
00000180: 1a48 dc3b 5400 b83c f3c6 143d da8c 8abc
00000190: 6be8 c6bc 82a7 d1bc 4560 5bbf d50e 76be
000001a0: c51b a5bf 3a8e ec3f 3339 d3be 20ce aabf
000001b0: accf 8fbf cced 9dbf 06c9 0cbf c4b9 5a3d
000001c0: 6c2a 0b3f 313d 863e 07e1 973c 0ffd ee3c
000001d0: 2dea 603c 4cc7 153e 79f4 e2bc debe b43f
000001e0: 6fc3 5c3f c783 f63f fa84 593f 3980 f33e
000001f0: 0837 1c3e 58f8 8bbe 8e77 e6be 5f5d d8be
00000200: ac96 2fbd 24f1 693e e9ba 843d 8585 e73d
00000210: b92d 573d d822 bdbd d9d0 c0bc 7660 613b
00000220: cfc0 2bbf e972 8cbf 96b4 15c0 d91d 68be
00000230: db14 06bf 7349 fcbe bf7c 2c3f a4f7 523f
00000240: a2ac 95bb 5074 28bf 70a7 aa3e 9f71 873e
00000250: 1d8f 413d 6b13 333c 7ece ccbd d50e a0bd
00000260: 4c5b 81bd a622 83bf 1b8d e43f 601e 32be
00000270: a7dd 463f 17b3 52bd de33 13be 0cd8 0abf
00000280: f434 11bf 28a1 80be d53a 24bf df88 13bf
00000290: 6d46 00be 90c9 aebd f0b7 edbc de1f 02be
000002a0: 866e dabd c432 9fba 5842 ce3d 4caa d8bf
000002b0: 6cd3 dcbf afb0 66bf 70df 93be e40b 51bf
000002c0: 97b5 173f b15d 363f 1419 333e 5891 083e
000002d0: a49c 8abe d299 95bd f241 7fbd a23d 153d
000002e0: 2713 17be 6d5f 473c 57c0 77bd 2219 3040
000002f0: f5e7 9dbf 5d2d bfbf 58bc 4dbe 6780 b2be
00000300: 1bd6 febd 1901 84be 2cad 623f 87fe 3fbf
00000310: 8d4d 9d3f 105f 293f fb8b ce3d dae4 6d3e
00000320: 6605 f13a 1b27 a43d 01f3 b83d 9807 91bc
00000330: 9338 6240 178e 18c0 6738 17bd ad1b 06bf
00000340: e6e7 d93d 21ed e83e 4f0c 583e ecc3 26be
00000350: 30b7 04bf 7e5a d83e d185 d9bd 2e57 153d
00000360: ba76 60ba c025 05ba a5ce 403d 32c9 b53c
00000370: a00d 5e3b 9154 023f b3fd ec3f 338d 83be
00000380: e63e 97be 6d29 ac3d ba7e 8d3e cd9f 97bd
00000390: e686 94bd 54dd 233b c2d1 51be 0a39 203d
000003a0: ef14 bf3c 5ea1 90bc f4fc 1ebd 8484 8a3c
000003b0: b5e8 f7bc 9dd7 ec3c 2bc2 8ebe d137 19be
000003c0: 93cd 1abf e109 fc3e d23c eabd 06fe c3bf
000003d0: 9963 65bf 2ec4 733c b6a4 93bf 0fbc 61bd
000003e0: 0192 ee3c 18d1 b0bd 1b80 853c e983 733d
000003f0: 9a5d a83e faf6 b13d 723a 1d3d b38f 0e40

model.0.bias f4 [64]
1.5677752 2.480891 -0.12547958 -0.15321845 2.3082292 2.117033 -0.1854192 -0.038930792
-0.18891968 -0.9823317 1.0428461 0.06541448 0.9177034 1.6062306 -0.014356748 -1.0654958
0.14251612 1.7714119 -0.23253828 -0.533335 -0.728233 1.0447125 0.4774772 -1.4550723
-0.855657 1.246762 1.5486798 1.4259156 -1.3529505 -0.58300984 -1.697496 -0.023671433
1.2498996 0.50867575 1.2335216 2.3009632 -0.93600756 -0.8281744 0.69037974 0.53917545
0.29695898 1.4372183 2.6507394 -2.1725917 -0.11746635 2.2038167 1.6374006 -0.57115793
-1.981375 0.1604068 1.7204561 -1.443507 1.9033381 -1.633316 -0.95545876 -0.23009631
-0.52635914 1.6330316 0.33044198 0.6724526 -0.25710714 2.3357694 -1.7870516 0.50127697
00000000: dcac c83f ebc6 1e40 b87d 00be 4ce5 1cbe
00000010: 07ba 1340 787d 0740 88de 3dbe e575 1fbd
00000020: 2974 41be 177a 7bbf fb7b 853f 07f8 853d
00000030: 9cee 6a3f f798 cd3f 9138 6bbc 2b62 88bf
00000040: bfef 113e a0bd e23f 841e 6ebe a488 08bf
00000050: 7a6d 3abf 24b9 853f e477 f43e cf3f babf
00000060: 560c 5bbf e695 9f3f 243b c63f 6784 b63f
00000070: 7b2d adbf 2240 15bf 8d47 d9bf 98ea c1bc
00000080: b6fc 9f3f 9338 023f 09e4 9d3f fb42 1340
00000090: 319e 6fbf 3d03 54bf babc 303f 6707 0a3f
000000a0: 020b 983e c5f6 b73f b7a5 2940 be0b 0bc0
000000b0: 3392 f0bd 550b 0d40 5896 d13f 6837 12bf
000000c0: b29d fdbf ae41 243e e837 dc3f d6c4 b8bf
000000d0: 95a0 f33f 8010 d1bf f298 74bf 5e9e 6bbe
000000e0: 79bf 06bf 2e07 d13f b12f a93e db25 2c3f
000000f0: 8ca3 83be 3f7d 1540 1bbe e4bf b053 003f

model.2.weight f4 [64, 64]
-0.1028315 -0.11082985 -0.15497114 -0.03650142 -0.104774415 -0.17649066 -0.33896214 -0.36301434
-0.13507251 -0.10107737 -0.3312173 -0.112872794 0.69622594 -0.39969566 -0.2045235 -0.039458223
-0.11085121 -0.14592479 -0.13733676 0.07680366 -0.22317412 -0.14603889 -0.11828153 -0.080069
-0.40073305 0.080605194 0.14088385 -0.028866956 -0.5820781 0.01240342 -0.20074904 0.12413581
-0.27726015 -0.20136634 0.10335014 -0.287635 -0.3792175 -0.21574993 0.0026383337 -0.080460936
-0.33566093 -0.079240516 -0.20213781 0.17824563 -0.031274382 -0.23429155 -0.24430555 -0.14799547
0.024593947 0.08289464 0.1442844 -0.20150481 -0.40515321 -0.09626447 -0.14291292 0.15472044
0.086910814 0.010143001 -0.024169981 -0.2931743 -0.120604925 -0.37026113 -0.18165536 -0.16433449
-0.078836 -0.12826653 -0.079511255 0.04271034 0.046434652 -0.10507907 -0.06657408 0.07654238
0.028728845 -0.13040982 -0.001434321 0.019760806 0.06492107 0.013097483 -0.0045757843 -0.11912103
-0.053880434 -0.074235044 -0.025506353 0.0002162336 0.021705952 -0.110332035 -0.08482081 -0.03858472
-0.044211343 -0.08560352 -0.10922501 0.023805248 -0.13342473 -0.15547109 -0.07191184 0.057092488
0.09646762 -0.027504116 -0.16294579 -0.02950994 0.08122962 -0.10477616 -0.08763037 -0.084860206
-0.1135791 -0.03912929 -0.1265396 0.043271605 0.031579275 -0.12991412 -0.06780329 0.02853208
-0.0814006 0.043291956 -0.10956943 -0.13237424 -0.0027319253 -0.12210063 -0.07315622 -0.054897487
0.022751376 -0.0018876954 -0.018396487 -0.15054788 -0.12347742 0.021528335 -0.13051943 -0.07504983
-2.0795214 -0.064305045 0.06401074 0.3002074 0.14225318 -0.051971 -0.045205228 -0.8183241
0.39141795 -1.2802312 0.32837337 0.18858905 0.4730872 -1.9175317 -0.33233708 0.6286071
-0.27896622 0.13710369 -0.7583185 -0.95604885 -1.4891195 0.15323044 -1.2547103 0.15943927
0.32757065 0.63464606 -0.15427706 -0.043050755 -1.5854595 0.4454211 -1.5479447 0.6882881
-0.569869 -0.017064096 -0.015526156 0.028532457 -0.3884748 -0.44850847 0.14698444 -0.6882507
-0.06537518 0.3545311 0.19465266 -0.6209362 0.2867368 0.07148901 -1.5468266 -0.4423663
-0.24630074 0.76735556 0.65332973 0.54156756 -3.4951878 -0.9414209 0.41029745 0.53425735
0.5604156 -0.10788071 -0.98219407 -1.3679998 -0.85266143 -4.46354 -1.1418353 0.2361223
0.49180254 -0.13161023 -1.2310405 0.10750774 -0.13764945 0.16967703 0.9021181 0.093313865
0.19892657 0.44642666 -0.31865138 0.008855086 0.60910934 0.3107718 -0.2017336 -0.8105713
0.5790984 -0.15787373 -0.037560496 0.06784893 -0.027050529 0.2592735 0.5927932 -0.5539585
-0.48198992 0.27639315 0.2503333 0.19062501 -2.0691068 0.12575091 -0.8362999 0.78465533
0.011042262 0.37742215 0.44310614 0.7269999 0.1503888 0.28709406 0.5885133 0.49905106
0.122141905 -0.31534332 -0.41299036 0.22299075 -0.095815144 -0.08357178 -0.542363 0.39713186
-0.08590044 0.6968975 0.21285844 -0.83751875 -0.03718249 0.20906694 -1.193581 -0.14371301
0.5685996 0.21797396 0.36881122 0.31674987 0.40681663 -0.13253817 -0.519244 -0.032645527
00000000: 5299 d2bd c3fa e2bd c1b0 1ebe 8382 15bd
00000010: f893 d6bd f8b9 34be 728c adbe 04dd b9be
00000020: 7350 0abe a701 cfbd 5095 a9be da29 e7bd
00000030: dd3b 323f e9a4 ccbe 9c6e 51be f29e 21bd
00000040: f605 e3bd 4f6d 15be 02a2 0cbe 3d4b 9d3d
00000050: c287 64be 388b 15be 963d f2bd 37fb a3bd
00000060: e22c cdbe 5614 a53d db43 103e 657a ecbc
00000070: 1203 15bf b737 4b3c 2891 4dbe ea3a fe3d
00000080: 0bf5 8dbe fa32 4ebe 3da9 d33d e544 93be
00000090: cc28 c2be 8ded 5cbe e5e7 2c3b b4c8 a4bd
000000a0: c0db abbe da48 a2bd 37fd 4ebe 0686 363e
000000b0: 9119 00bd 20ea 6fbe 3c2b 7abe 208c 17be
000000c0: 3f79 c93c aac4 a93d 4abf 133e 4757 4ebe
000000d0: 3e70 cfbe 4e26 c5bd c457 12be 096f 1e3e
000000e0: 4cfe b13d d42e 263c 2000 c6bc f11a 96be
000000f0: b7ff f6bd de92 bdbe dd03 3abe 4d47 28be
00000100: c574 a1bd 4d58 03be ccd6 a2bd 0af1 2e3d
00000110: 4332 3e3d b233 d7bd fe57 88bd 40c2 9c3d
00000120: c158 eb3c 278a 05be d4ff bbba 6ae1 a13c
00000130: 57f5 843d d396 563c 76f0 95bb baf5 f3bd
00000140: bbb1 5cbd 8b08 98bd b3f2 d0bc c4bc 6239
00000150: aed0 b13c c3f5 e1bd 88b6 adbd 030b 1ebd
00000160: f416 35bd e650 afbd 5db1 dfbd 3903 c33c
00000170: 7ea0 08be d033 1fbe 8446 93bd d0d9 693d
00000180: d190 c53d 5050 e1bc 43db 26be d4be f1bc
00000190: b75b a63d e294 d6bd 8d77 b3bd 30cb adbd
000001a0: 299c e8bd 0946 20bd 9993 01be 913d 313d
000001b0: 4559 013d 3508 05be 74dc 8abd 1cbc e93c
000001c0: 5cb5 a6bd e852 313d f065 e0bd 1d8d 07be
000001d0: 1a0a 33bb e50f fabd eed2 95bd 30dc 60bd
000001e0: 1861 ba3c 8c6c f7ba 3bb4 96bc 3929 1abe
000001f0: bbe1 fcbd 315c b03c e3a6 05be bab3 99bd
00000200: e116 05c0 5db2 83bd 1018 833d c9b4 993e
00000210: d1aa 113e 8bdf 54bd 1e29 39bd b07d 51bf
00000220: ef67 c83e 9ede a3bf 8e20 a83e 7d1d 413e
00000230: 7c38 f23e ae71 f5bf 1628 aabe 65ec 203f
00000240: a9d4 8ebe e964 0c3e 2921 42bf 9ebf 74bf
00000250: 789b bebf 71e8 1c3e 599a a0bf 0c44 233e
00000260: 57b7 a73e 2a78 223f cefa 1dbe fd55 30bd
00000270: 56f0 cabf 3c0e e43e 0d23 c6bf a633 303f
00000280: efe2 11bf 01ca 8bbc 6b61 7ebc e6bc e93c
00000290: 2be6 c6be e7a2 e5be 1783 163e 3331 30bf
000002a0: 6ce3 85bd 1a85 b53e 0753 473e adf5 1ebf
000002b0: 2acf 923e d468 923d 6afe c5bf d67d e2be
000002c0: 4336 7cbe 6a71 443f 9e40 273f 2ca4 0a3f
000002d0: 28b1 5fc0 f600 71bf 8212 d23e 17c5 083f
000002e0: 6677 0f3f 90f0 dcbd 1271 7bbf 9e1a afbf
000002f0: 0548 5abf 52d5 8ec0 a927 92bf 0bca 713e
00000300: 8bcd fb3e d5c4 06be bc92 9dbf 052d dc3d
00000310: faf3 0cbe d1bf 2d3e 36f1 663f 571b bf3d
00000320: 68b3 4b3e 0992 e43e 4626 a3be ec14 113c
00000330: 97ee 1b3f 7b1d 9f3e 4193 4ebe 9a81 4fbf
00000340: cb3f 143f a7a9 21be 09d9 19bd 61f4 8a3d
00000350: 1299 ddbc 7fbf 843e 4cc1 173f 39d0 0dbf
00000360: 62c7 f6be 6783 8d3e b02b 803e 3433 433e
00000370: 3f6c 04c0 d9c4 003e c017 56bf 2cdf 483f
00000380: 9bea 343c 7a3d c13e cfde e23e aa1c 3a3f
00000390: 86ff 193e fefd 923e cfa8 163f 9f83 ff3e
000003a0: 8925 fa3d ae74 a1be 7973 d3be b057 643e
000003b0: bb3a c4bd ae27 abbd 4dd8 0abf de54 cb3e
000003c0: 92ec afbd e067 323f 90f7 593e a167 56bf
000003d0: ab4c 18bd a515 563e 43c7 98bf 8129 13be
000003e0: be8f 113f 9134 5f3e d3d4 bc3e 0a2d a23e
000003f0: 454a d03e 16b8 07be 2ded 04bf 51b7 05bd

model.2.bias f4 [64]
-0.0367793 -0.14324687 -0.2563864 0.030796425 1.0311365 0.05908257 0.4587042 1.9315867
0.68394816 0.5034732 -0.118148394 -0.031676322 1.9523524 0.049015585 -0.12941521 -0.08440348
-0.19458693 -0.73085254 -0.9406694 -0.16514535 1.1761848 0.019626757 1.2536944 1.7037362
0.02971739 -0.027110213 -0.5363734 -0.11234357 -0.23634902 2.05401 0.23349495 -0.8152998
-0.096049085 -0.14076567 -0.1346099 -0.26792836 1.4558649 -0.15105647 0.07116799 0.42790726
1.8746065 -0.03424964 1.0864378 2.1098492 -0.9660279 -0.2965711 -0.056476552 1.2519028
-0.030767407 1.455471 0.056202672 0.47701037 1.9321935 0.22100592 1.897572 1.0999796
0.010455116 -1.1357912 0.005563871 0.11275857 -0.109667376 -0.22027771 1.9305683 -0.17838453
00000000: e4a5 16bd 4faf 12be 1445 83be c948 fc3c
00000010: 48fc 833f 9100 723d 47db ea3e 3c3e f73f
00000020: 3a17 2f3f 9fe3 003f c9f7 f1bd 08bf 01bd
00000030: afe6 f93f 91c4 483d 6c85 04be bbdb acbd
00000040: cc41 47be 2719 3bbf b6cf 70bf dd1b 29be
00000050: 398d 963f 4bc8 a03c 0f79 a03f 0714 da3f
00000060: e271 f33c 3d16 debc c44f 09bf 6314 e6bd
00000070: 7a05 72be e674 0340 4d19 6f3e 7db7 50bf
00000080: 62b5 c4bd e024 10be 2dd7 09be e82d 89be
00000090: c859 ba3f 8cae 1abe 86c0 913d a916 db3e
000000a0: 1bf3 ef3f 5a49 0cbd 6510 8b3f c507 0740
000000b0: 9b4d 77bf 2bd8 97be f553 67bd 5a3e a03f
000000c0: ee0b fcbc e04c ba3f c634 663d b43a f43e
000000d0: 1e52 f73f 604f 623e a4e3 f23f 22cc 8c3f
000000e0: ef4b 2b3c 9b61 91bf 2251 b63b f7ed e63d
000000f0: 4a99 e0bd 7b90 61be dd1c f73f 6faa 36be

model.4.weight f4 [1, 64]
-0.053456973 0.07385267 -1.3979583 -0.5180641 0.4381798 -0.7194312 0.16222025 0.8047517
0.9183003 0.30777672 0.07160012 -0.24165364 0.7998626 -1.0508286 0.043377534 0.028202374
0.3948682 0.630713 1.0085158 0.09909727 0.10658995 -1.3024434 0.7629673 0.8509922
-0.89871496 -1.8465327 -1.340143 -0.6566886 -0.58415765 0.8439951 -0.6897845 0.6655308
0.086809084 0.0073275305 -1.0462072 0.13350025 0.26444313 0.026013833 0.15100978 0.46305022
0.5720597 -0.08648042 0.20792606 0.5963594 0.98126924 -0.029066961 -0.2668962 0.8610975
0.024484217 0.43769744 0.060359027 0.40539724 0.7921198 -0.028075704 0.6137365 0.8932938
0.063069694 1.5093445 -0.83110315 -1.209747 -0.008864656 -1.6306479 0.48907813 -0.010562348
00000000: b3f5 5abd 1240 973d 4cf0 b2bf d99f 04bf
00000010: 1a59 e03e a52c 38bf 111d 263e 3504 4e3f
00000020: ba15 6b3f e994 9d3e 15a3 923d 0d74 77be
00000030: ccc3 4c3f 8d81 86bf a4ac 313d aa08 e73c
00000040: 2a2c ca3e 6876 213f 0c17 813f 82f3 ca3d
00000050: d54b da3d 77b6 a6bf d351 433f a0da 593f
00000060: 2f12 66bf 2f5b ecbf ce89 abbf be1c 28bf
00000070: 5b8b 15bf 1010 583f b895 30bf 3a60 2a3f
00000080: f6c8 b13d c81b f03b 1eea 85bf 4ab4 083e
00000090: 1765 873e f61a d53c 4fa2 1a3e eb14 ed3e
000000a0: 8172 123f a51c b1bd 92ea 543e 02ab 183f
000000b0: 7634 7b3f d61d eebc 9ea6 88be e370 5c3f
000000c0: 2093 c83c e119 e03e 073b 773d 3a90 cf3e
000000d0: 5dc8 4a3f 05ff e5bc d61d 1d3f e7ae 643f
000000e0: af2a 813d 3332 c13f 2dc3 54bf fdd8 9abf
000000f0: 103d 11bc 12b9 d0bf 7368 fa3e b30d 2dbc
