trained_models/critic_1000.pkl (torch, 21599 bytes, 5 tensors)

model.0.weight f4 [64, 8]
00000000: fd76 bc3e 88bc 903d bbda abbf 28bb a53e
00000010: f92b 98be 33dc 28be 1c00 b7be 98c2 c53d
00000020: c5aa 253e cf65 23bf 5e3b 853e 7a2c 93be
00000030: f29b 0dbd 3d94 983e 4bf0 0a3d 9da3 36bb
00000040: 81ae af3e 55ed 013e 3a87 413e 9106 2e3e
00000050: 6707 103f 8d04 1e3e 49ed 443e a712 c93d
00000060: 9251 11be 78b9 b23e 1674 bbbe 28ba df3e
00000070: 8b0d c53e 2cb8 ccbc b7bb d0bb d417 f63d
00000080: 2769 b4be 93a5 eabd f0c7 cbbe 2f8e 52be
00000090: fc80 90bd 8f7c 8cbd 63d0 9c3d bc3c d83c
000000a0: fb46 82be 4dd0 1cbf 228d df3e 5a38 3ebe
000000b0: f4be debe 5d72 403e bd6d a63e 40e4 c53d
000000c0: f1c1 fc3e 004e 163f 2236 a7bd 1ade d13e
000000d0: 927e fe3c 918f 1fbe 8ea9 1cbe 6b43 3e3d
000000e0: a91c 49bd ca27 05bf 0af9 b93e 8e13 583f
000000f0: 98ff fc3d cf3b f7bd 8faa 7abe 57d9 c23d
00000100: 992b 8bbe 70fc 37bf 58df 09be ac21 c93e
00000110: 907f 32be 099f 65be 3235 bdbe 318b 4cbd
00000120: a15e c73e 7430 9ebd ae0c 8fbe cc9e 0abf
00000130: 1a2b ef3d b7d2 7fbe 470c e43d 56c9 83bb
00000140: 4627 7b3e b551 5fbd a64d 84bd 3b48 81be
00000150: 319c 903e e662 86be e1ad f6bd 71da f6bd
00000160: 2236 0bbc 0418 2dbf 9a62 0c3d 27e9 ee3d
00000170: 86a2 a8bb 2674 983e 1342 983e 4284 2f3e
00000180: b0d6 a53e 4a91 023d bb5d 4bbf 9cd7 aebe
00000190: f33f 7abd 4a47 713e 2e0c 64be 7503 3b3c
000001a0: be77 bdbd 65dc 04bf a1bf 8c3e 2b6a 253e
000001b0: 202d 6f3d 8004 303e 33b3 2c3e cd52 113e
000001c0: 6fa0 893e 43af 91be 3604 47bf 4a7a 6c3e
000001d0: 1740 56bc 6df6 193e 2552 823e fd7d 43bd
000001e0: c5f0 893d 94cf dabe a4d4 a2bd 1f28 43be
000001f0: d7b7 35bf 3dd6 72bc 871f 76be 786a 19be
00000200: 954a cd3e ac80 8ebd 9e86 fdbe ec98 253e
00000210: 886f 31bd 5a58 b33d 4426 95bd 2b34 8abd
00000220: a9dd 2e3d 027c b4be 7ce9 653e d6c9 26bd
00000230: 8e74 00bf 7a99 533e 15d2 d03c 32ad 16bd
00000240: 077a b9be 27e3 e33d 2555 ddbe 3bfc dc3d
00000250: f431 8c3e 1d63 d7be 69f8 6cbe 62be 34bd
00000260: 1e8c 0a3e f832 29bf 8cef 083e 769a e7bb
00000270: cad7 863e 5780 e2bd 0e7f 853e f4f0 843e
00000280: 7d6d e63c 14db 82be 08b7 a2bf 1ba4 2f3f
00000290: a6b7 aa3d bc11 16be 19c5 10bf d9c1 10be
000002a0: 0a8a dbbd 4066 be3d c745 3ebf f542 c6bd
000002b0: 32f2 a7be 6cb2 f3be 6453 b3be a548 83bd
000002c0: 0fde 9d3d 6a1e 163e 6e04 5c3e d5dd 38bf
000002d0: 4e58 983e 81ed 963e 9786 ca3e 9e1d 863c
000002e0: 0c7d aabd a5c7 853d 8765 51be 2ef7 5fbe
000002f0: 089c 283d 2ff4 483c 0b71 c33d 5472 d93c
00000300: 6e0c a63e 3103 0d3f f603 b13e c14e 4fbf
00000310: 5733 e83e 6fc9 203f f548 353f c69e 4c3e
00000320: d355 5e3e d9a6 44be 9d74 6bbf c42a b03e
00000330: b8b0 63bf 1ff0 30be 195a 67bd b1ce 5d3e
00000340: a1ea 1abc 7450 7ebe 3e76 70bd 906d a1be
00000350: b749 efbd c697 0c3e 93b7 c73d ea06 4bbd
00000360: 04cd e63e 80f7 383f 7b05 333e f22a 47bf
00000370: 8711 96be 51d2 99be 69ac 033c 509f d8bd
00000380: 34e0 7dbd eb74 33bf e6e7 19bf 9ee8 693d
00000390: d824 de3e ab5b 793d 7783 b13e 33b1 4fbc
000003a0: 8033 6f3e 635f b13d d434 973e f1f4 54bf
000003b0: c9e7 b73d 4f34 143f 5267 983e 9edb b9bc
000003c0: e2f5 853f 49ed 1abf 520c 213e b6d7 bbbf
000003d0: b8b9 d73e aa0a bdbd ee8e 213e 9452 0e3e
000003e0: 1ab9 4a3e 7d3a 083c 92ee 11bf 418b 4a3d
000003f0: 7b6e c2be bb6c 1ebd 2c2e 58bd f68a c03c
0.3680953 0.070672095 -1.3426126 0.3236935 -0.29721048 -0.1649025 -0.3574227 0.096562564
0.16178425 -0.6382722 0.26021856 -0.2874487 -0.03457255 0.29800597 0.033920567 -0.0027868517
0.34312823 0.12688191 0.18899241 0.16994692 0.56261295 0.15431423 0.19231142 0.09818011
-0.14191273 0.34907126 -0.36612004 0.43696713 0.38486895 -0.024990164 -0.0063700336 0.120162636
-0.35236475 -0.11457362 -0.39800978 -0.20562051 -0.07055852 -0.06859695 0.07656934 0.026396148
-0.2544478 -0.6125534 0.43662363 -0.18576184 -0.4350506 0.18793626 0.325056 0.09662676
0.49366716 0.5871277 -0.08164622 0.40989763 0.031066213 -0.1558211 -0.15299055 0.046451014
-0.049099598 -0.5201384 0.36322814 0.8440484 0.12353438 -0.120719545 -0.24479125 0.095141105
-0.271817 -0.71869564 -0.13464105 0.39283502 -0.17431474 -0.22423948 -0.36954647 -0.04993743
0.38939384 -0.077240855 -0.2793936 -0.54148555 0.11678143 -0.24982725 0.11135154 -0.004021804
0.245267 -0.05452128 -0.06460123 -0.2525042 0.28244165 -0.2624733 -0.120448835 -0.12053383
-0.008496793 -0.6761477 0.03427372 0.11665564 -0.0051463274 0.29776114 0.2973791 0.17140296
0.32390356 0.03187684 -0.79439896 -0.34148872 -0.061096143 0.23562351 -0.22270271 0.011414398
-0.09251355 -0.51898795 0.2748995 0.16153781 0.058392644 0.17189217 0.16865234 0.14191742
0.26880214 -0.28454027 -0.777408 0.23093525 -0.013076804 0.1503541 0.25453296 -0.047727574
0.06735376 -0.42736495 -0.07950714 -0.19058274 -0.7098364 -0.014821586 -0.24035464 -0.14982021
0.40095964 -0.06958136 -0.49516767 0.16171616 -0.043319255 0.08757086 -0.07282689 -0.067482315
0.04269186 -0.3525086 0.22452348 -0.04071983 -0.5017785 0.20664015 0.0254908 -0.036786266
-0.36225912 0.1112731 -0.43229023 0.10790297 0.2738186 -0.42067805 -0.23141636 -0.044126876
0.13530013 -0.660934 0.1337263 -0.0070679737 0.2633651 -0.11059635 0.26073498 0.25965083
0.02812838 -0.25557768 -1.2712107 0.6860978 0.083358094 -0.14655203 -0.5655075 -0.14136447
-0.10719688 0.092968464 -0.7432522 -0.0968074 -0.32801968 -0.47597063 -0.3502456 -0.0641034
0.0770837 0.1466004 0.21486065 -0.7221349 0.2975487 0.29478076 0.3955581 0.016371544
-0.08324632 0.0653222 -0.20448886 -0.21871635 0.041164428 0.012265249 0.095430456 0.026543774
0.32431358 0.55082995 0.34573334 -0.80979544 0.4535167 0.62807363 0.7081445 0.19982442
0.21712427 -0.19204272 -0.9197481 0.34407628 -0.88941526 -0.17279099 -0.05648241 0.21660878
-0.009455354 -0.24835378 -0.058706515 -0.31528902 -0.11683982 0.13729772 0.09751811 -0.04956714
0.4507829 0.72252655 0.1748256 -0.77799904 -0.29310247 -0.3004327 0.008036711 -0.105772614
-0.061981395 -0.7010028 -0.60119474 0.057106607 0.43387485 0.060878437 0.34670612 -0.012676525
0.2335949 0.08660772 0.29532492 -0.8318625 0.089797564 0.57892317 0.29766327 -0.02268773
1.0465662 -0.6051832 0.15727356 -1.4675205 0.4213388 -0.0923055 0.1577718 0.13898689
0.19797173 0.008314726 -0.57004654 0.04944921 -0.37974915 -0.038677912 -0.052778408 0.023503762

model.0.bias f4 [64]
00000000: c78a aabe cd24 813e 3842 e23e 4577 48bf
00000010: 2aa2 fdbe 8b04 e6bc 2ac3 313f 6505 a93e
00000020: bdf3 66bd 396b 933f 58c5 7c3f 5cc9 c5be
00000030: 25c8 18be 650e e3be c3b2 dabc c39f c53e
00000040: 9bdd 513d 3f17 313f b06f 3ebf cdc1 113f
00000050: 2434 893d ac52 d1be 5e3a 06bf f6d6 3bbf
00000060: 5d0e ffbb 0b96 603d eb32 77be db47 5fbd
00000070: b53b c3bc 7d05 8e3e db53 13be 6a7a f83e
00000080: 449b 09be ee58 463f 44d4 243f aee5 5dbf
00000090: 30a4 5e3e f398 fc3d 9ce4 88bd b37e 86be
000000a0: ecc1 15bf 6f48 27bf 5c90 6a3f b749 113f
000000b0: 0a21 38bf 5414 91be 857b cf3e 25c2 073f
000000c0: d8b1 94be beec d13e 5b9f 3cbe 3401 19be
000000d0: 5b56 883c a913 7a3d 7aab 35bf 70ae 3e3f
000000e0: ab03 61bc 0886 313d 746a 4c3f 75da e5bd
000000f0: 0298 1e3e 9a9b 483f 723a 343e 6dff 4abb
-0.33309004 0.2522339 0.44191146 -0.7830699 -0.49537784 -0.028078338 0.6943842 0.33011928
-0.05638479 1.1517097 0.9873862 -0.38630188 -0.14920099 -0.4434692 -0.026696568 0.3859845
0.05123673 0.69176096 -0.7438917 0.5693634 0.06699398 -0.40883386 -0.5243281 -0.7337488
-0.0077836947 0.054830592 -0.24140517 -0.054511886 -0.023832181 0.27738562 -0.14387457 0.48530895
-0.13438135 0.77479446 0.6438639 -0.8667859 0.2174232 0.1233386 -0.06684229 -0.2626854
-0.58499026 -0.653449 0.91626525 0.56753105 -0.71925414 -0.28335822 0.40523925 0.53030616
-0.29041934 0.41000932 -0.18420164 -0.14941865 0.01664274 0.061053906 -0.7096478 0.7448492
-0.013733785 0.043340713 0.79849935 -0.11223308 0.15487674 0.7836243 0.1760042 -0.0030975

model.2.weight f4 [64, 64]
00000000: 9199 723e 0b26 47be fb78 36bd 2104 3c3c
00000010: ad90 473d ca14 90be 3419 88be 6c1c a1be
00000020: fa71 3b3d 6462 c6be 7690 a8be 8152 b0be
00000030: 7ca9 9f3c fad5 4abe 6dab 54be 4ee5 cb3d
00000040: 29db 873d 315c 28be 783c 0e3e 695d 9dbd
00000050: ad60 303d 3792 373e 5d84 ad3c a807 053d
00000060: 5e13 2b3e 2dcf 3bbc 138d 3c3d 325e cfbd
00000070: c335 873c 496b 9fbd cfd5 103e cb02 76bd
00000080: 09a4 b0bd d5ae 2dbe 6901 ca3c 780d 0c3e
00000090: b461 083f 5d2c 5c3e 4538 233e c972 163e
000000a0: 8c55 0f3d a951 ab3c 543d a93d 1330 b4bd
000000b0: aa39 e5bc ebff 1b3e 42ed 89be 35ab 81be
000000c0: bf1c 36be 5869 babe 19c0 4bbd e3a8 993d
000000d0: 8048 b73d 1413 873e b692 b33d f9e0 0cbe
000000e0: 0f97 acbc 655a 3abe 7af0 2dbe 7985 533e
000000f0: 8d41 e6bb 00c2 86be a1d4 aebe 26ce 9b3e
00000100: b9b4 babd d4c4 a6bd a6b1 2fbe 1538 4f3d
00000110: a502 9dbd 5c0f c53d 171f 34be 982b 4cbd
00000120: 9fc1 08be 8a2a 3cbe c571 6fbe 4f36 a6bd
00000130: 05dc 0f3e 3753 92bc 898a bd3d e0ba b1b9
00000140: 5764 f1bd b3e1 03be a794 7e3d c438 85bd
00000150: 0404 b43b c8af 723d 9b7f 49bd 8842 d4bd
00000160: c5ca 09bc 15e1 38be e104 a13d c073 48be
00000170: caa8 013d 9125 6ebc 5316 4f3d 6148 383c
00000180: 1947 cd3c a4ff cabc d28e bbbe a160 383d
00000190: f162 89be 3986 cebd 2e76 21bd 599f 15be
000001a0: 35c2 2bbd ef96 853d 8947 60bd a680 dd3d
000001b0: 6114 883d f2ce 363d 9edf 2b3d f42f 36be
000001c0: a40e 0f3e 3872 423b 1c7f 48bb 30dc 95bc
000001d0: 6cb2 45bb 61ec 52be 1e9c aabd a615 00be
000001e0: 6d36 2ebd ee73 bb3d 5192 71be f5c1 493d
000001f0: 3b42 473d 4a87 ccbd 1a7e 443d 1d0b 14bd
00000200: 19cf f8bd 9199 e1bd 27b8 9bbc 8d41 8b3e
00000210: 4d90 873d 6360 a5be ba0d dcbe c540 663d
00000220: 5bf1 b83d dd60 13bf e54b 33bf ce27 19bf
00000230: aa1f 9abe 6a6a 84be 68fa aa3c 31d9 74be
00000240: 0075 7b3e cae0 d3be c0c0 833e 3c7e 9fbe
00000250: 811b 283e a784 1fbe a1a6 d1bd ee6b 6b3e
00000260: b1e9 dcbb 4bbc a53d bb3c a83d d09c 23be
00000270: 0e15 90bc ed22 06bf a254 fdbc 39ed 25be
00000280: 5371 eb3d b6b6 83be fe2f 9abe 11e6 703e
00000290: 8309 0ebe a7ec f1be 57bf 923c 3254 cfbd
000002a0: c7f3 403e 0606 7e3e fa48 4cbd e7c9 95bc
000002b0: 6b83 ab3e 268a f8be 1463 bbbc 7915 84be
000002c0: 5141 483d 2ed6 8b3e 4dfe 163e 5442 fa3d
000002d0: aae1 0e3e 3f45 febe cba4 dc3d c8d4 9cbe
000002e0: 5df4 8f3e ff92 be3d 2fac 14be b3d3 713d
000002f0: d9b0 463d 9576 b1be 8b1e 90be 428c 353e
00000300: 0eed 513e 806d c2bd eb20 b3bd a2e9 33bc
00000310: 7fff 02bd bcec 59be a854 f5be 027b dfbd
00000320: dba2 b23c 7cbf c0be 6c94 9bbe 9fb0 f9bd
00000330: 283a d63d 3422 55bd 0e6f 43be 1342 8cbd
00000340: 4c52 13bd 9072 83be c67f c43a 3f62 edbd
00000350: 2571 243d ba59 72bc e5ad 653d 7303 be3d
00000360: abc1 953e 955f 2dbe d159 1e3e 8b7c e6bd
00000370: 8526 1f3d e346 91bc c6c1 b43d f5fa 3abb
00000380: 7c8c 3abd 6246 93be a80f e1bc 8b47 d3b9
00000390: 0c28 223e c452 deba d533 b93d 3a44 023d
000003a0: 7733 023e 20ea 1b3e d64f 10be 0cad 57bd
000003b0: 6ea9 cf3d 3e65 3a3e d0fb 83be 6c94 71be
000003c0: 39e5 233d 3a6f a9be 5f94 c83d 0f7b adbd
000003d0: 754c 6cbc f74c 9a3e d239 f63d 9425 6dbd
000003e0: 0ed5 f33a 2154 2bbe e600 aebd f576 c13d
000003f0: 73bf 01bb cc49 89be abd1 e1be d1a3 ff3d
0.23691393 -0.19448106 -0.04454897 0.011475594 0.048721958 -0.2814086 -0.26581728 -0.31466997
0.045762993 -0.3874694 -0.32922715 -0.34437945 0.019489996 -0.19808188 -0.20768519 0.09955846
0.06633598 -0.16441418 0.13890254 -0.07683832 0.043060947 0.1792687 0.02118128 0.032478005
0.16706607 -0.011462969 0.046032976 -0.10125388 0.016505128 -0.07784135 0.14144062 -0.060061257
-0.08625037 -0.16961224 0.024658876 0.13677013 0.53274083 0.21501298 0.15939434 0.14692225
0.034993693 0.020912962 0.082636505 -0.08798232 -0.027981598 0.15234344 -0.26938826 -0.25325933
-0.17784403 -0.36408496 -0.049743745 0.07502916 0.08949375 0.26381743 0.08768217 -0.13757695
-0.021068124 -0.18198545 -0.16986266 0.20656385 -0.007026857 -0.26319885 -0.34146598 0.30430716
-0.09116501 -0.08143011 -0.17157611 0.050590593 -0.0766652 0.0962207 -0.17589985 -0.04984626
-0.1335511 -0.18375602 -0.23383243 -0.08115827 0.14048775 -0.017861946 0.09254939 -0.00033899304
-0.117867164 -0.12879066 0.062153485 -0.06504968 0.0054936428 0.05924967 -0.04919396 -0.10364252
-0.00841016 -0.18054612 0.07862259 -0.19575405 0.03165511 -0.014535324 0.0505584 0.011247725
0.025058316 -0.024780102 -0.366324 0.045014028 -0.268333 -0.10084195 -0.039419346 -0.14611568
-0.041933257 0.06522929 -0.05475572 0.10815553 0.06644512 0.044630952 0.041961305 -0.1779173
0.13970429 0.002967013 -0.0030593341 -0.01829347 -0.0030166162 -0.20597984 -0.08330558 -0.12508258
-0.042532373 0.09152971 -0.23590972 0.049257237 0.048647147 -0.09986742 0.047971822 -0.03614341
-0.12148876 -0.110156186 -0.01900871 0.2719845 0.0661932 -0.323001 -0.42979223 0.056214113
0.0903041 -0.57569677 -0.7003768 -0.5982636 -0.30102283 -0.25862437 0.020871356 -0.23910977
0.2455635 -0.41382438 0.25732994 -0.31150997 0.16416742 -0.15577947 -0.1023686 0.2299039
-0.0067417254 0.08092555 0.082147084 -0.15977788 -0.017588165 -0.5239704 -0.030924145 -0.16203775
0.11496224 -0.25725335 -0.3011474 0.23525263 -0.13870816 -0.47250864 0.017913504 -0.10123481
0.18842994 0.24806985 -0.049874283 -0.018284751 0.334987 -0.485429 -0.022874393 -0.25797632
0.048890416 0.27311844 0.14745446 0.12219682 0.13953272 -0.49662206 0.10773619 -0.3063109
0.28116122 0.09305381 -0.14518808 0.059039783 0.0485085 -0.34660783 -0.28148302 0.17729285
0.20500585 -0.09493542 -0.08746513 -0.010980995 -0.03198194 -0.21281713 -0.4791615 -0.10912134
0.021806171 -0.3764609 -0.30386674 -0.12191891 0.10460311 -0.05203457 -0.19085333 -0.0684854
-0.035967156 -0.25673342 0.0014991693 -0.115910046 0.040146966 -0.0147919 0.056074042 0.09278002
0.2924932 -0.16930993 0.1546395 -0.112542234 0.038855094 -0.017733997 0.08826022 -0.002853093
-0.045544133 -0.28764635 -0.027473286 -0.0004029836 0.15835589 -0.0016961922 0.09043089 0.031803347
0.12714945 0.1522603 -0.14092955 -0.052655265 0.10139738 0.18202683 -0.25778055 -0.23591775
0.040013526 -0.33092672 0.097939245 -0.08470737 -0.014422526 0.30136845 0.12022747 -0.057897165
0.0018602924 -0.16731311 -0.08496265 0.094465174 -0.001979795 -0.26814115 -0.44105276 0.124824174

model.2.bias f4 [64]
00000000: 4dc8 b5be d3c8 583d f212 96be 9f5b 58be
00000010: b4af 4fbe bff2 2dbe 08f2 ca3e c19b b8be
00000020: 5822 ee3e 5aae da3e 1a28 afbe ac0f 83bd
00000030: 95d0 dc3e 2b7f 67be fce1 023f 0523 013f
00000040: 0b4f fa3e 0835 073f 96b5 dbbd d2d4 83be
00000050: 3365 20bd a262 a63e 7532 70be 8005 aa3b
00000060: 12a1 9f3e d8f2 e13e 9457 c6bd 28e8 01be
00000070: 5ef7 9ebd 55f1 133f aea6 2f3f 96bf 013f
00000080: 8060 15be 51b5 c13b 26e3 0bbd 178f 283f
00000090: 70da f93e eb53 863d d034 d03e 8d42 2b3f
000000a0: 2271 263f 15e7 203f 5f06 7abe 9718 e73c
000000b0: a09f 223f c7cd 313d 132e 273f 85a4 c13e
000000c0: a5a2 063f 2122 99be cc51 083f 2636 293f
000000d0: d550 223f 24db ca3e d044 223f 9701 acbe
000000e0: 1a9e 1e3f 595c a7be 9bb7 153f 18e0 033f
000000f0: cda6 9d3e 3288 ca3e 3810 273f 3c12 d0be
-0.3550438 0.052925896 -0.2931133 -0.211287 -0.20281869 -0.16987132 0.3963778 -0.3605633
0.46510577 0.42711145 -0.34210283 -0.063994735 0.43127885 -0.22607104 0.51126075 0.5044406
0.4888843 0.52815294 -0.10727994 -0.25748307 -0.03915901 0.32497126 -0.23456748 0.005188644
0.31177574 0.44130588 -0.09684673 -0.12686217 -0.07762025 0.5779012 0.6861371 0.5068296
-0.14587593 0.005911507 -0.034152173 0.6584334 0.48799467 0.06558975 0.40665293 0.66898423
0.65016377 0.62852603 -0.24416493 0.028209968 0.6352482 0.043409135 0.6530468 0.3782083
0.52591926 -0.2990885 0.5324981 0.6609825 0.6340459 0.39620316 0.6338625 -0.33594963
0.61959994 -0.32687643 0.58483285 0.51513815 0.3079132 0.39557034 0.6525912 -0.40638912

model.4.weight f4 [1, 64]
00000000: 4551 c93c f3ff 6fbd 2260 0ebf 3028 65bd
00000010: 8adc a9bf bbaa d5bf c32d 2f3d 5665 39be
00000020: 9e2f 323e 47ed 383f 8e01 f5bd c36b 4abe
00000030: a913 5b3e 535f e7be a5a6 423e 7473 cf3e
00000040: fbe4 343e cb3f 2a3e 2d10 89bf 01a2 54bf
00000050: 1432 91be ee01 683d e169 8abd c83b ac3c
00000060: 01e3 213f c6bf d23d 457d d7bf 5ad4 aabf
00000070: bae5 133c 7880 843e 8646 b33e f071 0d3e
00000080: d03f 6abf 434a 42be 5502 3bbe 444d 973e
00000090: f473 433e 5e60 bbbc 1c7b 3c3c 77de 8a3e
000000a0: 16a8 3e3e 5bae 7f3e 285a 0cbe 5517 a43c
000000b0: 2d59 7a3e 517f b1be 577a 863e 0a6d ac3d
000000c0: d946 103e 4c94 23be a55e 8d3e b2f1 ab3e
000000d0: e927 443e 309f 743d 50d4 5d3e 4287 cabd
000000e0: 76b7 983e f930 12be f6b8 8f3e 2add 0f3e
000000f0: 0283 883b ac92 903e 7a6f 1a3f 075b b1be
0.024574885 -0.0585937 -0.5561544 -0.05594653 -1.3270428 -1.6692728 0.04276825 -0.18105063
0.17400977 0.72237056 -0.11963187 -0.1976767 0.21394219 -0.45189914 0.19008882 0.4051777
0.17665474 0.16625898 -1.0708061 -0.830597 -0.2835852 0.056642465 -0.06758476 0.0210246
0.63237005 0.10290484 -1.6835104 -1.3346055 0.009026939 0.25879264 0.35014743 0.13812995
-0.9150362 -0.18973641 -0.18262608 0.29551136 0.19087201 -0.0228731 0.011503961 0.27122852
0.18618807 0.24968855 -0.13706267 0.020030657 0.2444808 -0.34667447 0.26265213 0.08419235
0.14089526 -0.1597454 0.2761127 0.33582836 0.1915585 0.059722126 0.21663022 -0.0988908
0.2982747 -0.14276494 0.28070801 0.14049211 0.004166008 0.28236902 0.6032635 -0.3463976
