trained_models/DDPG/Swimmer-v2_actor_critic_200_epochs.pkl (torch, 554191 bytes, 11 tensors)

pi.pi.0.weight f4 [256, 8]
000000 d8 74 62 bf 3a 7a a9 bf ea 09 7c 3f 68 a5 da be
       -0.8845954 -1.3240426 0.9845263 -0.4270432
000010 c1 60 2e 3e 6c ac 77 3e 5a 2d 9e 3e eb b7 0c 3d
       0.17029096 0.24186867 0.30893975 0.034355085
000020 38 44 6c bf ae a3 97 bf fe 2c 9b 3e e4 88 19 40
       -0.92291594 -1.1846826 0.30307764 2.3989801
000030 2b e3 86 bf 24 0d 00 bf b9 89 ba 3e 29 a7 f9 3e
       -1.0538076 -0.5002005 0.364332 0.48760346
000040 ea 18 c0 bf 92 a8 46 bf 46 e2 72 3f 55 88 20 bf
       -1.5007603 -0.7760097 0.94876516 -0.62708026
000050 5a ab 93 3f 2a f0 ae 3e b2 3d f3 be 44 15 4a bd
       1.1536667 0.34167606 -0.47508007 -0.049336687
000060 ad 83 1e 3f 86 0c 11 40 9b 79 97 3f 48 89 14 bb
       0.6191967 2.2663894 1.1833986 -0.0022664834
000070 1d ef 31 bf 06 70 1a bd ed 2a 6a 3e 88 13 a1 3f
       -0.6950548 -0.03770449 0.22867937 1.2584085
000080 2a f6 5d bf db 77 be 3e 88 cc 21 40 68 99 b0 3f
       -0.8670374 0.37200817 2.5281086 1.3796816
000090 7f c2 15 40 b6 8b f0 3e ec 7c fe bd 6d 7c d0 3e
       2.339996 0.4698159 -0.12426171 0.4071993
0000a0 0c 57 94 3f a5 9c 80 3f 58 7e 69 bf b1 5c 4c 3f
       1.1589065 1.0047804 -0.9120841 0.79828936
0000b0 12 c5 c9 3f 56 cf 81 3e 71 4c 76 3e c9 b4 08 be
       1.5763266 0.25353497 0.24052598 -0.13350214
0000c0 9b 76 8a bd 74 a6 6e 3e be 8c 09 3f c0 b6 54 bf
       -0.067609034 0.23305684 0.5373038 -0.83091354
0000d0 a8 81 16 3c ff 9d 0e 3f 49 49 2b be e5 6a d6 bd
       0.009186186 0.5570983 -0.16727175 -0.10469607
0000e0 e5 a0 9e be 4d e1 86 be 82 b6 64 bf d5 16 8f bc
       -0.30982128 -0.26343766 -0.89340985 -0.017466942
0000f0 25 80 82 3f e7 30 20 bf 2d 47 fc 3d 6f 54 b6 be
       1.0195357 -0.6257462 0.12318263 -0.35611293
000100 b4 91 50 bf 19 17 6c 3f 00 c8 84 bf 62 4d 9a 3f
       -0.81472325 0.92222744 -1.0373535 1.2054865
000110 5f 07 ac be 9e 6b 6e be 1a c4 97 be 16 c6 12 bf
       -0.33599374 -0.2328324 -0.296418 -0.57333505
000120 18 16 69 bf f7 90 50 bf 7f 6d af 3f 04 41 0d be
       -0.9104934 -0.814712 1.370529 -0.13794333
000130 4e 24 ee 3e d3 f4 17 bf 56 26 7f bd 40 c2 b3 bd
       0.46512073 -0.5935795 -0.06229242 -0.087772846
000140 29 7a e2 3e 4a c8 84 3d ac 98 0c c0 32 14 80 3e
       0.44233826 0.064835146 -2.1968184 0.25015408
000150 e7 38 97 3f 78 67 b1 3e 57 1f db 3e df 1b 52 be
       1.181424 0.34649253 0.42797348 -0.20518444
000160 53 6f 81 bf bc a7 53 bf c4 8b 80 3f 10 80 0e bf
       -1.0112098 -0.8267782 1.0042653 -0.5566416
000170 25 b3 da bd 31 74 4b bf 2e f3 fc be 40 b6 03 3e
       -0.106787 -0.7947417 -0.4940428 0.12862492
000180 06 1a 7d bf bf dd 1f 3f 2f aa 6e bf e2 68 a4 3f
       -0.98867834 0.6244773 -0.9322843 1.2844508
000190 4d f4 c2 bf cf 8a 0c bf eb 30 5e be ba 48 e9 be
       -1.5230805 -0.54899305 -0.21698348 -0.45563298
0001a0 cb be ae be b2 81 84 3f f7 ee 2b 3f 2c cf 55 3f
       -0.34129938 1.035208 0.67161506 0.83519244
0001b0 fc d0 f0 be 15 e4 8f 3f 37 80 87 be 62 9b a2 3e
       -0.47034442 1.124148 -0.26465008 0.31759173
0001c0 8d 0e a0 3f 19 4e c8 3f c0 03 44 3f 8f e4 c9 be
       1.250444 1.5648834 0.7656822 -0.3943219
0001d0 ff ef 9e 3f b9 50 99 be 78 f6 70 bc 42 f3 3f 3d
       1.2416991 -0.299444 -0.0147072 0.046862848
0001e0 b4 84 72 bf f1 97 1f 40 d3 a9 8b 3f 7a ae d2 bf
       -0.9473374 2.4936488 1.0911201 -1.6459496
0001f0 dd 53 ee be 34 2c 89 be 85 35 5c 3e 81 ba ae be
       -0.46548358 -0.26791537 0.21504791 -0.34126666
000200 ef 69 e2 bf 25 bc c5 3e 14 d6 09 bf 94 b0 ab bf
       -1.7688578 0.38620105 -0.5384228 -1.3413262
000210 ad 88 48 bd d7 ba 79 bf de 96 66 bf 48 54 74 3e
       -0.04895847 -0.9755072 -0.90073955 0.23860276
000220 05 13 6a 3f ca 49 91 3f 98 fc 42 3f 26 25 a0 3e
       0.9143527 1.1350644 0.7616668 0.31278342
000230 77 00 44 bd 1b c6 c3 3e aa af c6 3e a7 c3 a0 be
       -0.047852006 0.3823708 0.38805896 -0.3139927
000240 8d b7 7f 3e 2e b4 72 3f b2 23 ea bf 19 59 86 be
       0.24972363 0.9480618 -1.8292143 -0.2623985
000250 68 b9 db 3e f4 7b a1 be 14 cf 94 3e fd 8d 81 3f
       0.4291489 -0.3153988 0.29064238 1.0121456
000260 1c 0e d2 bd ef 7f 35 3f 65 04 ee bf 4b a6 cf 3f
       -0.102565974 0.70898336 -1.8595091 1.6222624
000270 02 72 91 bf 04 ca a0 bd dc 0c 93 be c2 de 22 3e
       -1.1362917 -0.078510314 -0.28720748 0.15905288
000280 70 27 7a bf ef b7 fb 3f 84 fc 8d 3d 7d 54 07 bf
       -0.97716427 1.9665507 0.06932929 -0.52863294
000290 5d 60 2e bf 30 97 e9 be af 1d e5 3d 45 9b 39 3f
       -0.6811579 -0.4562316 0.11187302 0.7250255
0002a0 a0 4d 96 3e 72 c9 bb bf a9 d7 96 3f c7 fe 77 c0
       0.29356098 -1.4670851 1.1784564 -3.8749254
0002b0 35 51 20 3f 7c 57 d0 3e b1 d7 01 bf 1a e8 9b bc
       0.6262391 0.40691745 -0.50719744 -0.019031573
0002c0 d9 f9 d0 3e e1 37 5f 3f 99 7a e3 3e eb f5 20 3e
       0.4081562 0.8719464 0.44429472 0.1571881
0002d0 4f 9c 62 3f a1 30 50 bf cc 46 ca be 24 34 c1 3e
       0.8851976 -0.813242 -0.3950714 0.37735093
0002e0 94 00 2a be 86 8d 92 3f 2c 58 c1 3f bb b3 10 c0
       -0.16601783 1.144944 1.5105033 -2.2609699
0002f0 12 23 66 3d 9d eb 90 be 1d ee 43 be 6e 2e a5 3f
       0.05618579 -0.2830476 -0.19133802 1.2904794
000300 4c 07 fa bf aa dc 17 bf ac ac 9d be 6f 3c 18 3f
       -1.9533477 -0.5932108 -0.307958 0.59467214
000310 55 5a 31 bf 99 08 86 3d df ad 7f be ed 24 1b be
       -0.6927846 0.065446086 -0.2496867 -0.15150805
000320 06 07 a9 bf a1 b3 b3 bf db ba 52 bf 99 ef 91 be
       -1.3205268 -1.4039193 -0.8231637 -0.2850311
000330 03 a8 ee be a8 46 88 be db 13 39 bf af 78 1e 3e
       -0.46612558 -0.26616406 -0.7229592 0.15475725
000340 cf fc 61 3f e4 ec cc 3d b3 03 78 3f 8d 9d 93 3f
       0.8827638 0.10006121 0.96880645 1.1532456
000350 c7 d2 07 40 a3 2f 72 3d a8 ea e5 be 96 b3 0f 3f
       2.1222398 0.05912746 -0.4490559 0.561334
000360 9b a4 74 3f 6c 56 26 3e ba bd 08 be b7 e3 55 40
       0.9556367 0.16243905 -0.13353625 3.3420236
000370 1e bf 6c bf d9 fe 68 3e 0e bf 38 3f ea dd 20 be
       -0.9247912 0.22753467 0.72166526 -0.15709653
000380 f7 ff 89 bf ae 5e 10 bf 94 2a 8d bf d2 ce 7d bf
       -1.0781239 -0.5639447 -1.1028619 -0.9914371
000390 b7 d8 20 3e 7e b8 80 be c1 e5 07 be ae 1e 24 3f
       0.1570767 -0.25140756 -0.13271238 0.64109313
0003a0 c1 de e0 bd 97 8a 2d bf 47 82 2a 40 23 1b 57 3f
       -0.10979987 -0.67789596 2.6642015 0.8402578
0003b0 6f 83 34 3f dd fa 9d 3e cd 4e f3 be 63 9e af 3e
       0.7051305 0.30855456 -0.47521058 0.34300527
0003c0 b7 34 26 c0 27 5f 77 bf e0 46 76 3d 92 0c 89 3e
       -2.5969675 -0.96629566 0.060126185 0.26767403
0003d0 94 4e b6 bd ab 44 ca be 8c b2 02 bf ff 04 9d be
       -0.08901706 -0.39505515 -0.5105369 -0.30667874
0003e0 fd e3 bc bf b8 3c d1 bf 18 bb 79 bf e5 d7 39 be
       -1.4757077 -1.6346655 -0.9755111 -0.18148763
0003f0 b8 7d ba 3e 39 a4 b5 be d3 d6 bb be 4b d9 c5 be
       0.3642404 -0.35476854 -0.36687335 -0.38642344

pi.pi.0.bias f4 [256]
000000 42 0c e0 bf a9 95 e9 bd 0d 1a e7 be 19 50 01 be
       -1.7503741 -0.114054985 -0.45137063 -0.12628211
000010 24 7c 36 3f 09 ee d0 bf 13 f9 bb bf c0 45 19 c0
       0.71283174 -1.6322643 -1.4685386 -2.3948822
000020 a0 c0 be bf bd 66 5a be 9c 7d ae bf 56 03 dc 3e
       -1.4902534 -0.21328254 -1.3632083 0.42971295
000030 f7 54 cc bf 5e 15 b4 bf 60 43 9b be 20 4d 77 3e
       -1.5963429 -1.4069021 -0.3032484 0.24150515
000040 ac 08 8e bf 55 b5 82 3f d4 57 8f bf 2f ea bf bf
       -1.1096396 1.0211588 -1.1198678 -1.4993342
000050 61 14 00 c0 68 ab af bf 0a f2 1e c0 a0 88 39 bf
       -2.0012438 -1.3724184 -2.483523 -0.724741
000060 b8 8a 3a be 26 9d 5b 3f 6a c7 08 c0 3c d9 ff bf
       -0.1821698 0.85786664 -2.1371713 -1.998817
000070 4c 01 b4 bf 5e 42 df bf 30 5d 64 be b8 a5 ac 3e
       -1.4062896 -1.7442129 -0.22301173 0.33720183
000080 e4 c4 12 bf ff 0e d2 bf b6 cd 40 be a4 46 84 3f
       -0.5733168 -1.6410826 -0.18828472 1.0334058
000090 7f e1 a4 3f 57 44 ec bf 5f 9e b5 bf 07 3c 80 bf
       1.2881316 -1.8458356 -1.4188956 -1.0018319
0000a0 71 8d ed be 21 92 6d 3f 23 bb 7e bf 6d f9 a2 bf
       -0.46396974 0.928011 -0.995043 -1.2732369
0000b0 82 6d 76 3f 32 9e f0 bf 6c 18 cc 3d cf 8a 23 bf
       0.96260846 -1.8798277 0.099655956 -0.6388368
0000c0 6b 5c a3 bf db a4 81 bf 8c f2 b4 bf ce c6 33 bf
       -1.2762579 -1.0128435 -1.413652 -0.70225227
0000d0 2c f6 03 bf 2e 81 ad bf 5f 31 a3 bf 7e 81 fa bf
       -0.51547503 -1.3555048 -1.2749442 -1.9570768
0000e0 fb c5 f9 bf 5f 0e 4d 3f 1a ab 52 be e0 d0 41 3f
       -1.9513544 0.80100054 -0.20573083 0.7570934
0000f0 fc 5c 74 3f 0c 12 4d be 83 e3 1e bf 18 be 2b bf
       0.9545438 -0.20026416 -0.62065905 -0.67086935
000100 fa e6 84 3e 37 b3 a1 bf 35 67 04 c0 cc 43 6b bc
       0.2595747 -1.2632817 -2.0687993 -0.014359426
000110 ad 5a 61 bf ca db 04 3e 83 2f 84 bf 40 77 ca bf
       -0.88028985 0.12974468 -1.0327 -1.5817642
000120 c1 93 27 c0 86 a0 9e bf 0a 61 9d bf 73 5b 17 bf
       -2.6183932 -1.2392738 -1.2295239 -0.59123915
000130 66 ab c8 bf 8f 83 5f be 47 0a 9a 3f d6 47 af bf
       -1.5677307 -0.2182753 1.2034386 -1.3693798
000140 2f 81 3d bf b9 85 d6 bf 85 49 25 bf 13 3d 6f 3f
       -0.74025244 -1.6759559 -0.64565307 0.93452567
000150 34 65 15 c0 aa 2a 32 3f 8b f1 1c 3e 4a d4 28 bf
       -2.334302 0.6959635 0.15326516 -0.6594893
000160 13 1e 09 bf 9e 8e 71 3f c9 75 21 bf 6d 20 0a c0
       -0.53561515 0.9435824 -0.6307035 -2.158229
000170 52 2d 64 bf 26 b3 d4 bf c6 ce 6f bf fe 59 31 be
       -0.89131653 -1.6617172 -0.93674886 -0.17319486
000180 55 34 f1 bf 2c 3f 52 bf ff 80 0b 3f 98 65 da 3f
       -1.8844095 -0.8212764 0.5449371 1.7062254
000190 97 0a a1 bf 01 e6 d4 bf 43 c0 b6 3f de fd 0c be
       -1.2581357 -1.6632692 1.4277424 -0.13768718
0001a0 94 7b b5 3f df 2f 98 3f a2 d3 10 c0 2a d8 52 bf
       1.4178338 1.1889609 -2.262917 -0.8236109
0001b0 7e c3 fe be 98 af b7 bf 05 23 9e bf 64 5a d3 be
       -0.49758524 -1.4350462 -1.2354437 -0.412799
0001c0 e5 80 c8 bf 54 39 7b bf ef 2a 1b 3e 19 31 bd bf
       -1.5664335 -0.9813435 0.15153097 -1.4780608
0001d0 c0 1b e7 bc fd 1e db bf cd 11 e6 3e 4f df 07 c0
       -0.028211474 -1.7118832 0.44935456 -2.1230047
0001e0 33 3e 15 bf 09 07 ca bf 5a 81 df be fa e5 6b 3f
       -0.58298033 -1.5783397 -0.43653375 0.9214779
0001f0 79 9b 7e bf e9 49 01 c0 5f c7 82 bf 85 58 ee be
       -0.9945598 -2.020136 -1.0217093 -0.4655191
000200 db 2b 12 c0 3f 3d b8 3e a4 99 82 bf 7a d8 c4 be
       -2.2839267 0.35984227 -1.0203137 -0.3844641
000210 3a f1 7e bf 1e ba aa 3f 43 a9 d8 3d 10 88 77 bf
       -0.9958683 1.3338048 0.10579159 -0.9669199
000220 ab a8 f6 bf 1c 4a 96 3f 50 3f 19 bf df 25 d1 bf
       -1.9270223 1.1741366 -0.5986223 -1.6339682
000230 c0 e0 a9 3e 5f f8 ef bc 6f f8 a7 bf 62 62 e2 bf
       0.33179283 -0.029293237 -1.3122691 -1.7686274
000240 d2 b8 d7 3f 4c 03 10 bf 02 2a 8c bf 1b 22 9f bf
       1.6853278 -0.5625503 -1.095032 -1.2432283
000250 52 fd dc 3f d1 ea e3 bf a8 e8 9a bf c2 4b 75 3f
       1.7264807 -1.7806035 -1.2102251 0.9581872
000260 bf df 14 bf a3 85 18 be 93 8a 04 c0 1d ad 62 3e
       -0.5815391 -0.14894728 -2.070958 0.2213635
000270 95 3c ac bf f2 de 50 3f 52 4d 8f bf 7e 50 e4 bf
       -1.3455988 0.8159019 -1.1195471 -1.7837064
000280 a3 0a aa 3e 7b 59 a4 be 38 73 d7 bf e7 e9 90 bf
       0.3321124 -0.32099518 -1.6832037 -1.1321381
000290 17 06 cd be 62 ac 73 be f1 35 b9 bf 3b de 89 be
       -0.4004371 -0.23796228 -1.4469587 -0.2692736
0002a0 55 19 17 c0 2f be 20 bf 58 5f 1e be 23 4b 9d 3f
       -2.3609211 -0.627902 -0.15466058 1.2288555
0002b0 56 76 eb bf 3b a1 b1 bf 3a 8e 14 3f 87 39 bd bf
       -1.8395488 -1.3877329 0.5802952 -1.4783181
0002c0 22 61 8f bd 80 4a ee bf 7f e7 bc bc 5e 01 d9 be
       -0.070009485 -1.8616486 -0.023059605 -0.42383856
0002d0 91 63 53 bd 6b b0 a7 3d 6c 59 88 3e c1 5b 32 bf
       -0.051608626 0.08187946 0.26630723 -0.69671255
0002e0 33 77 c5 bf c8 c6 6a be 4c 22 7f bf c9 05 af 3f
       -1.5427002 -0.22927392 -0.9966171 1.367364
0002f0 8b 5f e5 3f e3 43 b5 bf 3f 63 c4 3f bc 3e db 3e
       1.7919782 -1.4161342 1.5342788 0.428213
000300 5c 6c 90 bf c2 0b a9 bf 88 a4 af be b2 b7 e7 bf
       -1.1283069 -1.3206713 -0.34305215 -1.8102934
000310 03 73 98 bf 48 6a ea bf 24 34 98 3f 98 59 c4 bf
       -1.1910099 -1.8313684 1.1890912 -1.5339842
000320 4f ab d0 bf c0 be 04 3f be c8 8c bf 82 cf 91 bf
       -1.6302279 0.5185356 -1.0998762 -1.1391451
000330 75 06 93 3d f9 a0 16 c0 f6 b0 0f c0 ec 82 f4 bf
       0.07178966 -2.353575 -2.2451758 -1.9102454
000340 f4 c0 0e bf d2 da e2 3f 70 a7 72 bf 99 a8 9a bf
       -0.55763173 1.7723029 -0.9478674 -1.2082702
000350 1a ee d2 be 7d 07 e0 bf 76 7a 9c bf 2c 38 0d be
       -0.41197282 -1.7502285 -1.2224872 -0.13790959
000360 76 d2 94 bf 4d f6 5a bf d8 4f 12 bf 14 ba 10 c0
       -1.1626728 -0.85532075 -0.5715308 -2.2613573
000370 aa c1 b9 bf 8c 33 79 3f e1 fd 3f bf f4 1e 9a bf
       -1.4512227 0.9734428 -0.74996763 -1.2040696
000380 80 c1 e6 bf 31 b5 c0 bf 05 65 67 3f 6a 6c 05 c0
       -1.8027802 -1.5055295 0.9038852 -2.084742
000390 c0 5a ab bf c9 bd 0c c0 4d 41 c7 bf 6c 9b 8e bd
       -1.338707 -2.1990836 -1.5566803 -0.06963238
0003a0 3d e2 87 be f6 db 9b 3f c1 29 da 3f a8 5a 42 3f
       -0.26539794 1.2176502 1.7043992 0.7591958
0003b0 e4 e4 d1 bf 43 ce fe bf 31 62 c8 be 9e ed 04 c0
       -1.6397977 -1.9906696 -0.39137414 -2.077003
0003c0 c8 44 e3 bf f6 88 64 bf 90 40 92 3f 25 d6 27 c0
       -1.7755365 -0.89271486 1.1425953 -2.6224453
0003d0 e3 0d 26 bf 83 65 6b 3d 1f 50 04 bf e0 5b a2 bf
       -0.6486494 0.057469856 -0.51684755 -1.2684288
0003e0 a0 d0 f3 bf 76 47 80 be 5b c9 bd bf bb d7 13 c0
       -1.9048042 -0.2505452 -1.4827074 -2.3100421
0003f0 97 a8 b2 bf 94 f6 82 3f f9 b8 30 bd aa 66 b8 3f
       -1.39577 1.02315 -0.043145154 1.440633

pi.pi.2.weight f4 [256, 256]
000000 37 15 b5 bd 11 3e 25 be 0b 03 82 be 11 9a 38 3d
       -0.08841937 -0.16136958 -0.25392947 0.045068804
000010 a2 6a 0f be 15 21 1d 3e dd 93 8c 3d a9 c6 3c bd
       -0.14005521 0.15344651 0.0686414 -0.046087895
000020 28 b1 95 bc 61 be bc 3d 5e 6d 8a 3d 1e a1 d7 be
       -0.018272951 0.092159994 0.067591414 -0.4211511
000030 7f c9 be 3d 17 d6 6a be 89 d7 b6 bd 57 8b 75 bd
       0.09315776 -0.22933231 -0.08927829 -0.059947338
000040 09 b9 81 be 6d 43 11 bf 65 d2 bb 3d d9 a2 49 be
       -0.25336483 -0.5674351 0.09170989 -0.19691028
000050 9c 15 d0 3d cc fd 03 bd 00 34 06 3f 6d b9 6b be
       0.10160372 -0.03222446 0.52423096 -0.23019953
000060 3b 2d df bd c6 01 8c be 5c f2 1a 3d 35 16 74 be
       -0.10897299 -0.27345103 0.03782879 -0.23836596
000070 ca cd 2e bc 72 83 6b bd dc 89 21 be cb f4 81 be
       -0.010669181 -0.057498403 -0.15775245 -0.25382075
000080 1b 91 cc bd 6e e1 15 3c 43 7e b2 be 63 7b 1a be
       -0.09988614 0.009147985 -0.34861955 -0.15086131
000090 67 08 e3 bd 51 f8 5d 3e 4b 5c f3 bd ae d4 e6 be
       -0.11085587 0.21676756 -0.11882838 -0.45084137
0000a0 4d 33 06 3e 44 1f 2a be 59 d6 3f be c4 d3 8a bd
       0.13105507 -0.1661349 -0.18734111 -0.06778672
0000b0 43 f6 56 be 0c 85 9d be e5 0d 38 bd 26 13 df bd
       -0.20992379 -0.3076557 -0.044935126 -0.10892324
0000c0 12 46 30 bd 0a 59 13 bc 03 2c a9 bc 8b 11 c4 3d
       -0.043035574 -0.008993397 -0.02065087 0.095736586
0000d0 ad 08 81 3d cd 5e 8d be aa ed 8b bd 7e b9 46 bd
       0.06300483 -0.2761139 -0.0683244 -0.048516743
0000e0 bd 4d 00 3e ec 5f 84 bd c7 df 25 be ff 1a a1 be
       0.12529655 -0.06463608 -0.16198646 -0.3146591
0000f0 2a 65 05 3d e2 6b c7 be 11 b1 18 be 9e 4e 1a 3e
       0.03256718 -0.38949496 -0.14911295 0.15069053
000100 15 bf 77 3d ee 83 9b 39 45 d7 72 bd a0 26 4d be
       0.060484964 0.000296622 -0.05928733 -0.20034266
000110 08 b5 53 be 41 6c fe bd 33 42 97 be ba 37 9b 3c
       -0.20674527 -0.124229915 -0.29542693 0.018947471
000120 be 46 d7 3c 81 2c ac be 33 17 ea bd 78 18 9a 3b
       0.02627885 -0.33627704 -0.11430206 0.004702624
000130 b1 95 08 be 70 79 83 be 6c 66 3c be cf 51 df 3d
       -0.13338353 -0.25678587 -0.18398446 0.109042756
000140 cb f1 b5 bd 11 0b 9d be 54 e4 01 3e 82 f3 93 3c
       -0.08884009 -0.30672505 0.12684757 0.01806045
000150 d5 87 bc be 93 dc 19 bf 1b 55 3b 3d 82 8c 02 bd
       -0.36822382 -0.60102195 0.04573546 -0.03187228
000160 8c 15 60 3e a0 52 5a be c6 57 3d bd 9c 52 81 3e
       0.2188322 -0.21320581 -0.046226285 0.25258338
000170 c1 11 20 be fe 84 b5 bb df b2 05 bd f7 58 aa be
       -0.15631773 -0.0055395355 -0.032641288 -0.33271
000180 46 7b e3 3d 33 e4 1d be 80 eb bc bd 59 c3 b8 bd
       0.11107497 -0.15419082 -0.092246056 -0.090216346
000190 19 f2 c1 bd ff a9 e3 bd b4 a1 3d be 3b 0b 62 3d
       -0.094700046 -0.111164086 -0.18518716 0.05518649
0001a0 77 52 6a be c7 1d f1 3c 3c c6 8b be 82 9a a3 3d
       -0.2288302 0.029433144 -0.27299678 0.079884544
0001b0 97 f9 aa bd c0 00 c4 3b 10 67 22 be 02 dc 24 be
       -0.08348387 0.0059815347 -0.15859628 -0.16099551
0001c0 2c 8d d0 3d d9 b9 03 3e a6 d5 24 bf 16 e6 a1 3d
       0.101831764 0.12863864 -0.643885 0.079052135
0001d0 66 24 06 3c 56 a6 b2 3e 43 26 75 be da 8f 63 be
       0.008187389 0.3489253 -0.23940377 -0.22222844
0001e0 68 ff ec bd 49 a7 e1 3b a6 dc 14 3d a9 f2 4f be
       -0.115721524 0.006886397 0.03634324 -0.20307411
0001f0 d0 9f 87 bd 2c 6e ce 3e 45 d2 3d be 5b fb 95 bd
       -0.06622279 0.4031843 -0.18537243 -0.07323333
000200 a3 c3 3f 3d e8 52 4b bd eb 4d cc bb cc 22 3f be
       0.046817433 -0.049639612 -0.0062348745 -0.18665618
000210 b9 32 f7 3c ab c7 63 be 08 63 08 3e be 32 ee bc
       0.030175554 -0.22244136 0.13319027 -0.02907693
000220 7b a6 a1 be 8d a8 88 be ea 85 7c bd cf ab 0f be
       -0.31572327 -0.26691094 -0.061651148 -0.14030384
000230 d1 6d 22 be 3e 06 3d be b5 e3 10 be 4b 15 79 be
       -0.15862204 -0.18459412 -0.14149363 -0.24324529
000240 63 40 85 be cd d6 0e 3e 11 6a 0c 3e 1e 62 4b be
       -0.26025686 0.13949127 0.13712336 -0.19861647
000250 5a a5 ca be b4 d2 f8 3d 8e 15 bd be 85 dd 8e 3d
       -0.39579278 0.121495634 -0.36930507 0.06975845
000260 28 80 21 3e 24 30 9e bc 90 4a e5 bc a1 e6 89 bd
       0.15771544 -0.019310065 -0.027989656 -0.06733442
000270 ab d8 d3 3d b4 52 49 3c 53 63 e3 bd 43 9b 32 be
       0.103440605 0.012287784 -0.11102929 -0.1744204
000280 8f 92 5e be dc 97 e5 b9 e0 34 ac be 73 98 98 bd
       -0.21735595 -0.00043791428 -0.3363409 -0.074509524
000290 4a 50 30 be 64 d6 18 be 56 76 13 3e 5b 66 5b 3c
       -0.17218128 -0.14925534 0.1440061 0.013391103
0002a0 4a 4c b0 bc e6 ab d1 ba 41 f1 07 be 11 c6 9a bd
       -0.021520752 -0.0015996664 -0.13275625 -0.075573094
0002b0 f2 5e 17 3d 7e 9e 86 3d b7 93 12 be bd e9 2e bd
       0.03695578 0.06573199 -0.14314161 -0.04270338
0002c0 6e aa a3 be 08 d9 6e 3e 96 ab 6c bd 9d 3b 38 be
       -0.31965965 0.23324978 -0.057780825 -0.1799149
0002d0 be 11 a7 bd 2c 8d 97 3d 1a c9 2c be 6a 7b f5 3d
       -0.08157681 0.07399973 -0.16873589 0.1198643
0002e0 22 94 35 be 54 8e cb bd b9 62 43 bd 00 c1 01 bf
       -0.1773229 -0.09939256 -0.04770157 -0.5068512
0002f0 7c cf 10 3d 8b 55 c7 3c 43 96 01 bf 88 c7 b1 3c
       0.035354123 0.024332782 -0.50619906 0.02170159
000300 de c0 ec 3d 07 9a 75 3e 88 01 01 3e da 8c 4f be
       0.11560224 0.23984538 0.1259824 -0.20268574
000310 eb 7c 74 bc 98 04 4b 3e 7a 09 f8 bd 45 cf 01 3e
       -0.014922361 0.19825971 -0.121111825 0.12676723
000320 8d 0b e0 3c 8d 86 aa bc ce e5 32 bd 11 d7 58 3d
       0.027349258 -0.020816112 -0.04367619 0.05293948
000330 07 fb 02 bd e3 56 a2 bd 41 4f 8f be 23 15 56 3c
       -0.03197768 -0.079267286 -0.27990153 0.013066563
000340 15 9d de bd 78 a6 d6 bd d8 4c cf bd ba e5 17 3d
       -0.10869805 -0.1048097 -0.10122079 0.03708432
000350 63 2c 67 3e 97 cd 3c be 4f 02 0c 3c f2 c9 19 be
       0.22575526 -0.18437801 0.008545472 -0.15018442
000360 1b 11 d6 be 4c 3d e3 3d 9d 8f 88 3d 92 71 04 be
       -0.41809925 0.11095676 0.06668017 -0.12933949
000370 a6 b4 ca bd 6c 74 ec be e6 2f 88 bd 6b 27 bd 3d
       -0.09897737 -0.46182573 -0.06649761 0.09236034
000380 f8 c0 8e be a2 26 69 3d 2f 72 c4 bd ca 59 f1 3d
       -0.27881598 0.05692161 -0.09592091 0.11784704
000390 29 3f 09 bf 50 16 ab be 89 ec 1f bd 71 33 5d be
       -0.53612 -0.3341546 -0.039043937 -0.21601655
0003a0 7e d5 ac 3d 29 54 f9 3c 78 09 59 bd 21 fb 24 be
       0.08439158 0.030435639 -0.052987546 -0.16111423
0003b0 e7 c3 02 bd 66 95 82 3d a1 6c 8c be 09 ae c8 be
       -0.03192511 0.06376152 -0.27426627 -0.39195278
0003c0 16 c6 b2 3a a3 35 eb bc 97 6b 41 be 55 e1 50 3e
       0.0013639356 -0.0287121 -0.18888699 0.20398457
0003d0 4f 13 39 be 3d 03 92 be 5a db 2e 3d 72 e5 a1 be
       -0.18073772 -0.28518096 0.04268966 -0.31620365
0003e0 e3 f4 5d bc e9 d6 6f be 70 47 59 3c e4 50 02 be
       -0.013547155 -0.23421825 0.013261661 -0.1272617
0003f0 ce eb 06 be 77 6c 1a 3d b3 b6 82 3e e3 3d dd bd
       -0.1317589 0.037701096 0.25530013 -0.108028196

pi.pi.2.bias f4 [256]
000000 86 bf 2c be f2 1c 83 bd 50 93 53 bd 57 c1 e8 bd
       -0.16869935 -0.06402005 -0.05165416 -0.11365002
000010 22 2d cb 3c 4c 71 5c 3c 0e 5e 00 bd 26 64 36 3d
       0.024801794 0.013454746 -0.031339698 0.044529103
000020 3d 76 8f be b2 16 32 be 1a 97 c1 be 8d 24 b5 3f
       -0.28019896 -0.1739147 -0.37810594 1.415178
000030 aa 34 76 bd 4f 92 d7 bd d4 51 92 be 18 53 06 bf
       -0.060108818 -0.10525953 -0.28578055 -0.5247054
000040 fc a9 d1 3c 91 2e 9e be 46 26 49 bc 31 11 7e be
       0.02559375 -0.30894902 -0.0122771915 -0.24811246
000050 61 0b ab bd a7 2f 42 3c f7 9b a4 be 53 cf 44 be
       -0.0835178 0.0118521815 -0.32150242 -0.19219713
000060 05 56 11 bd d8 2c 9e be ba 93 07 bd 35 b4 66 bf
       -0.035482425 -0.30893588 -0.033099867 -0.90118724
000070 82 8a be 3e 20 55 d8 bd c0 5a 2c be 24 58 e3 be
       0.37215048 -0.10563111 -0.16831493 -0.44403183
000080 7f 4f c6 3c 2d cb 3e be 85 24 7d be 93 75 d5 3f
       0.024207829 -0.18632193 -0.24720962 1.6676506
000090 9f 6e ba 3f 05 36 8b be f9 45 15 bd 13 5b 47 be
       1.4565009 -0.2718965 -0.036443684 -0.19468336
0000a0 cd 1b 2d be 20 b3 2e be 4e 81 4f be cc 66 7a be
       -0.16905136 -0.17060518 -0.2026417 -0.24453276
0000b0 04 dd 7a bf 12 22 25 3e ce cc b6 be 15 72 56 be
       -0.97993493 0.16126278 -0.3570313 -0.20941956
0000c0 8d 23 ca bf 2a cc a4 be c0 f3 0a 3f 4c c4 92 bd
       -1.5792099 -0.32187015 0.54278183 -0.07166347
0000d0 88 12 4f 3c e8 f2 23 bd 3c 27 04 bf ee ef eb 3e
       0.012638696 -0.040026575 -0.51622367 0.4608149
0000e0 d7 1e ec 3c 0b 7d ff be 6c eb c6 3b 04 7c 48 bf
       0.0288233 -0.49900088 0.006070545 -0.7831423
0000f0 d9 c9 9d 3c e8 f1 a5 be 7f 70 30 bd 05 bd 8b be
       0.019261288 -0.32411122 -0.043076035 -0.27292648
000100 e3 ee 34 bd fc ed 7d bc d2 8e 33 3b 42 ce f0 be
       -0.044173133 -0.015498634 0.002739836 -0.47032362
000110 6d 9c f0 bd cd 97 32 be fe c9 64 be 89 7a e0 bf
       -0.11748586 -0.1744072 -0.22342679 -1.7537395
000120 ec 8f e6 bd b2 4a ab be 15 34 b1 bf 36 65 cb bd
       -0.1125792 -0.33455426 -1.3844019 -0.09931414
000130 48 fc b5 bc 62 c7 c7 be bb a8 93 3c ed a0 75 be
       -0.022215024 -0.39019305 0.018024793 -0.2398717
000140 d9 43 a6 bd b4 28 b7 bf 8e 12 36 3c 06 0a bf bd
       -0.0811841 -1.4309297 0.011112822 -0.09328084
000150 ce 20 7a be b7 17 24 bc 50 0d 15 bf 53 33 b0 bd
       -0.24426576 -0.01001542 -0.5822344 -0.08603539
000160 36 f3 19 3f 0d 2c 1e 3b 8c 11 32 be b9 f1 e6 bf
       0.60136735 0.0024135143 -0.17389506 -1.8042518
000170 42 db b9 bc 24 17 2b 3f dd 5f 1c be 89 67 a4 be
       -0.022687558 0.66832185 -0.15270944 -0.3211024
000180 2c 81 8e bd 66 1e cb bf 11 16 91 bd 6a 70 50 be
       -0.06958231 -1.5868652 -0.07084287 -0.20355383
000190 d6 9a ba be e9 f1 e9 be 43 35 05 be 74 ff 52 be
       -0.36446255 -0.45692375 -0.13008599 -0.2060526
0001a0 0a c2 29 be 6a e3 ed bd 37 f1 80 bd fa 39 d5 bd
       -0.16577926 -0.116156414 -0.06296008 -0.10411449
0001b0 19 4c 88 be fb 9f 36 be d7 2b 73 be 5e 49 92 bc
       -0.26620558 -0.17834465 -0.23747192 -0.01785725
0001c0 88 e3 6c be 6a 77 cc 3f 57 59 12 be 3e 9a 43 bf
       -0.23133671 1.5973942 -0.14291893 -0.7640723
0001d0 06 87 08 3d 8e 70 82 be 02 1b 19 bf 11 87 bb 3d
       0.033331893 -0.25476497 -0.59806836 0.09156621
0001e0 c7 81 99 bc 3e 57 8b bf 50 f7 c8 3f d5 fc 33 be
       -0.01873864 -1.0885999 1.5700474 -0.17576917
0001f0 0b 7f 89 be 02 61 f8 bc 4c 23 ea 3d 16 f2 ac bf
       -0.2685474 -0.030319694 0.114325136 -1.3511379
000200 44 9c 71 3c 34 17 76 bd 53 c4 91 be 37 91 02 bf
       0.014746729 -0.060080722 -0.28470096 -0.5100283
000210 91 d3 6a bf 38 bd 55 bd 86 a3 35 bc 35 0b 31 3c
       -0.91729075 -0.052182406 -0.01108635 0.010805895
000220 92 0c a1 bf ec c8 f1 3a c5 36 15 bf 30 15 e0 3c
       -1.2581961 0.001844672 -0.58286697 0.027353853
000230 73 ba 83 be e9 04 a3 be 44 50 d8 3f 2c d5 7c bd
       -0.25728187 -0.31839684 1.6899495 -0.061726734
000240 7e 85 93 bf ea 72 74 3f f5 e9 6a 3f e5 87 91 be
       -1.1525114 0.95487845 0.9176324 -0.28423992
000250 90 11 88 be 14 5c 64 be 08 40 9a bd e7 3c 9a bd
       -0.265759 -0.2230075 -0.07531744 -0.075311475
000260 16 f1 1a bf 60 03 46 be c5 31 f1 bc 5b 06 65 bd
       -0.6052412 -0.19337225 -0.029442677 -0.055914264
000270 35 1c c1 bd 7b 82 fc be e6 c5 53 bd 5c da a6 bd
       -0.09429208 -0.493183 -0.051702403 -0.081471175
000280 68 06 96 3f 2a 0f 99 3e 40 a7 18 bf 22 df ef be
       1.1720705 0.29894382 -0.59630203 -0.46849924
000290 f8 8b e7 bc 59 55 43 3f 53 3b 80 be 82 d3 1e be
       -0.028264984 0.76302105 -0.2504526 -0.15510371
0002a0 40 4b 79 be df 9e a4 bd 85 e5 a4 be e3 21 98 be
       -0.24345112 -0.08038115 -0.3220636 -0.29713354
0002b0 bc a5 b7 bd aa 57 95 bd 92 bc 22 bf 75 43 21 be
       -0.08967158 -0.07292111 -0.63568985 -0.15748389
0002c0 01 44 9e bf 14 f5 9f bd 8e 38 dd bd cf 20 0f bd
       -1.2364503 -0.07810417 -0.108018026 -0.034943398
0002d0 5d c4 44 bd 42 66 80 bf d0 f6 79 3b 2e ca 13 3f
       -0.04803883 -1.0031207 0.0038141496 0.57730377
0002e0 35 62 7f bd 99 db 64 be c3 dc c3 bd b6 82 17 be
       -0.062349517 -0.22349395 -0.09563591 -0.14795956
0002f0 b9 52 dc 3e 6a 34 7f bf 0d 9d 62 3c 9f 98 8e bd
       0.43031862 -0.9968935 0.013831389 -0.06962704
000300 d3 f6 29 3f 34 6f ca 3f cf f9 1b be 60 e9 bf 3f
       0.6639225 1.5815187 -0.15232013 1.4993095
000310 26 cb a7 bd 3e 6a 77 bf 01 c8 d6 bc f1 f1 04 bd
       -0.08193044 -0.9664649 -0.026218416 -0.032457296
000320 2e 3d 75 b9 54 ff 43 bd 69 74 64 bd 11 45 25 bd
       -0.00023387812 -0.04785092 -0.05577508 -0.04034907
000330 38 3d 23 bf 08 f9 38 be 5b 87 94 bd 75 c3 0f 3d
       -0.6376529 -0.18063748 -0.072523795 0.03509851
000340 f6 5b a0 be 53 b2 8d bf fd 01 2e bf 68 62 06 be
       -0.3132016 -1.1070045 -0.67971784 -0.13123477
000350 24 71 c4 be 2f b5 cd 3f 74 80 87 bc ce 61 cc 3f
       -0.3836757 1.6070918 -0.016540743 1.5967348
000360 47 69 9d bd 9c c4 6f be 21 73 9b bd 19 22 e7 bd
       -0.07686096 -0.23414844 -0.075903185 -0.112858005
000370 16 7d 70 be 1c 6b 84 be d8 75 6d 3d b9 e8 44 bf
       -0.23485216 -0.25862968 0.057973713 -0.76917607
000380 f6 56 15 bf 75 dc 0b bf d3 58 16 bd 0e 77 63 bf
       -0.58335817 -0.54633266 -0.036705803 -0.8885354
000390 2e 13 2b 3c 4d fe 8c be 93 2b 92 be c2 cd 27 be
       0.0104415845 -0.27537766 -0.2854887 -0.16387084
0003a0 ce ef 72 bd c9 66 8a bd a9 95 29 bd a9 d7 01 bd
       -0.059310727 -0.06757886 -0.041402493 -0.03169981
0003b0 a7 90 91 bd ff 13 e9 bd 62 f7 38 3b 13 d3 96 be
       -0.07107668 -0.11380767 0.0028223624 -0.29457912
0003c0 9e c3 64 be 9b 08 3a be 0e e2 85 ba ad 1f 5d be
       -0.22340247 -0.18167345 -0.0010214464 -0.21594115
0003d0 7b 62 43 3f 22 dc d2 bd 1f ae 9a bd d0 2f 53 3c
       0.76322144 -0.10295893 -0.07552742 0.012889817
0003e0 c6 fe b4 bd ec 31 4e bd 66 df ff 3f 3a a8 eb be
       -0.08837657 -0.050340578 1.9990051 -0.46026784
0003f0 41 ba e1 bc 6f 7b 55 bf fb 0c dd bc ab be 23 bd
       -0.027554633 -0.8339147 -0.026983729 -0.039976757

pi.pi.4.weight f4 [2, 256]
000000 50 f0 af bc bf a8 82 3c 51 78 ab 3b 31 15 18 bd
       -0.021476895 0.015949605 0.0052328487 -0.037129585
000010 e3 b1 4a bd ed 17 6e bb 21 12 26 bc bd 66 d3 39
       -0.049486052 -0.003633018 -0.010136158 0.00040321602
000020 89 de 54 be d5 f1 d6 3d 96 29 2f 3e 17 c4 a4 bf
       -0.20788015 0.104953445 0.17105708 -1.2872342
000030 78 72 c7 ba 7d 32 c3 bf 3b 63 09 3f cb 79 38 3f
       -0.001521661 -1.5249783 0.5366704 0.7206084
000040 23 69 34 bd aa 44 53 3f 9c 84 38 bd 6f 93 5f 3e
       -0.04404558 0.8252665 -0.04504834 0.21833585
000050 6a 68 f9 bb 5d 01 2c bd 93 40 15 3f 91 32 a0 bf
       -0.007611324 -0.041993488 0.5830166 -1.2515432
000060 16 41 d5 bc 46 31 97 bd 92 03 bd bc 8c 18 40 3f
       -0.026032012 -0.07382445 -0.023072992 0.75037456
000070 e3 e6 d3 3f a6 2b 76 3d ab 3f 07 3f 4f d6 65 be
       1.6554836 0.06010022 0.52831525 -0.22445033
000080 f7 4b 29 bd d4 27 de bd 2f b0 c8 3f 1d d4 a0 bf
       -0.04133221 -0.1084744 1.5678767 -1.2564732
000090 dd 41 2e c0 5c 9d 31 3f 18 fd 23 3d e2 84 8f 3e
       -2.72277 0.69380736 0.04003629 0.2803107
0000a0 c9 06 87 3f 5b 1b 15 bc 8d 10 59 be 8a ba cf 3e
       1.0548946 -0.00910076 -0.2119772 0.40572006
0000b0 30 b6 0c 3f ac da 63 bf 86 3a c4 3f 0b 86 6b bd
       0.54965496 -0.8900554 1.533036 -0.05750088
0000c0 31 8e c0 3f d2 11 4f 3f 3d 2c 11 be 04 cb 2f 3a
       1.5043393 0.80886567 -0.14177032 0.0006705972
0000d0 8a 76 8b bc 1a fc f7 bc 7d 7a a4 bd 2c 35 ea bf
       -0.017024297 -0.030271579 -0.08031175 -1.8297477
0000e0 bb 0a 0d bd a3 d2 82 bf 41 b2 24 ba 35 9b 81 3f
       -0.03443406 -1.0220531 -0.00062826654 1.012549
0000f0 a1 9d 98 3f 87 7c ee be 7d 5e eb 3a 3d a8 1c 3f
       1.1923105 -0.46579382 0.0017957237 0.6119421
000100 86 6e 1e bc df 26 58 bc b3 1c 6b bd f4 25 73 3f
       -0.0096699055 -0.013192861 -0.057400417 0.94979787
000110 8b d6 43 ba 2f 1a a6 bc fd 3c 88 bd 82 e9 85 3f
       -0.0007470629 -0.020276157 -0.066522576 1.0461886
000120 da 0c d1 3c 81 cf 4c 3f 9a a6 4d 3f 4d 1e be 3c
       0.025518823 0.80004126 0.8033234 0.023207808
000130 82 a6 03 3d d0 0f 0e bd cc f4 fb bc 3c df 8e 3f
       0.032141216 -0.03468305 -0.030756377 1.1161876
000140 da 2b 88 3d 01 c3 95 3f 4d e9 fd bb 9f ec cd 3e
       0.06648989 1.1700135 -0.007748759 0.4021959
000150 4b d3 cd 3d 2f e0 0c c0 c3 7d 85 be a6 ce f6 3c
       0.100500666 -2.201183 -0.2607251 0.030127835
000160 02 fe b7 3f 46 98 91 b9 c4 3e a6 bc 8d dc cb 3e
       1.4374392 -0.00027770008 -0.0202936 0.39816704
000170 0b 1b 19 ba 5b a5 d6 bf 2e e5 69 3d ca d0 42 3f
       -0.00058405165 -1.6769212 0.05710333 0.76099837
000180 06 91 37 3c 54 bb 34 3f 79 0a 30 bc ba 89 1f c0
       0.01120401 0.7059834 -0.010744684 -2.4927812
000190 c7 56 ac bd 1d 25 c9 3f 4b 35 68 bd f3 08 d5 3d
       -0.08414989 1.5714451 -0.05669145 0.104020976
0001a0 e1 25 ab 3c 26 23 7c bb aa b1 b2 bc db d9 78 3f
       0.020892086 -0.0038473099 -0.021813232 0.9720742
0001b0 17 94 7c 3e c2 95 d9 3d 02 1f 61 3d 44 81 60 bc
       0.24665867 0.10624267 0.054961212 -0.013702694
0001c0 f6 be ef 3e ca 5b c9 bf 0a 1f 39 3e 85 cc 15 bf
       0.4682538 -1.5731137 0.18078247 -0.585152
0001d0 f6 9e 68 3f 2c 4b 25 bd 61 48 35 3f 0a 88 88 3f
       0.90867555 -0.040354893 0.70813566 1.0666516
0001e0 f8 ab 15 bc 50 ec 3d 3f 05 6e 14 bf 09 c6 25 bd
       -0.009135239 0.7418871 -0.57980376 -0.040472064
0001f0 6a 32 e6 bf de a5 93 bd 83 77 15 3f 0d d3 81 3f
       -1.7984135 -0.07209371 0.58385485 1.0142533
000200 f5 15 02 bc b8 de 3c 3c 2b 98 c2 3e 9c 71 0a c0
       -0.007939805 0.01152771 0.3800672 -2.1631842
000210 92 e2 81 bf b7 68 6d bd 83 fe f4 bc aa fc c9 bb
       -1.0147269 -0.057961192 -0.029906517 -0.006164153
000220 c6 8e 0b 3e 41 1c c6 bc be d7 94 bb 3c b6 ff ba
       0.13628682 -0.024183394 -0.00454232 -0.0019509266
000230 e7 10 27 40 39 86 03 3f d3 c1 74 bf e4 ca df bf
       2.6104066 0.5137668 -0.9560825 -1.7483792
000240 d1 5e 1d bf 36 9d 24 c0 62 e2 b4 bf fd e1 20 3f
       -0.61472803 -2.5720954 -1.4131587 0.6284483
000250 4c f1 26 bd c7 2f 20 be cc c1 17 3c f4 2c 79 bd
       -0.040757462 -0.15643226 0.009262513 -0.060833886
000260 97 ab 7b bf e6 a6 45 bf b6 9c 42 bd 4c c2 76 bc
       -0.983087 -0.7720779 -0.047512732 -0.015060972
000270 17 f2 07 bc 7e da 1f 3f d7 21 d6 ba 1a cf 35 bc
       -0.008297465 0.6244277 -0.0016336989 -0.01109674
000280 ec a4 85 bf fc cd 7c 3f ea 4e 08 3f be 9c d0 3f
       -1.0440955 0.9875181 0.53245413 1.6297834
000290 02 b3 9f bd 87 ff f2 bf 0e 47 16 be 9a 79 85 37
       -0.07797815 -1.8984231 -0.14675543 1.591146e-05
0002a0 ab 07 49 3f 73 3a 24 3c 2b 11 57 bf 90 b6 e9 3c
       0.78527325 0.010023701 -0.8401057 0.028529435
0002b0 21 d9 7a 3d 2c 19 4d bc 42 6d 3e 3f b8 46 a0 bc
       0.061242227 -0.0125182085 0.74385464 -0.019564971
0002c0 7a c2 c9 3f 98 e7 ab 3c 55 9a 65 3d 0d 92 1e bd
       1.5762475 0.020984456 0.056055386 -0.038713504
0002d0 12 f6 9d 3e 10 51 13 40 47 26 63 bd 5f 02 08 bf
       0.308518 2.3018227 -0.055456426 -0.5312862
0002e0 f2 fa a0 bc 17 da 85 bd 03 6f 34 3c 0d 6d f5 3e
       -0.01965091 -0.06535738 0.011012795 0.47934762
0002f0 30 8f 4c bf 9e 99 10 3f 6a 47 a5 bb 83 d6 1e bd
       -0.79905987 0.564844 -0.0050439136 -0.038778793
000300 d2 b7 fe 3f 2f e5 7c bf 2c 3c e3 bc 89 e3 23 bf
       1.9899848 -0.98787206 -0.027738653 -0.64019066
000310 5c 07 91 bd 10 27 08 40 cf cf 41 3d 1f b5 a2 3c
       -0.07081482 2.1273842 0.047317322 0.019861756
000320 47 28 06 bc e8 22 07 3b 9d 11 a2 3f 91 7c be bc
       -0.008188314 0.002062017 1.2661625 -0.023252757
000330 8c e0 c3 be b7 8c b9 be 80 55 d5 b8 55 36 ca bc
       -0.38257253 -0.3624017 -0.00010172557 -0.02468411
000340 9b 6f 9f be c3 4c cd 3f df d9 e4 3f 73 69 b1 bc
       -0.31139836 1.6039051 1.7878989 -0.021656727
000350 fa 25 e1 bf 7c 82 10 bf bf 1e 82 bc f9 48 2a bf
       -1.7589715 -0.56449103 -0.015883802 -0.665176
000360 53 b3 e1 bc 67 d4 0a 3f 6a e2 89 3c fb 91 73 bd
       -0.027551329 0.5423035 0.016831595 -0.05946539
000370 09 e7 59 bd 0a 4e 06 40 a9 bf c1 3f bf 98 c4 be
       -0.053198848 2.0985131 1.5136615 -0.38397786
000380 46 82 1f bc 1d 14 a0 bf 8c 86 b6 ba 42 81 95 3c
       -0.009735649 -1.2506138 -0.0013925596 0.018250111
000390 0f c3 15 bd 54 e1 2a 3d 91 ad b6 3f 80 2d bd bd
       -0.036562975 0.041718796 1.4271718 -0.09237194
0003a0 73 1b ad 3c 98 11 ab bc 2d 15 a2 bc 65 ce f8 bc
       0.021131253 -0.020882413 -0.019785488 -0.030371854
0003b0 b4 1f fc bc ea 6e 83 3c cc 57 f1 3f 27 b4 3d be
       -0.030776836 0.016044099 1.8854918 -0.18525754
0003c0 9a f9 ed bc 69 e8 3d bd f8 13 1b 3c 74 20 d5 3d
       -0.029049683 -0.04636422 0.00946521 0.104065806
0003d0 b2 cd 7c 40 48 0d 72 3c 20 ef d5 bc af 94 84 3c
       3.9500546 0.014773674 -0.026115 0.01618418
0003e0 c6 ed e7 3c 86 68 ef bb 49 35 8b bf b4 b6 5f bf
       0.028311621 -0.0073061613 -1.0875636 -0.8738816
0003f0 f2 bb 58 39 50 cf f8 3e ce 18 09 bd d3 44 0c bd
       0.0002066938 0.48595667 -0.03347092 -0.034245323

pi.pi.4.bias f4 [2]
000000 a0 c6 92 bf 69 70 3e 3f
       -1.1466866 0.74390274

q.q.0.weight f4 [256, 10]
000000 cf 2a f4 3e e8 a1 10 bf 36 09 c0 3e 42 68 d2 3e
       0.4768891 -0.5649705 0.37507027 0.41095167
000010 d5 6f 83 bd 05 fb 2f 3e 59 2f 27 be 65 cf 82 bd
       -0.06417815 0.171856 -0.16326655 -0.063872136
000020 bf b1 42 bc c1 8e e0 bc b8 93 6c 3d 52 56 31 be
       -0.011883198 -0.02741182 0.057758063 -0.17318085
000030 8e 5b 46 bf 95 60 58 3f da f0 1d 3f 7c cf fe be
       -0.7748345 0.8452237 0.61695635 -0.49767673
000040 fb f6 b1 3d 3d 7e 3b be ce 31 12 be 41 4e 81 bd
       0.08689686 -0.18309875 -0.14276811 -0.06313754
000050 4f 85 9f be a8 17 8a be ff 6e 8a bf 30 cc 6c bf
       -0.31156394 -0.26971173 -1.0815123 -0.92499065
000060 5d 61 e7 3d d5 95 41 be cb 34 0e bf ae 44 89 3d
       0.112978674 -0.18904813 -0.55549306 0.06702553
000070 51 59 2a be fe 56 09 3e 0c 66 6f be 29 f8 1f 3e
       -0.16635634 0.13412091 -0.23378772 0.1562201
000080 98 ec 26 3e 14 da d8 be 44 2e 0a 3f d1 4c 05 3f
       0.16301191 -0.4235388 0.53976846 0.5207034
000090 70 33 07 3c c7 cd 89 3c bf 84 98 3d 38 e6 94 be
       0.00825201 0.016821755 0.07447194 -0.29081893
0000a0 2d ce f7 be 9c 18 04 bf a0 61 d8 be c9 59 2c bf
       -0.48399487 -0.5160005 -0.42261982 -0.673245
0000b0 8a 15 92 bd de 0a 86 3e 6f c9 7f be 32 02 a7 3d
       -0.071330145 0.26180166 -0.24979185 0.081547156
0000c0 74 22 58 3d 2a f5 6c 3e 3d e0 22 3c 44 d8 cc be
       0.052767232 0.23140398 0.009941158 -0.40008748
0000d0 95 47 16 3f c6 be b3 bf 88 52 3e 3e 21 ea a7 be
       0.58702976 -1.4042594 0.1858617 -0.32795814
0000e0 c3 80 c1 be 1f 73 da 3c 81 ab e4 bd ff 48 c1 bd
       -0.3779355 0.026666222 -0.11165524 -0.09437751
0000f0 3e 90 e2 3e 9e 9e ce be 7d 5e 0f 3f c0 b7 52 be
       0.44250673 -0.4035539 0.5600355 -0.20577908
000100 c4 dd 8a be 92 8c 64 bc 66 5d ca 3c 07 10 fe bc
       -0.2712232 -0.01394953 0.024702739 -0.031013502
000110 a9 02 31 be 2e 57 6c 3c 5e 14 4c 3f 46 98 4c 3f
       -0.17286171 0.014425082 0.7971858 0.7991985
000120 b9 20 50 3e 2e 2b 1c 3e 6d f4 fc 3c bb 2a ae 3e
       0.20324983 0.15250847 0.03087827 0.34016976
000130 da 48 79 3e d6 3a bc 3c 29 f7 0d bc a6 b6 9c bc
       0.24344197 0.022977274 -0.008664885 -0.019130062
000140 a1 d7 96 bf 45 1c 47 bd a9 d9 89 bf 32 35 e8 3d
       -1.1784555 -0.048610944 -1.076955 0.11338271
000150 e4 bc c0 be 80 b1 86 bf 07 70 f6 be c5 c6 03 be
       -0.37644112 -1.0522919 -0.48132345 -0.12868793
000160 29 ae 4f 3d a8 54 c8 3b cb cc d9 bc 4b 28 df bc
       0.0507032 0.0061136074 -0.02658691 -0.027240893
000170 04 b7 ea 3d 6e e0 93 bd 11 4c 36 3d b9 72 a1 3e
       0.11460689 -0.07220541 0.044506136 0.3153284
000180 54 e9 69 3e c2 73 91 3d c8 14 1f 3e 94 49 9b bd
       0.22842914 0.07102157 0.15535271 -0.07582393
000190 39 f7 96 3f 93 7b 57 3f 94 60 0d 3c 86 f7 ec bc
       1.1794196 0.84172934 0.008628983 -0.028926622
0001a0 71 ff d2 3e 71 2d 14 3d 22 16 46 3e 61 a2 a8 3d
       0.4121051 0.03617615 0.1934438 0.08234096
0001b0 e7 4b 29 3c fd 15 10 3c be 89 08 3e 7d 51 d9 be
       0.010333038 0.008794305 0.13333794 -0.42444983
0001c0 81 b4 81 bf 9d 84 82 be c8 2f 64 be cb 27 ec bd
       -1.013321 -0.254918 -0.22283852 -0.115310274
0001d0 d9 fd de bd e6 e7 58 3e df 04 29 be c2 c8 89 3d
       -0.10888261 0.21182212 -0.16505764 0.06727745
0001e0 c6 39 5b 3f 1e ef 66 3f 95 d8 c8 3e a3 f9 c2 bd
       0.8563503 0.90208614 0.3922774 -0.09520271
0001f0 d0 2f 04 be e3 15 62 3e 35 ac c6 3d 29 c2 0a 3d
       -0.12908864 0.22078662 0.09700815 0.03387657
000200 4e 09 47 bc 3f 4c 1c bc 8b f4 87 be 29 22 4b 3e
       -0.0121482145 -0.009539663 -0.2655376 0.1983725
000210 7f ca 1d bf e8 14 cf be dc d3 62 bf 84 51 c8 3e
       -0.6163711 -0.40445638 -0.8860452 0.3912469
000220 98 fb 8d bd d0 c2 63 bc ee 8d a6 3a 0c 78 32 3e
       -0.06932753 -0.013901427 0.0012707093 0.17428607
000230 b3 a8 ff be 72 a7 ec 3b 4d ab d8 bf 37 ca 16 3f
       -0.49933395 0.0072221095 -1.6927277 0.58902305
000240 47 b4 25 3e 11 a3 5d be 8a f2 93 be bd 11 44 bc
       0.16182052 -0.21644236 -0.2889598 -0.01196712
000250 1f 45 53 bd 1f 6f 71 3d ae 43 60 be 56 7d 44 be
       -0.05157959 0.058943864 -0.21900818 -0.19188437
000260 d9 88 3e be 55 73 44 be 66 73 60 bd c7 49 71 3e
       -0.1860689 -0.1918462 -0.054797553 0.235633
000270 dd ec 8c 3d 6f 75 69 3d d8 8e bc bd bf 43 1b 3e
       0.068811156 0.05699676 -0.09206933 0.15162562
000280 4f de 63 bf 05 ab 5b bf 0b 02 b4 bf 08 bf 36 3f
       -0.8901109 -0.8580783 -1.4063123 0.7138524
000290 40 02 e7 be eb f5 7f 3e 5c db 03 3e 9a 95 57 be
       -0.45118904 0.24996154 0.12876648 -0.21053162
0002a0 29 57 c1 bd f3 ba 1a be 88 f6 9a bf b9 bf ae bf
       -0.094404526 -0.15110378 -1.2106485 -1.3652259
0002b0 b9 7d f3 3e c2 c7 6e bd 25 cc 28 be 5b 24 09 be
       0.47556856 -0.058295973 -0.16484125 -0.13392775
0002c0 f3 6c d6 bd 95 a0 ae bb 6e 10 03 be 1f ad 0d 3d
       -0.10469999 -0.0053292015 -0.12799236 0.03458893
0002d0 4a a3 2b bf a7 4c 8d bf 43 93 bb 3d 8e 36 92 be
       -0.67046034 -1.1039017 0.09158947 -0.28557247
0002e0 dd a4 4b be a2 16 1c bc c5 da 80 bd 52 18 15 3d
       -0.19887109 -0.00952688 -0.06291727 0.036400147
0002f0 b0 b1 42 3e 11 13 29 be 9a 93 be 3c 55 2f 76 3f
       0.19013095 -0.1651118 0.023263741 0.9616597
000300 81 c2 22 3f 96 d1 3c 3f 3c 76 80 bf 8b 06 70 be
       0.6357804 0.737573 -1.0036082 -0.23439996
000310 8e 4c f5 3e 63 b3 b2 bd bf da 9b bd 4e a3 ac bd
       0.4790997 -0.087256216 -0.07610082 -0.084295854
000320 2e d7 c2 be 0d 8f d1 3d eb 9c 32 3d e1 fa aa 3e
       -0.38054794 0.10232363 0.04360668 0.3339453
000330 c1 ea 20 bd 3e bc 6c be e2 c7 e8 3d ea 90 a0 3b
       -0.03928638 -0.23118684 0.113662496 0.0049000876
000340 77 57 82 be f2 5b d2 3c 41 8a 98 3e 36 a8 15 bf
       -0.25457355 0.025678609 0.2979298 -0.58459795
000350 0c 76 2d be 0c 96 9d bf d2 f0 04 3e af c2 a2 3e
       -0.16939563 -1.2311416 0.1298249 0.31789157
000360 90 8e 19 bf 8e 4d a5 bd eb be 5f be 17 62 e5 3d
       -0.5998316 -0.08071433 -0.21850173 0.1120035
000370 5b de 5c 3e a7 a3 2f bf bf 38 b3 3d dd 1d 6a bf
       0.21569197 -0.6860909 0.08751058 -0.9145182
000380 4f 1c b7 bd 68 c8 02 3f 16 c2 cf bd 50 3d 97 bd
       -0.08940946 0.51087046 -0.10144441 -0.07384741
000390 d1 01 cd be d7 08 28 bd 6e 82 76 be 93 5a cf 3d
       -0.40040448 -0.041024055 -0.24073192 0.101246975
0003a0 2b 9f 18 bf dd 98 8f 3e 7e c9 23 be 4f 81 6c be
       -0.5961787 0.28046313 -0.15994832 -0.23096202
0003b0 cd 8e 82 be 08 7e 64 be 5c 68 37 3c 1c 65 22 bd
       -0.25499573 -0.22313702 0.011194315 -0.039647207
0003c0 b1 f2 eb bf 52 1f 1d 3e 12 29 c7 3d 1b 92 9b 3d
       -1.8433439 0.15343979 0.097246304 0.07596227
0003d0 35 71 21 be 95 a9 8b be 99 96 d7 3c 7c 5a 5f 3d
       -0.15765841 -0.27277818 0.026316928 0.054529652
0003e0 c0 97 ce 3d bf 63 92 be 7b 8f 9a bf fb 3f 2c bf
       0.10087538 -0.28591725 -1.2075037 -0.67285126
0003f0 2f 83 c9 be 81 35 06 3b 53 90 d0 be 71 0a 12 be
       -0.39357898 0.0020478668 -0.4073511 -0.14261796

q.q.0.bias f4 [256]
000000 53 ab 1c c0 f0 cb 79 bf 51 62 bc bf 30 bc e5 bf
       -2.4479568 -0.9757681 -1.4717504 -1.7948055
000010 f4 17 26 3e d2 91 8f 3e 93 0a c0 bf 00 bb 23 c0
       0.16220075 0.2804094 -1.5003227 -2.5582886
000020 bd 46 4f bf 32 be 44 bf 79 f4 d1 bf e6 d6 e8 bf
       -0.80967313 -0.76852715 -1.6402732 -1.8190582
000030 f2 d3 ae bf 82 28 0e c0 b3 44 9d bf e9 e3 82 bf
       -1.365843 -2.2212224 -1.228659 -1.0225803
000040 f8 54 a8 bf 3f 8f 85 bf 4a f4 da bf 7b b7 fe bf
       -1.315093 -1.043434 -1.7105801 -1.9899744
000050 43 49 ad 3f aa c0 ab bf c8 98 c9 bf aa f4 f4 bf
       1.3537983 -1.3418171 -1.574975 -1.9137166
000060 7e 1e cd be a6 88 52 bf 9b d8 07 c0 21 1b 92 bf
       -0.40062326 -0.8223976 -2.1225955 -1.1414529
000070 5f 86 e6 bf c3 4c 13 c0 8e 27 9d bf d2 a6 c5 3e
       -1.8009757 -2.3015602 -1.2277696 0.38603836
000080 ed 62 4d bf f1 84 ac bf 15 e2 f1 bf d7 01 d2 bf
       -0.80229074 -1.347807 -1.889712 -1.6406811
000090 98 c7 be bf f0 db 79 bf 31 88 bb 3f 09 13 34 bf
       -1.4904661 -0.97601223 1.4650937 -0.70341545
0000a0 d8 5d c6 bf c5 a1 ef bf 23 98 7a 3f 1b a1 8b bf
       -1.5497389 -1.8721243 0.9788839 -1.090854
0000b0 6e 51 11 c0 d9 7e c2 bf 6f 8c c1 bf 88 36 0c c0
       -2.270595 -1.5194961 -1.5120982 -2.1908283
0000c0 c6 ae be bf 13 35 f8 be 9d 5f e4 bf c6 25 8f bf
       -1.4897087 -0.48477992 -1.7841679 -1.1183403
0000d0 77 30 06 c0 bf 19 8f bf 51 3c 01 3f f5 90 d9 3e
       -2.096708 -1.1179732 0.5048266 0.42493406
0000e0 04 2a d2 bf 8d ef b5 bf e5 9f a2 bd 86 e7 e5 3f
       -1.6419072 -1.421373 -0.07940654 1.796128
0000f0 35 fb a7 bf ca b0 55 be 3c 74 e2 3f 6c 3d a9 3f
       -1.3123537 -0.20868221 1.7691722 1.322187
000100 48 ff b9 bf 21 95 bc 3f cb 05 91 bf e4 c2 43 bf
       -1.4531031 1.473301 -1.1329893 -0.76469254
000110 17 30 b6 bf 9a 01 be bf a7 52 25 c0 f0 57 83 bf
       -1.4233426 -1.4844239 -2.5831697 -1.0261211
000120 cf ae c8 bf b7 4f 5c bf b5 f5 e1 bf b4 e4 b8 bf
       -1.5678347 -0.86059135 -1.7653109 -1.4444795
000130 d4 be e1 bf 78 e9 b9 bf 97 b7 d2 bf a9 3a cc bf
       -1.7636361 -1.4524374 -1.6462277 -1.5955402
000140 9a 82 a1 bf 5d 09 12 c0 43 43 f9 bf 02 61 0c c0
       -1.2617981 -2.2818215 -1.9473652 -2.193421
000150 1a d5 b7 bf 59 05 d5 bd 07 4d ac 3c f2 4e 87 bf
       -1.4361908 -0.104014106 0.021032823 -1.0570967
000160 9c 9f 5b bf 9a 62 07 bf a0 c5 93 bf 3f 09 f4 bf
       -0.8579042 -0.5288483 -1.1544685 -1.9065322
000170 a2 08 e9 bf b4 a0 ef bf 47 ac bb 3f 71 52 cf bf
       -1.820576 -1.8720918 1.466195 -1.6197034
000180 78 4d 03 c0 d0 c2 02 c0 64 67 8e bf 48 ca 0b c0
       -2.0516033 -2.0431404 -1.1125302 -2.1842213
000190 4c 4f f8 bf 42 ab d9 bf d2 08 b1 bf b2 ea c3 bf
       -1.93992 -1.7005389 -1.3830817 -1.5305998
0001a0 a2 38 cc bf c9 bb 2f bf c7 90 d8 bf e6 b9 89 bf
       -1.5954783 -0.6864591 -1.6919183 -1.0759857
0001b0 5c 73 5c be 10 29 3e 3e ad 3e 76 bf ac 06 0c c0
       -0.21528381 0.18570352 -0.96189386 -2.1879072
0001c0 6a c8 d2 bf e2 9d 90 bf 09 79 3f bf 4c b5 46 3f
       -1.6467412 -1.1298182 -0.7479406 0.7762039
0001d0 12 ab 33 bf 3d 71 ac bf 62 a5 bb 3f 9e fb 1b bf
       -0.7018291 -1.3472058 1.4659846 -0.6093081
0001e0 a0 d7 51 bf ed 38 cf bf 63 37 45 be 50 80 0e bf
       -0.8196964 -1.6189247 -0.1925941 -0.5566454
0001f0 2d e5 07 c0 e3 80 b3 bf 94 06 6c bd de 7d e4 bf
       -2.1233628 -1.4023708 -0.05762346 -1.7850912
000200 b8 17 02 c0 78 a7 9e bf f9 fa 87 bf 70 a7 a0 be
       -2.0326977 -1.2394857 -1.0623466 -0.31377745
000210 fc 72 dd bf eb 80 12 bf 24 cd 81 bf 1e 1e ab bf
       -1.7300715 -0.57227963 -1.0140729 -1.3368566
000220 51 72 92 bf 58 fc 19 be 0a 63 c0 bf ea 7d e2 bf
       -1.1441137 -0.15037668 -1.5030224 -1.7694676
000230 82 4c 7c bf 27 5e f2 bf c8 5c c0 bf ca 70 2f c0
       -0.9855424 -1.8934983 -1.5028315 -2.741259
000240 3e ea 59 3f a5 2e b1 3e bb b8 f9 bf 3a 3d e8 bf
       0.8512305 0.346059 -1.95095 -1.8143685
000250 4b 55 ed bf dd de 7d bf 4d 19 00 c0 49 64 dc bf
       -1.8541654 -0.9916819 -2.0015442 -1.7218105
000260 bf ba 5b 3d c2 f4 0c c0 6b a2 9f be a6 9a c2 bf
       0.05364489 -2.2024388 -0.31178603 -1.5203445
000270 d8 8b 9e bf bc b2 b7 bf 1f c4 db 3f a0 ef c8 be
       -1.2386427 -1.435142 1.7169226 -0.3924532
000280 39 9a 8c bf fb 60 ad be eb 23 7b bf 23 88 95 be
       -1.0984565 -0.33863053 -0.9810168 -0.29205427
000290 05 55 80 bf 3a 7f 7d be 36 de 6f bf df bd d5 bf
       -1.0025946 -0.24755564 -0.9369844 -1.6698569
0002a0 5c 0f 80 bf 46 3f 32 bf a9 67 5b 3f 43 59 eb bf
       -1.0004687 -0.696278 0.8570505 -1.8386616
0002b0 e1 f8 02 c0 b8 d8 9a bf de 72 9e bf 6b b8 0f c0
       -2.0464404 -1.2097387 -1.2378805 -2.245631
0002c0 47 5c 85 bf 5e 18 8b 3f 29 a0 02 c0 5e 3f 4e bf
       -1.0418786 1.0866811 -2.0410254 -0.8056544
0002d0 75 d0 51 3c 51 a6 98 bf 77 6d 9d 3e 36 9f 33 c0
       0.012806048 -1.1925756 0.30747578 -2.8065925
0002e0 ed d0 30 bf ff cf 09 bf aa 91 f5 bf 1c 1a 80 bf
       -0.69068795 -0.53833 -1.9185078 -1.0007968
0002f0 7d ee db be 3c 49 98 3f c4 34 ae bf 20 9e d6 bf
       -0.4295539 1.1897349 -1.3609853 -1.6767006
000300 da 89 cd 3d 0d bb 86 bf 79 68 23 bf 3a b4 07 3f
       0.10036059 -1.0525833 -0.6383129 0.5300938
000310 c2 fc 6a bf 16 ff 25 c0 8e 43 24 3f 05 d9 87 bf
       -0.9179193 -2.5936942 0.6416558 -1.0613104
000320 85 be a0 bf 4e 7a d1 bf 4f fb ab bf 97 59 a5 bf
       -1.2558142 -1.636545 -1.3436068 -1.2917966
000330 41 5c c2 bf ad 79 19 3e 9d 7c b6 3e b1 ca 19 3f
       -1.5184404 0.14987822 0.35641947 0.6007491
000340 bd e4 28 bf 4c 98 bc bc 61 2b 19 be fd 0c 54 3e
       -0.65974027 -0.02302184 -0.14957954 0.2070808
000350 0a d3 4c be 8d 95 1d bf 3d 09 e2 3d bf 8a a9 bf
       -0.2000238 -0.6155632 0.11036918 -1.3245467
000360 d9 d1 95 bf e3 2a 84 bf 91 32 d1 bf b2 a5 9d bf
       -1.1704665 -1.0325588 -1.6343557 -1.2316191
000370 67 c3 9b 3e fe 5e 18 c0 42 fa bb 3e cc e7 f8 3d
       0.30422518 -2.3807979 0.3671437 0.12153587
000380 e7 a5 9b bf be 63 fa bf f7 71 80 3f 5d 08 96 bf
       -1.2160004 -1.9561689 1.0034779 -1.1721302
000390 8e 1d 16 c0 45 a3 e9 bf 3a 4e da bf 39 52 73 3f
       -2.3455539 -1.8252951 -1.7055123 0.95047337
0003a0 08 62 c0 bf 1e 60 80 bf c5 6a d8 3f e9 f6 5a 3f
       -1.5029917 -1.0029333 1.6907583 0.85533005
0003b0 87 c0 f0 bf 7d 5c 5c bf 6e 74 e8 bf c5 5b 80 bf
       -1.8808755 -0.86078626 -1.8160532 -1.0028006
0003c0 b5 2b 98 bf 8d 95 7e bf d8 e2 6e 3f 86 38 94 3d
       -1.1888338 -0.99446946 0.93314886 0.072373435
0003d0 f6 e7 04 c0 67 47 89 bf 94 5c ce bf 5f 33 cb bf
       -2.0766578 -1.0724915 -1.6122003 -1.5875052
0003e0 a3 1c 01 be 46 ec f6 be b7 50 92 bf b2 3a 71 be
       -0.1260858 -0.48227137 -1.1430882 -0.23557547
0003f0 14 d3 d7 bf b6 13 b9 3d 80 bf 72 bf 32 0c 03 c0
       -1.6861291 0.09036963 -0.94823456 -2.0476193
