trained_models/PPO/DoublePrecisionSwimmer-v2_actor_250_epochs.pkl (torch, 21855 bytes, 6 tensors)

model.0.weight f4 [64, 8]
00000000: 89e2 d33e 2000 1e3e 0397 fdbd 965b 213e
00000010: 4637 d93d 1076 903e ea76 5c3e 6f4d 47be
00000020: bb20 4bbe c514 7ebe e9aa ebbd d523 cebe
00000030: 527e a93d b7f4 69bc 117e 53bd 4f1b 28be
00000040: f016 423c d5dd 3b3e 656e 68be b08a 1a3c
00000050: bdcc 29be 78e9 e9be a8d9 35be 8cf4 993e
00000060: 3eca d1bc b672 043e 6c9d 793e 7585 8abd
00000070: d1d4 9b3e 9335 a2bd 9145 1bbd 3774 9a3e
00000080: 9c84 8f3e 6618 8abe 2322 253e 3c7a b0bc
00000090: 8a61 96be 1b0c 44be 798e a3bd 37cd 90bd
000000a0: 12e5 883e d334 08bd c538 08be 7516 5ebe
000000b0: 6b12 92be ec1f af3e 6307 733d 5be1 bb3e
000000c0: 1c58 ab3e 2dec a6bb 0d81 2bbd 3e8f 67be
000000d0: 2458 8d3e e286 36bd 6f52 28be 2c43 e73d
000000e0: a635 22be 00fc a2bb 34f4 cf3d d388 8a3e
000000f0: 9605 293e 3aeb 60be 9e91 b1bd b1f1 b5bd
00000100: 0af5 b03d 5ea8 a83d 83cb 8e3e e44e 983e
00000110: b373 26be 170f 16bb 1b74 583e aca0 a7be
00000120: 0b77 a6be fe37 063e 8655 02be c746 743e
00000130: 9407 75be 67ea 193e 8f8f 953e fd23 633d
00000140: e65c b3bd 4a73 b6bd e280 2f3e 3529 003e
00000150: 26ac 993e 3a34 0e3e 89b2 5dbe c939 a0be
00000160: c943 293e 5447 763e c3d9 bf3d 2dcb 013e
00000170: 1f84 32be 07ba ac3e 59da 203e 10e5 adbe
00000180: 19f9 27be d8d1 8dbe 1e5d b43e 7fd2 82be
00000190: d61c 20be 56ee b43d 67f9 d7be 3fa5 08bc
000001a0: 1be9 5c3e b61e 123d 34b8 6f3a dee3 bcbe
000001b0: b825 65be 27f8 40be 5508 ac3d d11d fcbc
000001c0: 0ffe 5abe eec5 afbe 7c50 583d 5e34 9a3e
000001d0: 1b1e 92be 3bd6 09be 0620 993e 2b3c 8c3e
000001e0: b809 fc3d f14e 853e ce59 41be f6bf 10be
000001f0: 84b5 91be 66d8 853e 1b99 fa3d fa98 05be
00000200: d5c0 97be 1466 b13e 8408 81be 309e b63e
00000210: f8f2 06bd 9e24 333e 5b99 913e c735 a93e
00000220: b8b6 643e 4af1 883b 8409 893d 29c2 d93d
00000230: 3469 56be 8324 92bc 25b4 cdbe b174 e0bc
00000240: d58a a63e ff30 80be b509 8abe a59f 10be
00000250: 3cb6 6a3e 8067 42be 0f82 d2bc ddd0 48be
00000260: dabe 8c3c 7870 913e ad9c 07be 4349 033e
00000270: d6ad 9d3e 54cc 173e ed8f 79be 79a6 bbbe
00000280: 5a21 1cbe 7d1d 2ebc d19b 0d3e fbbe efbe
00000290: 6656 853e 6a94 91bd cdf8 69be ff83 823d
000002a0: e432 863e 6bd7 3c3e 560e ccbe 07df ae3e
000002b0: 90c5 cc3c 0d2b 60be 2248 85be a383 9cbe
000002c0: 7f46 cb3e f680 86be d5c2 5e3e 3f9f d9bd
000002d0: df4c 883e d25b 923e 9aeb 2a3e 125e 7fbe
000002e0: 9287 873e 25a3 6c3e f608 3bbe 6f60 2b3e
000002f0: f3e9 ccbe 52be e63d cb21 61be 6dc7 84be
00000300: b78b 8b3e d90b 08be c34c 8bbd 2a4b 063e
00000310: c0fc 353d d7a6 f7bc 03e9 52be add8 13be
00000320: 47a2 9b3e 7902 5c3e c158 6cbe 6ef1 ec3d
00000330: a886 813e 83c9 37be e21b a63d 24e1 32bd
00000340: 2707 ce3d 2c6d acbd b473 72be d968 813d
00000350: 0cdf 90be 6e23 f53d f8e7 513e 3c3a d5bd
00000360: 71c3 72be a1e9 a23d 2779 893e c767 2d3e
00000370: 6e15 643e b627 3fbe 6368 373e 624a c03e
00000380: 7bfb 3b3e 8a82 49be b022 a4be 043b 543d
00000390: 1fd9 4b3e 6eca c33d 248d 5bbe 3d16 97be
000003a0: 1d3e 1f3e b972 46be a3d7 8fbd f56b a33e
000003b0: c08d 58be 91cf bdbe 9682 9fbd 3f1e c23e
000003c0: 1019 6d3e 90a7 c0be 46d4 253e a4f6 53bc
000003d0: d04e 573e 290c 9abe 4eb4 4fbe 0815 973d
000003e0: d956 053e a5e5 963e 67c0 91bd ecc5 26be
000003f0: 8972 88be a92e eabd 7e93 d23d 4657 cbbd
0.4138377 0.15429735 -0.12382319 0.15757594 0.10606246 0.28215075 0.21529737 -0.19463132
-0.19836704 -0.2481261 -0.11507208 -0.40261713 0.08276047 -0.014279536 -0.0516339 -0.16416667
0.011846289 0.18346341 -0.22698362 0.00943248 -0.16582008 -0.45685935 -0.1775881 0.30069387
-0.025609132 0.12934384 0.24376458 -0.06763736 0.30435804 -0.07920375 -0.03790814 0.3016679
0.2803086 -0.2697174 0.16126303 -0.02154266 -0.2937129 -0.19145243 -0.07986159 -0.070703916
0.26737267 -0.033253502 -0.13302906 -0.21688254 -0.28529677 0.34204042 0.059333216 0.3669537
0.3346566 -0.0050940723 -0.04187112 -0.22613236 0.27606308 -0.044562228 -0.16437696 0.11292109
-0.15840778 -0.0049738884 0.10154 0.27057514 0.16506037 -0.21964732 -0.086703524 -0.088839896
0.086404875 0.082352385 0.27889642 0.2974769 -0.16255073 -0.0022897178 0.2113804 -0.3273977
-0.32512698 0.13107297 -0.12727937 0.23855124 -0.23928672 0.15030824 0.2921109 0.055454243
-0.08757953 -0.089087084 0.17139009 0.12515719 0.3001415 0.1388711 -0.21650137 -0.31294087
0.16529764 0.24050647 0.093677066 0.12675162 -0.17433213 0.33735678 0.15708293 -0.33963823
-0.16403617 -0.2769916 0.35227293 -0.2555122 -0.15636 0.088345215 -0.42182466 -0.008340179
0.21573298 0.03567382 0.0009144575 -0.368926 -0.2237767 -0.18844663 0.08400027 -0.030775936
-0.21385978 -0.34330696 0.05281113 0.30118078 -0.28538594 -0.13460629 0.29907244 0.27389655
0.12306541 0.2603679 -0.18881914 -0.14135727 -0.28458798 0.2614166 0.12236234 -0.13046637
-0.29639307 0.34648192 -0.2520181 0.35667562 -0.032946557 0.17494437 0.28437313 0.3304884
0.22335327 0.0041791545 0.06691268 0.10632736 -0.2093857 -0.017839676 -0.40176502 -0.027399393
0.32527795 -0.2503738 -0.2696053 -0.141234 0.2292108 -0.18984795 -0.025696782 -0.19610925
0.017180849 0.2840612 -0.13243361 0.12820916 0.3079669 0.14824039 -0.2437131 -0.36650446
-0.15247098 -0.010627148 0.1382897 -0.46825394 0.2604248 -0.07108386 -0.22848816 0.063728325
0.262107 0.1844155 -0.39854687 0.3415453 0.024996549 -0.21891423 -0.26031595 -0.3056918
0.39702222 -0.26270264 0.2175401 -0.10626077 0.26621148 0.28585678 0.16691437 -0.24938229
0.2647062 0.2310911 -0.18265137 0.16736005 -0.4002224 0.112667695 -0.21985547 -0.259334
0.2725503 -0.1328577 -0.068017505 0.1311461 0.044430494 -0.030230923 -0.205967 -0.14438124
0.30397245 0.21485318 -0.23080732 0.115694866 0.25298047 -0.17947964 0.08110787 -0.043671742
0.10059958 -0.084192604 -0.2367695 0.06318826 -0.2829517 0.11969648 0.20498645 -0.10411498
-0.23707367 0.079547174 0.26850244 0.16934119 0.222738 -0.18667492 0.17910914 0.3755675
0.18357651 -0.19678703 -0.32057714 0.051814094 0.19907044 0.09560095 -0.2144056 -0.29509154
0.15551038 -0.193797 -0.07023551 0.31918302 -0.21147823 -0.37072423 -0.07788579 0.379137
0.23154092 -0.3762784 0.16194257 -0.012937222 0.21026158 -0.30087402 -0.20283625 0.07377058
0.13021411 0.2947208 -0.07116776 -0.16286439 -0.26649883 -0.11434681 0.10282038 -0.099287555

model.0.bias f4 [64]
00000000: b3c0 95be fa42 b33e b731 87bd 05ea a43e
00000010: 194f b1be 1754 663e 08bd f33e fdbe 95be
00000020: b75d debc 9d33 ddbc 65dd 7bbe cfba 17bd
00000030: 9341 d93e c4eb 373e 7d8f 65be ad2b 7c3e
00000040: 004c 813e 320c d73e 259b 3ebe d271 febc
00000050: 7f62 b8be 03fd a7bd ee26 da3e 972a 883e
00000060: 1433 393c 8f07 43be 8710 713e a205 c7be
00000070: b82a 26bd f01a 343c a9fa 583e 07ca a5be
00000080: 5f02 913d a97e 25be 7c1e 77bd 0379 3dbe
00000090: e9a5 aa3c 4383 87bd 6bf8 92bd bc3f 52be
000000a0: 4313 c83d 9579 8dbe d552 c33d 3f1f afbe
000000b0: 0af1 76be 487e 95be 2666 adbd d2e2 d23e
000000c0: a404 d0be 1db9 353e d5b9 b93e f447 0dbe
000000d0: 0bae 523e b103 533e 7a83 61be b569 833d
000000e0: 7f6f af3c a109 c53c 4ea3 8d3e 4e11 adbe
000000f0: 2725 ba3e e2dd 3bbe ad4c 7cbe 23e9 6d3e
-0.2924858 0.35012037 -0.06601279 0.32209793 -0.3463066 0.22493015 0.47605157 -0.29247275
-0.027144296 -0.02700215 -0.24596174 -0.03704339 0.42432842 0.17961031 -0.22418018 0.24626036
0.25253296 0.42001492 -0.1861387 -0.031060133 -0.36012647 -0.08202555 0.42607826 0.26594993
0.011303682 -0.19045852 0.23541461 -0.38871485 -0.040568084 0.0109927505 0.2118937 -0.32380697
0.070805304 -0.16161598 -0.060331807 -0.18503194 0.020831065 -0.06616833 -0.07176288 -0.20532125
0.09769299 -0.27631822 0.09537283 -0.34203526 -0.24115387 -0.29197907 -0.08466749 0.41188675
-0.4062854 0.17746396 0.3627459 -0.13796979 0.20574205 0.20606877 -0.2202281 0.064166464
0.02141547 0.024052443 0.27663654 -0.33802265 0.3635647 -0.1834636 -0.24638624 0.23233466

model.2.weight f4 [64, 64]
00000000: b88e 1ebd e0f7 b4bd e893 1e3e 652d 1bbd
00000010: 6081 c53d 9bd8 8fbd 1cb6 503c 27a8 ccbb
00000020: 9927 1f3d 0b1d f73d fd0b fcbc 4f5d 043e
00000030: c4a4 16be 355d 50bd 5274 103e 7db4 273e
00000040: dc67 3d3e 7e6d f4bd a1ea c9bb 466b 343e
00000050: e9af 42be bf5c 85bd 027d 9237 b319 64bd
00000060: 83b9 483c f086 36bd d5bb f93c 5a48 0e3e
00000070: fe18 643d ee6a 263e 9d13 04be dd01 7ebd
00000080: cc31 d33d 50aa 1a3e d8f5 cabd d541 9ebe
00000090: a19a 413e 1169 793c d1f7 b73c 3682 543e
000000a0: ac2b a43d 18d1 b03d 357a e3bd e637 1ebe
000000b0: ee72 04be 46b3 013e 8592 653e 0c04 16bc
000000c0: 3307 55bd aac4 203e ea1d 913d a493 4b3c
000000d0: 5e11 57bb ba0a 8c3c cda1 39be 3194 01be
000000e0: f6c1 ffbb 02b0 473e 3e22 b73c f1d3 643e
000000f0: 1a9e 413d 6ea9 593c 4b51 fc3c ef23 103e
00000100: 9cb8 2abd 6eca 9abd a397 8bbd c50e d93d
00000110: 323e 003d 4715 cb3d b429 883c 4522 00be
00000120: 835e 5dbc 8d96 8cbd d4d1 f8bd 7dee 67bc
00000130: 1b45 913c 012a cebd b528 eebd 6c89 d0bc
00000140: 0553 103d f65c 003e 8292 efbd 517d 1dbe
00000150: 5618 f7bd 2b8c e73d 9ac1 63bd dc40 cbbd
00000160: fdae 553d 572b 2d3b fbca dabd 9b91 383d
00000170: 3bb8 e33c 06e7 913d 7c60 a9bc e536 39bd
00000180: 03dc 423d 3814 233e 33e3 bbba 1428 e7bc
00000190: 64ce 02bd d469 86bd 83ee 1e3d af34 bcbc
000001a0: ad69 e13c af69 8abd b52f d23d bf5b a5bd
000001b0: 322c 32bd 5620 53bc 262d 183d e9c9 9f3d
000001c0: 4ac9 e4bd 6942 bf3d 2246 ebbd 6437 6cbd
000001d0: b9a9 8b3d c055 0fba ac0f 5fbb 90b7 3cbd
000001e0: 5ea4 f3bb 8834 393d 239b 4dbd d9c5 2abe
000001f0: 8c25 f53d fd98 abbd 047f 70bd 6e36 013e
00000200: 8971 8dbd 0cd8 14bd 68ac d9bc 7ae2 97bd
00000210: 7479 c2bd e710 00be 6d87 babd 2c28 89bd
00000220: 5c21 6cbd 752f 5b3d bfd8 d83d 59b7 9b3d
00000230: 32bb f33d 9b2c 39bd f573 bc3d 4011 623d
00000240: 9a96 0ebd 804c 3fbd 7eb2 6ebc 42bb 4fbd
00000250: 4644 2e3c c650 203e 42bf db3d 2fcc 143e
00000260: ba17 f83d f0ee 09bd 2997 5cbd c043 553d
00000270: e8c2 c03b ea05 223d de16 9dbc 4076 063e
00000280: 5803 6bbd 1497 30bd 57c2 763d b102 f4bc
00000290: 696b d9bc 5fac 02bd d026 393d 3d04 a43d
000002a0: 258a b3bd 545a a53b 7584 073e 7c0d 7dbd
000002b0: 93e1 ab3b 7f29 97bd 127b 26be fb62 c5bd
000002c0: bff9 33bd 0b0a d2bc 421f a13c 35ba 073e
000002d0: 1352 b73d db10 c8ba 0c96 cdbd e698 c33c
000002e0: 3f20 f83c f3b3 0f3e 7b43 99bd f1aa b6bd
000002f0: 937a e93d 49f5 5b3a 0b4c 47bd b8fd c4bc
00000300: c213 32bd 9edb 63bd a90e 043e a612 923c
00000310: a96a e93c 2fbe babd 0952 9e3d 9fb2 f73c
00000320: dc92 27bd 24f3 0f3e da3d 1d3e 968e 333e
00000330: 4183 25bd 9326 00be a7d9 b83d 7e84 473d
00000340: 25b9 f73d 838b 9ebd 343d bf3d 99aa 503e
00000350: 70d9 9fbd e69b e4bc 8d11 62bd 06a1 79bd
00000360: 6a9f 91bd c24d 813d 7699 473d a1ae a8bc
00000370: 5009 c43d 1800 c7bc 7464 35be a923 a93c
00000380: 9d5d 99bc 6e9e b53d 70f8 633d e292 94be
00000390: 8c7c 8d3d b268 373d a74c 40bd 1cc2 253e
000003a0: 41d5 ecbd 2e08 0d3d 5f49 50bb 9244 21bc
000003b0: 7fad 263d 41a5 583c ad3e 433e 19fd a2bd
000003c0: 29c5 463c 4451 0f3e 6619 003d ddb1 523d
000003d0: 1432 a0bd 9006 66bd 09d3 efbd c6d3 cebd
000003e0: ff65 bf3d e152 de3d 655b 8b3c f154 123e
000003f0: 1845 1a3d 974e 29bd 7cf0 24bd 8bc8 1a3e
-0.038710326 -0.08836341 0.1548611 -0.03788509 0.09643817 -0.07023736 0.012738731 -0.0062456313
0.038856123 0.120660864 -0.030767435 0.1292622 -0.1471129 -0.05087014 0.14106873 0.16377445
0.1849665 -0.119349465 -0.006162003 0.17619047 -0.19012417 -0.065118305 1.7462768e-05 -0.05568857
0.012251261 -0.04456228 0.030485073 0.13894787 0.055687897 0.16251728 -0.12898107 -0.062013496
0.103122324 0.15104032 -0.09910172 -0.309096 0.18906642 0.015222804 0.022457035 0.20752797
0.08016142 0.086336315 -0.111072935 -0.15451011 -0.12934467 0.12666044 0.22419174 -0.009156238
-0.05200882 0.15700021 0.07085784 0.012425337 -0.0032816748 0.017094959 -0.18128128 -0.12654187
-0.0078051044 0.19500735 0.022355195 0.22346474 0.047269918 0.013285024 0.030800482 0.14076208
-0.041679963 -0.07558142 -0.06816032 0.1059852 0.031309314 0.09916168 0.016621448 -0.12513073
-0.013511303 -0.06864653 -0.121493965 -0.014155981 0.017733147 -0.10066605 -0.11628858 -0.025456153
0.035235424 0.12535462 -0.11697866 -0.15379836 -0.120651886 0.11306032 -0.055604555 -0.0992448
0.052168835 0.0026423538 -0.10683247 0.045060735 0.027797809 0.07124142 -0.02067589 -0.045218367
0.0475731 0.15925682 -0.0014334678 -0.028217353 -0.03193511 -0.06563154 0.03880168 -0.02297434
0.02751621 -0.06758439 0.10263006 -0.0807414 -0.04349918 -0.012886127 0.037152432 0.07802183
-0.11171205 0.093388386 -0.11487986 -0.057670012 0.068194814 -0.0005467795 -0.003403644 -0.046073496
-0.0074353656 0.045216113 -0.050196778 -0.16677035 0.11970052 -0.083787896 -0.05871488 0.1261842
-0.06906421 -0.03633885 -0.026571468 -0.07416244 -0.094958216 -0.12506448 -0.09107862 -0.06697115
-0.057649 0.053512055 0.10588216 0.0760333 0.11900939 -0.045208555 0.092018045 0.055192232
-0.034811594 -0.046703815 -0.014568923 -0.050715692 0.010636395 0.15655813 0.10729839 0.14531015
0.121139005 -0.033675134 -0.053855095 0.052066565 0.0058826096 0.03955642 -0.019175943 0.13131046
-0.057376236 -0.04311283 0.06024393 -0.02978644 -0.026540475 -0.031902667 0.04520303 0.08008621
-0.08766583 0.0050461683 0.13234122 -0.061780438 0.0052453964 -0.073809616 -0.16257885 -0.0963802
-0.04393935 -0.025639554 0.019668225 0.13254626 0.08951201 -0.0015263812 -0.10038385 0.023876619
0.030288814 0.14033489 -0.07483574 -0.08919323 0.11400332 0.00083907373 -0.048656505 -0.024046764
-0.043475874 -0.055629365 0.12896217 0.017831158 0.028493242 -0.09118306 0.07730491 0.03023654
-0.04091154 0.14057595 0.15355626 0.17534861 -0.040408377 -0.12514715 0.09025889 0.04871034
0.120958604 -0.077414535 0.093378454 0.20377578 -0.07805145 -0.02790637 -0.05519252 -0.06094458
-0.07110484 0.06313659 0.048730336 -0.020591082 0.09572089 -0.024292037 -0.17714101 0.020646887
-0.018721396 0.08868109 0.05565685 -0.29018313 0.06908521 0.04477758 -0.0469481 0.16187328
-0.115641125 0.03443163 -0.0031782014 -0.009843009 0.040692803 0.013222993 0.19066878 -0.07958431
0.012131968 0.13995844 0.03127422 0.051439155 -0.07822052 -0.056158602 -0.11710174 -0.10098986
0.09345626 0.10855652 0.017011354 0.14290215 0.03766355 -0.041334715 -0.040268406 0.15115564

model.2.bias f4 [64]
00000000: 69ea 3bbd b763 fbbc 298d b6bd 04f0 94ba
00000010: 5496 393d 39ef e23d a94a bc3c d7db 7c3d
00000020: 281a 293c c407 cd3d 88fe b03c 0ba8 213e
00000030: e746 263d 6ddb e1bd af25 073d 8310 59bc
00000040: a8a2 26bc a005 c73c 0dfa b2bd e582 713d
00000050: d9d5 b53c ac45 a93d a903 aab7 e716 573d
00000060: 9747 42bd 5ec9 123e 089e 2c3e ecf2 43bd
00000070: faa1 e93d 3bc8 71bd 33e5 053e 35a3 4d3d
00000080: 7477 94bd 174f 603c 870f 403e 0c0b 9cbd
00000090: 341b 01bb 9ed2 7f3d 7b94 b43d 4795 b33c
000000a0: c0e2 df3d cc4c e23d 36c0 33bd 958f 08bc
000000b0: 157d 233d 7401 a2bd 4a54 cc3d 14f5 96bd
000000c0: e6b3 0e3e 0ed9 06be fb9e 0cbe 94c1 04ba
000000d0: 6629 803d 7f1b ba3d 7ac5 0f3e 632a c53d
000000e0: db4c 223c 8162 243d d5cc 013e c213 2dbc
000000f0: fcbb 06be ba4a cf3c 710c 8d3d 9e9d c4bd
-0.045877848 -0.030687196 -0.08913643 -0.0011363034 0.04530938 0.11080784 0.02298482 0.061733093
0.010321178 0.10011247 0.021605745 0.1578676 0.04059496 -0.1102818 0.032994922 -0.013248566
-0.010170616 0.024294674 -0.087391 0.05896272 0.022196697 0.08265242 -2.0267284e-05 0.052512076
-0.047431555 0.14334628 0.16857159 -0.04783909 0.11407848 -0.059028845 0.13075714 0.050204474
-0.072493464 0.0136907315 0.18755923 -0.076192945 -0.0019700052 0.06245672 0.08817383 0.021921767
0.10931921 0.11049804 -0.04388448 -0.008335014 0.03991421 -0.079104334 0.09977014 -0.07370964
0.13935813 -0.13168737 -0.13732521 -0.0005064246 0.06257896 0.09087276 0.14040175 0.09627225
0.009906019 0.040133003 0.12675793 -0.010563793 -0.13157648 0.025304187 0.06887139 -0.096003756

model.4.weight f4 [2, 64]
00000000: 3cb4 433d 267d 83bd 3909 9dbd 65fa 32bd
00000010: 60be 873d fb37 413d 3d49 cc3d eb24 d13d
00000020: 8bd6 ee3d 28ee a13c 791d a03d 5e76 cb3d
00000030: 256f 253d 9f45 413d 061c 1b3d 3957 b1bd
00000040: 6a1b 02be 5d34 1f3e 4aa5 0ebd d747 5c3d
00000050: 2c6f 88bd 3290 633d f9e3 17bd e02a 08bd
00000060: 2032 65bd e178 443c d459 183e 82d7 ee3d
00000070: 4ccf d33d a9d2 d83c fef9 8c3d 1889 37bd
00000080: bfaf 56bd c870 8e3b ff41 c33d 4a3c 573e
00000090: db26 ac3d 9898 c3bd 7034 ef3d a0b7 043c
000000a0: f074 123e b863 433d ca0b fabc fb9d 14bd
000000b0: 427e f93b fca6 aabc 2958 163d 6918 0bbe
000000c0: 0067 093e 4043 b7bc 8652 a93c d839 45bc
000000d0: a591 d43d 95a2 f3bb 5b19 663d 52f3 f13d
000000e0: 5d81 c73d 1bcc 143e da1a ef3a e749 61bd
000000f0: 61a4 6f3d 41ea 8c3c 61c3 923d 18e4 cfbd
00000100: 279d 393e 7b76 c23d 2390 7abd 1873 5b3e
00000110: 9015 0cbd aa5d 02be e1d5 c4bc d929 89bd
00000120: 0ca0 ddbd de69 76be ae51 1e3e 29a9 a8bd
00000130: 6c8e 6dbe 4ee3 1bbe 62b3 febd 109a 943d
00000140: 7cd5 583e f1a1 28be cfef e0bc adc9 d9bd
00000150: 81b1 bc3d a5c1 383d acc0 dcbd 8e3a 423e
00000160: c73e 273e f7b4 fcbd 667c 25be 30e8 88bc
00000170: 1e36 0fbe a80a 183e 5a0b a4be 5c94 433e
00000180: 8cc3 c43d dbb9 5e3d 4985 b3bc 72e6 973b
00000190: c1d1 703e b602 11bc 2b0e babd 72ee 5fbe
000001a0: 2b85 dfba 29be f33d d172 fbbc a6f0 30bd
000001b0: afc9 3ebd 1240 5d3e 4795 2fbe 5ad2 afbd
000001c0: c5b8 303e 2a10 a6bd 8b18 9cbd b700 913d
000001d0: 83ea babd a6d7 04be e74e 31be dda6 01be
000001e0: cf8f 723d c572 1f3e 4dd0 30be 6194 5d3b
000001f0: 4b07 d7bd 52f4 673e 66f8 393e 9bd2 dc3d
0.047779307 -0.064203545 -0.07667775 -0.043695826 0.06628108 0.047172528 0.099749066 0.1021212
0.116620146 0.019766882 0.078181215 0.09934686 0.0403892 0.047185536 0.037868522 -0.086592145
-0.1270577 0.15547319 -0.0348256 0.05377945 -0.06661829 0.055557437 -0.037082646 -0.033244014
-0.055956006 0.01199171 0.14878017 0.116621986 0.10342273 0.026467638 0.0688362 -0.044808477
-0.0524137 0.0043469407 0.09534072 0.21019092 0.084058486 -0.09550589 0.116799235 0.00810042
0.1430242 0.04770252 -0.0305232 -0.036283474 0.007613928 -0.020831577 0.03670517 -0.1358353
0.13418198 -0.022370934 0.020669233 -0.012037717 0.10379342 -0.007435153 0.056176525 0.11813988
0.09741471 0.14530985 0.0018242255 -0.05500212 0.058506373 0.017201545 0.07166172 -0.10150927
0.18126355 0.094952546 -0.061172616 0.21430624 -0.03420025 -0.12731043 -0.024027767 -0.06697435
-0.10821542 -0.24063823 0.15460846 -0.0823539 -0.23198861 -0.15223429 -0.12436558 0.072559476
0.21175188 -0.16468026 -0.0274581 -0.1063417 0.09213544 0.04510655 -0.10778937 0.1896765
0.16332541 -0.12339204 -0.16160735 -0.016712278 -0.13985488 0.14847815 -0.3203991 0.19099563
0.0960761 0.054376464 -0.021914141 0.0046356255 0.23517515 -0.008850744 -0.090847336 -0.21868303
-0.0017053237 0.119015045 -0.030694397 -0.04319825 -0.04657906 0.21606472 -0.17146789 -0.08585043
0.17257984 -0.08108552 -0.07621869 0.070802145 -0.09126761 -0.12972888 -0.17315255 -0.1266131
0.059219178 0.15571125 -0.1726696 0.0033810365 -0.10499438 0.22651795 0.18161163 0.10782357

model.4.bias f4 [2]
00000000: 96be 483e 8369 ad3d
0.19603953 0.084673904
