trained_models/PPO/Swimmer-v2_critic_250_epochs.pkl (torch, 21599 bytes, 5 tensors)

model.0.weight f4 [64, 8]
00000000: c44d 73be 316b dabe 5c83 e63e 4863 33be
00000010: 83bd fb3d f622 b73d 5be7 74be 5568 1b3e
00000020: 4173 a0be 7fd0 b3be eab3 813d 2d30 cd3e
00000030: edce 573e 151f 283e 10bf 33be 03a3 7dbe
00000040: c12b 5e3d d640 8d3b 5a0d aebe bc50 c13e
00000050: 882b 8cbc 4ece 03be c1df 983e e3eb 92bc
00000060: 7e5e 25bf beee 2ebe 1237 ad3e 945a dc3c
00000070: 1b7d 8d3e bf73 03be b915 32bc 9eb4 0e3c
00000080: fd33 fc3d ad80 eb3e 0722 f0be c5a4 193f
00000090: 2e76 c13e f528 6ebe ad3f a13d d855 8cbd
000000a0: 8998 13bd d3ce 5b3b 8cda c4be 2e2c 16bf
000000b0: 093e 3c3e 25b6 ef3c f320 dabe abe7 2f3e
000000c0: 999e bb3d 8b58 13be 5c3f b93e 6c28 81bd
000000d0: e8ed 393e 7b66 343e 7329 1a3e ce9b 633e
000000e0: 3746 483d e4a4 b2be 0508 babe e1c8 7abe
000000f0: 5518 273e 884a 293d e7da 093c b207 1dbe
00000100: 110d dabe 3021 5fbc dedc e93e 450d 0dbe
00000110: 7d2c 9c3d 4d7c 88be b08b 78be e4bc 16be
00000120: b88a 6dbd c8b0 ff3c 539f 27be c6cd 003e
00000130: 2cae 093e fe9b 39be e298 c3bc 6207 843c
00000140: 98cc 033f 4464 3f3d 5570 a5be 3f50 133e
00000150: 447c 493e 4bc8 9a3e edb8 4a3e 7749 923c
00000160: c2e3 0bbe 3819 cb3d a867 69bd 6099 123d
00000170: 43c0 9abe 96cf f63c 637f 1c3e d7dd a73c
00000180: 09e6 803e b96d 003f ba11 22be 46dd 5f3f
00000190: e3eb b73e 0ca5 2dbe 7ef1 3c3e b13e 6cbe
000001a0: f29e a2bd b149 c73e 01e8 dc3d 05aa 863e
000001b0: b31c 16bf c125 c83e 32ce 1a3e b6ca 93bd
000001c0: 4171 8bbe f072 d1bd 1795 653e 1ba1 373e
000001d0: a19d 5d3d 1ccf 6bbd f901 f33d 770a 7b3d
000001e0: 2c21 29be 8a15 e0be 71be 0bbf dbc7 8fbe
000001f0: 6e73 fbbe 0900 59be b17c a2be d0da 113c
00000200: 0e7f 44bf 187e ff3e 8da6 133e 660f 66bf
00000210: 2c6f 7dbe e442 bd3d b0e3 b0bc 4d5e f1bd
00000220: c590 bd3e ebd2 0f3f 8f86 80bd 8c1f cd3e
00000230: 1463 b83d 2efe 4abc 4a93 263e 7f98 0dbd
00000240: c3dd 0ebf b75c eb3e 6f78 07bc cd31 27be
00000250: 2fdc 07be 96d5 2dbc 967d de3c 9143 12bd
00000260: 107e 083f 8e08 7b3e 5dc5 883d 10a7 5f3e
00000270: 36a3 9c3e ef6c 6cbe 7d20 7abe fcfe 85bd
00000280: d963 b23d 0a61 143e 9897 05be f990 f93e
00000290: 71fb c13d eed1 8dbe 8ada 393e 33e0 b4bd
000002a0: e449 ebbe 20ab 023f 1bb7 1cbf 3912 063f
000002b0: 3cb4 0bbe 1a03 99bd c08d 2fbd 1922 363e
000002c0: deba 4fbe e8ac 22be dd6c ebbe 3f9a 20bf
000002d0: bf4d 1bbe 363d fb3d e76c ccbd a979 4fbd
000002e0: 77a2 823e 21df efbe d908 623e 90fe babe
000002f0: 9a14 1abf 2763 8bbd 3d72 d4bd 38d7 2cbe
00000300: c4ba a13e 633b d83e bf99 a3bd 981e 5e3f
00000310: 708f a9be fd0d 943e 7acd 2cbd 049d 81bc
00000320: 0e48 f8bd 5d7c e13c 318a e03c 427f 50be
00000330: 0842 193e 7a05 01be 4847 63be 442f 4abd
00000340: 4c73 203e d60d 8f3e a4f7 cdbe 6eed 3f3f
00000350: 2166 e7bd 437f 54bd c0d6 d13d b668 2b3c
00000360: 6923 f53d c60c 233e 5408 efbe 6d26 263f
00000370: 0b34 e2bd e534 23be 522e 953e a00d f03d
00000380: 146e 1cbf fe24 0ebc 539f 1f3e c9a2 96bd
00000390: 4578 89be 9373 f23d 28f7 7a3d d35b 35be
000003a0: a87e 4a3d 9592 72be f425 8a3e d91f 2dbf
000003b0: 9927 0b3f 34bf 0f3e 4500 ce3e 77a5 57be
000003c0: 6ee9 5e3e bdbb aabe 2b70 3a3e 75d6 ddbe
000003d0: d8dc 7bbe a259 013e cfac f3bd 6af7 9fbe
000003e0: 4976 b33d eb3a 013e 0a69 bebc 22f1 cdbe
000003f0: 9048 80be 6978 a1bc 393a 343d 505c 803e
-0.23760134 -0.42659906 0.45022094 -0.17518342 0.12292006 0.08942215 -0.2391638 0.15176518
-0.31337932 -0.35120007 0.06333144 0.40075818 0.2107503 0.16418107 -0.17553353 -0.24769215
0.054240946 0.0043107076 -0.3399456 0.37756908 -0.017110601 -0.12871668 0.2985821 -0.017934745
-0.6459731 -0.1708326 0.33831078 0.02689866 0.2763451 -0.12837122 -0.010869437 0.008710055
0.123146035 0.4599661 -0.4690096 0.60017043 0.37785476 -0.23257811 0.07873473 -0.06852311
-0.03603414 0.0033540025 -0.38447988 -0.5866116 0.1838304 0.029261658 -0.42603263 0.17178218
0.091611095 -0.14389245 0.36181152 -0.06306538 0.1815716 0.17617218 0.15054874 0.22227404
0.048895087 -0.34891427 -0.36334243 -0.24490692 0.16317876 0.041330844 0.008414007 -0.15334967
-0.42588094 -0.013618752 0.4567632 -0.13774593 0.07625673 -0.26657334 -0.24272037 -0.14720494
-0.05799362 0.031212226 -0.16369371 0.12578496 0.13445348 -0.18125913 -0.023876611 0.016116802
0.5148406 0.04672648 -0.32312265 0.1438608 0.1967631 0.30230936 0.19797106 0.017857296
-0.13661101 0.099169195 -0.05698362 0.0357908 -0.3022481 0.030128282 0.15282969 0.020491524
0.25175503 0.50167423 -0.15827075 0.8744701 0.35922155 -0.16957492 0.18451497 -0.2307079
-0.07940473 0.3892341 0.10786439 0.2630159 -0.5863754 0.39091304 0.1511772 -0.072163984
-0.27234843 -0.10227001 0.22420155 0.1793255 0.054105405 -0.05757056 0.11865611 0.061289277
-0.1651656 -0.43766433 -0.54587466 -0.28082165 -0.49111503 -0.2119142 -0.31735757 0.008902267
-0.7675637 0.4990089 0.14419003 -0.89867246 -0.2474944 0.09241274 -0.021592945 -0.117855646
0.37024513 0.5618121 -0.06275665 0.4006313 0.09003273 -0.012389703 0.16267124 -0.03456926
-0.5580713 0.45969173 -0.00826846 -0.16327591 -0.13267587 -0.010610005 0.027159493 -0.035708968
0.53317356 0.24514982 0.06678269 0.21841073 0.3059327 -0.2308843 -0.24426456 -0.06542775
0.08710451 0.14490142 -0.1304611 0.48743418 0.09471787 -0.27699226 0.18149772 -0.08831825
-0.45954812 0.51042366 -0.61216897 0.52371556 -0.13642973 -0.07471295 -0.042859793 0.17786445
-0.20286128 -0.15886271 -0.45981494 -0.6273536 -0.15166377 0.122675344 -0.09981709 -0.050653134
0.25514576 -0.4684992 0.22073688 -0.3652234 -0.60187685 -0.06806021 -0.10373352 -0.16878974
0.31587803 0.42232808 -0.07988309 0.8676543 -0.33117247 0.28916922 -0.042188145 -0.015821941
-0.12123118 0.027525121 0.027409645 -0.20361045 0.14966595 -0.12599745 -0.2219516 -0.049361482
0.15668982 0.27940243 -0.40227997 0.74971664 -0.112987764 -0.05187918 0.102460384 0.010461977
0.119696446 0.15922841 -0.4668604 0.64902383 -0.11045083 -0.15938146 0.29136902 0.11721349
-0.61105466 -0.008675812 0.15588121 -0.073552676 -0.2684957 0.1183845 0.061270863 -0.1771081
0.049437195 -0.23688729 0.2698208 -0.6762672 0.54357296 0.14037782 0.4023458 -0.21059214
0.21768734 -0.33346358 0.18206851 -0.4332768 -0.24595964 0.12631848 -0.11898195 -0.3124345
0.087627955 0.12620132 -0.023243446 -0.40223032 -0.2505536 -0.019710736 0.044000838 0.2507043

model.0.bias f4 [64]
00000000: d863 383e a89c 12bf e301 ca3e 9e16 b03d
00000010: a8bc 6c3d 7a9a 18be 5096 323f 5a3e 4abe
00000020: 440b 10be 8728 5a3f 6a85 a83e 5c2d 6b3f
00000030: b736 723e 4ba4 193f d46a 393f 3cf6 17be
00000040: e9a8 14bd 96f3 a53d 46f2 75be 57d3 923e
00000050: d97b c63e 20c8 0bbe 8efa 3f3e 4a02 bdbe
00000060: d17c 023d 0e21 413f 60a3 2c3f 2582 833e
00000070: 3ba0 d13d 138f 93bd dac3 00bf 1148 013e
00000080: 437f 1c3f e059 eabe ad67 433f 8f27 cebe
00000090: 4604 8d3e b28f 8dbe 7cdb 573f 601b de3d
000000a0: f016 563f 0c75 b4be fa32 483f ce91 8dbc
000000b0: 69ec 243e 9b2d 1c3f f3f1 1e3f 96f0 193f
000000c0: 2414 dbbe 667c 1ebe 99c7 dbbe 362e 7cbe
000000d0: efff 473e 81ee c13e c212 233e cd3f 113e
000000e0: aa1f 8abd 63a2 3a3f 965b 9abe f839 a1be
000000f0: e3e9 e3bd e516 1b3f b7b3 463e 1c41 8dbc
0.18006837 -0.5727029 0.39454564 0.08598064 0.057797104 -0.14902678 0.6976061 -0.19750348
-0.14066797 0.8521809 0.32914287 0.9186609 0.23653685 0.60016316 0.7242863 -0.14840025
-0.036293898 0.08103101 -0.24018201 0.28676865 0.38766363 -0.1365056 0.18747923 -0.3691581
0.031857315 0.7544106 0.6743679 0.2568523 0.1023564 -0.072050236 -0.50298846 0.12625147
0.61131686 -0.45771694 0.7633007 -0.40264556 0.27542323 -0.27648693 0.8431928 0.10845065
0.8362875 -0.3524555 0.78202784 -0.01728144 0.16105808 0.6100709 0.62087935 0.6013273
-0.42788804 -0.15477142 -0.42925718 -0.24627003 0.19531225 0.37877277 0.15925124 0.14184494
-0.06744321 0.7290403 -0.30148 -0.3148954 -0.11128595 0.6058181 0.19404493 -0.01724296

model.2.weight f4 [64, 64]
00000000: fb1e 643e b544 07bf 4a33 763e bc03 8cbd
00000010: 2c2b 4d3e 6c3f 71be dac7 763e 2703 0cbd
00000020: e80e 003e 79d1 c53e 8619 31bd f65f 2b3f
00000030: ffa6 aa3d 53ec 0e3e 3946 f43e e43d 4f3d
00000040: 0712 14be da10 993e bf6b 31bd 20ff 80be
00000050: f230 8a3e 543c ef3d 85c3 d63e 4e7c 0bbe
00000060: 3629 18be 4f0b 7a3e 6df6 703e aa8e 933e
00000070: 6010 d2bd 50b5 9b3c b318 9cbe 7924 b4bd
00000080: 6189 f73d f2f6 cdbe 3780 293e 6af1 4cbe
00000090: b60e c13d 5ba4 83bd 8081 d23e 012c 88bd
000000a0: 0fd2 af3e e977 b2bc f744 3c3e 661a 89bc
000000b0: b055 47bd eb18 4f3e 7c49 ea3e 789c 423e
000000c0: 2122 85bd f69f 56be 3b79 17bf cee3 8abe
000000d0: 7f64 a0bd 675e 3a3e 38b7 773c a96d a4bc
000000e0: 2d1b 01be 0a97 603e 517c 6ebe 1901 4cbe
000000f0: 97c8 ecbd 1d6f 0b3e ebea 033e a23d 42bd
00000100: 036e bcbd c726 9c3e 68cd b0bd 0c8e 26bf
00000110: 6e2d e9be 4619 583d d6e2 b3bd d428 193d
00000120: 462f 61be 7022 8ebe 16bf 0d3d 8f4f 2fbe
00000130: a6f6 5a3c b329 8c3d 8a25 c8bd 28c3 e23c
00000140: 718f 7cbe 4642 8ebe 4cf0 7b3d 9f7e b23c
00000150: f757 2f3d e327 c1bd 5ac0 003e b733 cc3d
00000160: 896a 9cbe e2ef 82be 23c2 1abc 7ef1 69be
00000170: 63ad a4be bc43 813e 10a5 803e 0fbd 103e
00000180: d8f5 08be 27b7 e33d 8020 4f3d 6054 333e
00000190: 7b72 febc 67cf 443d 4d7d e1bd 9471 043e
000001a0: 7f49 453c d82e bf3e 82dc adbd 1137 ce3c
000001b0: df12 c3bb 19d2 bc3d 4d30 c5bd f342 fe3d
000001c0: ddee d4bd 6a84 be3d afd3 363e 6401 223e
000001d0: 12cf c63c afc4 edbe 2235 8c3d 7625 68bd
000001e0: 67b9 09be cfd6 64bd 64eb 823d ff91 323e
000001f0: ed96 5abd 9f4b bfbe 46e6 ad3d a16f 94bd
00000200: 560f 14be 5431 cf3e 564c 1bbe 7f26 4dbf
00000210: d00e 65bf 9842 2a3e db87 50bc c2bd 093e
00000220: fb11 09bf fbe9 6dbe c969 343b fee5 adbd
00000230: b976 c9bd 9af2 20bd 4874 11be 9633 093e
00000240: 8785 36be 7546 c6be 31df 863c 4fe7 c23c
00000250: 096e 86bd cd82 69be 5c41 243e 11b5 ac3d
00000260: 7b31 8cbe 5d68 a0bc 9377 e8bd 8889 96be
00000270: 8167 2ebe e5a1 883e 5172 3a3e 2313 123e
00000280: 0f0a 11be ed09 623d 2ffb 3c3d 4b82 3f3e
00000290: 2198 00be 67ce a63d 37d9 28be 504a 6b3e
000002a0: 8e7f 81bd 5d46 073f 2dd6 40ba 37e2 70bd
000002b0: a644 86be 5396 133d dacb 9bbe 0577 9bba
000002c0: c63f dfbe f26c 263d fd99 ca3d 3e37 673e
000002d0: b52d 423b c67a dfbe 4ffc 9b3c c864 13be
000002e0: e956 debe ba7f 873c ac84 87bc b50f 2f3e
000002f0: 08d1 483c e699 3abf 77dd 9c3e 0f46 0bbe
00000300: 1975 ab3e b1d1 babe 5993 debd a12d c83c
00000310: eab5 1dbf 0448 e93c 6767 a43e 015e 35be
00000320: cdd1 c13d 2655 663e 8787 28be 7fcb ac3e
00000330: 4b4d 40bd 6dbe 8f3e da4a 3b3e 98a6 00bd
00000340: ba69 8ebd 4606 273e 3737 15be c0ec bfbb
00000350: 47ae 36be 105b 853d dc35 dc3d ceab f63a
00000360: 8c41 16bc 15cf fb3e 6660 27be 02cb 8dbe
00000370: c471 c43d 9501 e73d a400 ebbb 3b91 07bd
00000380: 29a3 62bc a6f7 9bbe 1543 143e 6733 47bd
00000390: 46d9 9ebd c06c 1f3e f1d9 f13e cc7f 343b
000003a0: d30b 883d 4990 853d a5cc c23e f046 45bd
000003b0: a293 7bbd 0953 1a3e 5da5 a23e 734c 693d
000003c0: 6edd 6ebc 862e 92be 8d23 b6be 8625 77be
000003d0: c86e 1abd 3ba2 7c3e 3393 1e3e cd9b 0f3e
000003e0: 03b8 23be 3c50 313d b42d 34be 8f5b 1bbe
000003f0: bff0 dbbd e223 223e 0c8c 593d 375c a23d
0.22277443 -0.52839214 0.24043003 -0.0683665 0.20036 -0.2355935 0.24099675 -0.034182694
0.12505686 0.38636377 -0.04323723 0.669433 0.08332633 0.13957338 0.47709826 0.050596133
-0.14460002 0.2989567 -0.043315645 -0.25194645 0.26990467 0.116814286 0.41946045 -0.13621637
-0.1485947 0.24418376 0.23531504 0.28819782 -0.102570295 0.019007355 -0.30487594 -0.08796019
0.1208675 -0.40227467 0.16552816 -0.20013967 0.09426634 -0.06427833 0.41114426 -0.06649018
0.3433995 -0.021785693 0.18385683 -0.01673622 -0.048665702 0.20224349 0.4575919 0.19005
-0.0650065 -0.20959458 -0.5916936 -0.27126926 -0.07831668 0.18200074 0.015119366 -0.020071821
-0.12608023 0.21932617 -0.2328961 -0.19922294 -0.11561697 0.13616605 0.12882583 -0.04742206
-0.092006706 0.30498335 -0.08632928 -0.65060496 -0.45542473 0.052758478 -0.087835 0.037392452
-0.2199069 -0.2776065 0.034606062 -0.17120193 0.01336447 0.06843891 -0.09772785 0.027680948
-0.24664094 -0.27784938 0.06150846 0.021788893 0.0428085 -0.09431436 0.12573376 0.09970801
-0.3055003 -0.2557364 -0.0094457 -0.22846028 -0.32163534 0.2524699 0.25125933 0.1413462
-0.13375032 0.11118918 0.050568104 0.17512655 -0.031060448 0.048049357 -0.11010227 0.12933952
0.012041449 0.37340426 -0.08489324 0.025172742 -0.0059531773 0.092197604 -0.09628353 0.12415113
-0.10397122 0.093026 0.17854188 0.15820843 0.02426866 -0.4643912 0.06846072 -0.05667635
-0.13449632 -0.05586892 0.063925534 0.17438506 -0.05336659 -0.37362382 0.08491187 -0.07247854
-0.14458975 0.40467322 -0.15165839 -0.80136865 -0.8947573 0.16626966 -0.012727703 0.13451293
-0.5354306 -0.23233788 0.0027528873 -0.08491133 -0.09837098 -0.039293863 -0.14204514 0.13398585
-0.17824374 -0.3872563 0.016463848 0.023791937 -0.06563956 -0.22803803 0.16040558 0.08432973
-0.273815 -0.019581014 -0.11350932 -0.29401803 -0.17031671 0.26686016 0.18207671 0.14265113
-0.14163993 0.055185247 0.046137985 0.18702047 -0.12558033 0.08144837 -0.16489111 0.22977567
-0.06323157 0.5284174 -0.00073561334 -0.058809485 -0.2622425 0.036032032 -0.30428964 -0.0011861032
-0.43603343 0.040631242 0.09892652 0.22579667 0.0029629294 -0.43648356 0.019041209 -0.14393914
-0.43425682 0.016540397 -0.016542755 0.17095836 0.012256868 -0.7289108 0.30637714 -0.13600944
0.33487776 -0.36488107 -0.10867948 0.02443582 -0.61605704 0.028476723 0.3211014 -0.17711641
0.094638444 0.22493419 -0.1645795 0.33749005 -0.046948712 0.2807497 0.18290272 -0.031408876
-0.069537595 0.16310987 -0.14571844 -0.00585708 -0.17839919 0.065115094 0.1075246 0.0018819512
-0.009170901 0.4918143 -0.16345367 -0.27693945 0.095920116 0.112795986 -0.007171707 -0.033097487
-0.013832846 -0.30462378 0.14478715 -0.048633005 -0.07756285 0.15568829 0.4723659 0.0027541993
0.0664288 0.06521661 0.38046756 -0.048163354 -0.06142009 0.15070738 0.31766787 0.056957673
-0.01457916 -0.2855112 -0.35573998 -0.24135408 -0.037703305 0.24671261 0.1548584 0.14024277
-0.15988164 0.043289408 -0.1759556 -0.15171646 -0.10739278 0.15834 0.053112075 0.07927745

model.2.bias f4 [64]
00000000: 387c 9d3e 4b1c abbd 0079 36bc d06d 8d3e
00000010: 5ab3 c63e 3c59 d83e f49c 303b df94 68b9
00000020: f2bd 39be af75 2ebd 7543 1d3e ebbc bb3e
00000030: 1cb6 20be 87a9 d8bc 0fea 8dbd cb91 0bbd
00000040: 3cc3 ea3e 12e6 6dbd 61ed da3e c28c e53e
00000050: 27e4 06be 4507 c13e 8b2b e9bd d0aa db3e
00000060: d76c f43b 3f17 eb3e 695a b63e ef38 28be
00000070: e67e 40be fa35 673e b3b5 103f 197f 77be
00000080: de0a e1bd 9326 7c3e 7320 82be 77d8 8bbd
00000090: a594 81be 4a1d 6fbe 76ed fe3e 623a 073f
000000a0: 84c9 cebc b3e1 ef3e 4020 a43e d175 28ba
000000b0: 72bc 32bd 5224 c83e 8c0a 0f3e d978 82be
000000c0: 2d19 e4bd 91b0 2bbd 8bd9 56be e2e5 3bbe
000000d0: 074b e5bd c27b cc3e 4a17 f2bd e2cb a3bd
000000e0: 20a5 b53e 9008 7cbe 0ad8 ae3e c842 f93e
000000f0: 9a19 a93b 50dc 873e 86a2 e6bd 2db2 893e
0.30758834 -0.08355006 -0.011137247 0.27622843 0.3880871 0.4225558 0.002694902 -0.00022180703
-0.18138865 -0.0425927 0.15357764 0.3666757 -0.15694469 -0.026448024 -0.06929409 -0.034074586
0.45852077 -0.05808074 0.4275923 0.44833952 -0.1317297 0.3770086 -0.11385258 0.42903757
0.007459264 0.45916173 0.35615852 -0.16427968 -0.18798408 0.22579184 0.5652725 -0.24169578
-0.10988401 0.2462409 -0.25415382 -0.06828397 -0.2530872 -0.23351017 0.49790543 0.5282346
-0.025242575 0.46851882 0.32055855 -0.00064262474 -0.043636747 0.3909021 0.13968867 -0.25482824
-0.111376144 -0.041916434 -0.20981424 -0.18349412 -0.11195951 0.3993817 -0.11820848 -0.07997872
0.35477543 -0.24612641 0.341492 0.48683763 0.0051605226 0.26535273 -0.11261468 0.2689375

model.4.weight f4 [1, 64]
00000000: 417c 1b3f b55d 1abe 0416 8bbe 5ffe f13e
00000010: 013f d23e 4d7a d63e 97f1 813d 59cf de3d
00000020: 0fe1 15bd 5344 b2be c157 27bf f649 e03e
00000030: f1fd 85be 9bb3 a1be 1762 d8be b0e4 5abe
00000040: fc97 2c3f 4869 34be e486 c53e 8bdb 9d3e
00000050: bfd6 69be cea5 fd3e 3fbb 99bd 1e08 0d3f
00000060: b8a1 2dbe 41d8 013f 7df0 ce3e 0a0c 50be
00000070: a617 36bd 1fa2 bc3e e613 f23e 90d6 a9be
00000080: 86c5 7dbe bb3c a93e e674 50be bda9 b33d
00000090: c9a9 55be 67ce 62be 06b3 123f 7fc2 d83e
000000a0: a172 073d 02f0 fc3e 4587 ee3e 7ae0 42be
000000b0: 2164 6e3d e8f2 943e 9902 c43e 6b4d 72be
000000c0: 4ece 313d 4066 e3be 56d0 93be 1b32 a8bd
000000d0: e461 b53d 3086 c13e 34bc 363d b1a7 84be
000000e0: 7d49 b73e 0f4e abbe d202 c83e f4da cf3e
000000f0: b267 df3d 02d3 df3e 68b6 f03c 003f 983e
0.6073647 -0.15074809 -0.27165234 0.47264382 0.41063693 0.41890183 0.06344908 0.10879392
-0.036591586 -0.34817752 -0.65368277 0.43806428 -0.26170304 -0.3158234 -0.42262337 -0.213763
0.6741941 -0.17618287 0.38579476 0.3083156 -0.22835825 0.4954056 -0.075064175 0.5509051
-0.16956222 0.507206 0.40417853 -0.20317093 -0.044456147 0.3684244 0.47280806 -0.3317151
-0.2478238 0.33054146 -0.20357093 0.087726094 -0.20865549 -0.22149049 0.5730442 0.4233589
0.033068303 0.4940186 0.46587577 -0.19030944 0.05820096 0.29091573 0.38283232 -0.23662345
0.043409638 -0.44413948 -0.28869885 -0.08212682 0.08856562 0.3779769 0.04461308 -0.25909188
0.35798255 -0.3345799 0.39064652 0.40596735 0.1090845 0.43715674 0.029383853 0.29735565
