trained_models/PPO/Swimmer-v2_actor_250_epochs.pkl (torch, 21855 bytes, 6 tensors)

model.0.weight f4 [64, 8]
-0.37604642 0.6517312 -0.262038 -0.1966481 0.03913811 0.008409888 -0.0071937563 0.08911235
-0.07780559 0.17957616 0.24217083 0.43043005 0.055373646 -7.3067175e-05 -0.26103267 -0.026467549
-0.007998019 -0.3010171 0.33208802 0.097963385 -0.010393185 0.1408225 -0.13381079 -0.04028796
0.20425528 0.32667089 0.31354952 0.007736188 0.34092867 0.025189565 -0.1995812 0.18993212
-0.31107077 0.12299711 0.073109835 -0.117300935 0.11768328 0.03943051 -0.09092149 -0.13985457
0.038275715 0.22559245 -0.39529708 -0.13898832 0.0012251702 -0.1962923 -0.02415473 -0.18346049
-0.2464243 0.098392695 -0.090958685 0.06733214 -0.23374288 -0.10308158 -0.40386462 -0.30175963
0.011486786 -0.12209784 -0.47647154 -0.12122415 -0.25214034 0.059338056 -0.2926989 -0.29016495
0.24972972 0.12982883 -0.19673954 0.7238446 -0.12561737 -0.48135236 0.1814586 0.33838403
0.10079068 -0.15985315 0.44244665 0.42709094 0.17346686 -0.14881907 0.41343167 0.044923805
-0.37017083 -0.15630199 -0.37206793 0.007903491 -0.4694277 0.15611719 0.22128342 -0.2854296
0.29515487 -0.07964637 -0.58061767 0.04956533 0.27840358 -0.18056057 0.20384084 0.2365536
-0.13704105 -0.14729309 0.1691562 0.30043453 -0.047055904 -0.22454855 -0.046609692 0.25104743
-0.03535417 0.08111146 -0.10440021 -0.03222707 0.5345872 -0.27190536 0.0007997254 0.13469595
-0.49343023 0.18724474 0.37394774 -0.12368823 -0.13992563 -0.6012741 0.47129837 -0.10806527
-0.1717492 -0.35826594 0.43991083 -0.4743692 0.08953877 0.115958154 0.13197628 -0.15028328
-0.2950092 -0.08137508 -0.044001374 0.111189745 -0.30501282 -0.36987004 0.09823961 -0.250052
0.11496688 0.3816785 -0.4190571 -0.5602016 0.19829068 0.042360347 -0.3321779 -0.23399931
-0.5721719 0.24135159 0.034796506 0.06997071 -0.31986642 0.12581865 0.29156664 -0.24794771
0.00013934346 -0.37783572 0.56137604 -0.66096073 -0.24428451 -0.31768066 0.18303245 0.016738271
-0.16695401 0.37315786 0.26322365 0.27543104 0.15037338 -0.00078956573 0.014000849 0.088136
-0.087212004 0.042952802 -0.029023295 0.7480711 0.15247841 -0.19352058 -0.18169633 0.1894111
-0.3974024 0.024810046 -0.13365868 -0.12401854 0.21975468 -0.055169657 -0.07019212 0.038621906
-0.06100986 0.36939314 0.15567487 0.2779352 0.21305133 -0.07788822 -0.024355132 0.10619233
-0.1635341 -0.41895694 0.38346627 0.27547845 0.4106091 -0.18815888 0.34364167 -0.12947346
-0.4074148 0.35512072 -0.3961342 0.123855464 0.28707206 0.10392667 0.14782923 -0.31375116
-0.21650821 -0.11533781 0.08198882 -0.14437081 -0.29853684 -0.26658097 0.23510088 -0.23148197
-0.20522918 -0.03539664 -0.51736635 0.77886313 0.18211482 -0.21420953 0.4386858 0.39401084
0.057517625 0.19488274 0.14735875 -0.28603065 -0.23418207 -0.11944086 0.30992654 0.1807662
0.088607326 0.28929296 0.5631771 0.047373466 -0.103470996 0.3348075 -0.06259465 -0.1078548
0.16689555 0.0535495 -0.17278577 0.589086 -0.071666844 -0.018949695 -0.46569237 0.25662616
-0.24172983 0.6539357 0.19200316 -0.20780675 0.03061634 -0.095370926 -0.26954353 -0.08859737
00000000: 2889 c0be dbd7 263f d829 86be 1f5e 49be
00000010: 484f 203d a0c9 093c 9ab9 ebbb 8980 b63d
00000020: 8a58 9fbd d0e2 373e a1fb 773e 5461 dc3e
00000030: 7acf 623d a43b 99b8 13a6 85be 79d2 d8bc
00000040: 200a 03bc ea1e 9abe 7107 aa3e 07a1 c83d
00000050: 2d48 2abc c633 103e b205 09be fd04 25bd
00000060: 4c28 513e 6841 a73e 9089 a03e d97f fd3b
00000070: 348e ae3e 595a ce3c 045f 4cbe 917d 423e
00000080: ab44 9fbe e9e5 fb3d 9cba 953d 793b f0bd
00000090: ee03 f13d e381 213d 0c35 babd 0936 0fbe
000000a0: ffc6 1c3d b501 673e 6164 cabe f452 0ebe
000000b0: e495 a03a d900 49be 24e0 c5bc 11dd 3bbe
000000c0: a756 7cbe 1c82 c93d 8c48 babd 6fe5 893d
000000d0: 4b5a 6fbe 6f1c d3bd 58c7 cebe 3d80 9abe
000000e0: 1333 3c3c 6f0e fabd 14f4 f3be 5e44 f8bd
000000f0: 8a18 81be 760c 733d a1dc 95be 8090 94be
00000100: 26b9 7f3e d9f1 043e 1776 49be e14d 393f
00000110: d7a1 00be d173 f6be 49d0 393e ac40 ad3e
00000120: 586b ce3d 8bb0 23be 5e88 e23e aaab da3e
00000130: 4ca1 313e 0764 18be 51ad d33e 0602 383d
00000140: 0887 bdbe a10d 20be b07f bebe a57d 013c
00000150: d458 f0be 2fdd 1f3e 1f98 623e d423 92be
00000160: 8a1e 973e a31d a3bd 5ca3 14bf 0405 4b3d
00000170: ea8a 8e3e dfe4 38be a7bb 503e 1b3b 723e
00000180: 7d54 0cbe 00d4 16be 4837 2d3e 8ed2 993e
00000190: b1bd 40bd 0ef0 65be cee9 3ebd 4a89 803e
000001a0: 89cf 10bd c41d a63d c7cf d5bd 8800 04bd
000001b0: b5da 083f 2e37 8bbe aaa4 513a bced 093e
000001c0: e3a2 fcbe 16bd 3f3e 1476 bf3e 4150 fdbd
000001d0: aa48 0fbe 19ed 19bf 054e f13e 5351 ddbd
000001e0: 06df 2fbe a26e b7be fe3b e13e 85e0 f2be
000001f0: 1a60 b73d 787b ed3d ca24 073e dce3 19be
00000200: 720b 97be faa7 a6bd c93a 34bd 73b7 e33d
00000210: a42a 9cbe 9b5f bdbe d931 c93d d106 80be
00000220: c173 eb3d 5d6b c33e a78e d6be 5f69 0fbf
00000230: b60c 4b3e 0b82 2d3d 3913 aabe 849d 6fbe
00000240: dc79 12bf df24 773e c886 0e3d ce4c 8f3d
00000250: 88c5 a3be 9bd6 003e 3948 953e 01e6 7dbe
00000260: ba1c 1239 af73 c1be 57b6 0f3f b934 29bf
00000270: b825 7abe 0aa7 a2be dc6c 3b3e b31e 893c
00000280: fef5 2abe 8c0e bf3e 40c5 863e 4c05 8d3e
00000290: 7bfb 193e dcfa 4eba d163 653c a680 b43d
000002a0: 359c b2bd 47ef 2f3d 43c2 edbc 9681 3f3f
000002b0: 4d23 1c3e 422a 46be 9a0e 3abe fcf4 413e
000002c0: 5478 cbbe 703e cb3c d2dd 08be 6ffd fdbd
000002d0: 5f07 613e 94f9 61bd e3c0 8fbd 0132 1e3d
000002e0: 7ae5 79bd 1921 bd3e 3c69 1f3e 864d 8e3e
000002f0: 212a 5a3e dc83 9fbd 6a84 c7bc 5d7b d93d
00000300: 7c75 27be 8681 d6be b155 c43e 830b 8d3e
00000310: 5b3b d23e b9ac 40be cdf1 af3e b194 04be
00000320: ac98 d0be 62d2 b53e 1ad2 cabe efa7 fd3d
00000330: 1cfb 923e 82d7 d43d 8c60 173e fea3 a0be
00000340: 54b4 5dbe 3b36 ecbd c1e9 a73d f1d5 13be
00000350: d2d9 98be 4d7d 88be 49be 703e 9c09 6dbe
00000360: 9927 52be 11fc 10bd 1f72 04bf 9363 473f
00000370: 4f7c 3a3e be59 5bbe 6d9b e03e cabb c93e
00000380: 9a97 6b3d 578f 473e 36e5 163e 9c72 92be
00000390: 6dcd 6fbe 699d f4bd b1ae 9e3e c61a 393e
000003a0: c277 b53d 351e 943e 602c 103f ae0a 423d
000003b0: 9ae8 d3bd e36b ab3e a031 80bd fae2 dcbd
000003c0: abe6 2a3e b856 5b3d c1ee 30be 57ce 163f
000003d0: 11c6 92bd 643c 9bbc 3b6f eebe 8164 833e
000003e0: 0688 77be 5468 273f 7a9c 443e 4bcb 54be
000003f0: 1ecf fa3c d551 c3bd 9c01 8abe 8a72 b5bd

model.0.bias f4 [64]
0.2114828 -0.23931918 0.072244786 0.025568062 -0.30340412 0.29299256 0.30046144 -0.25073564
-0.27785861 -0.13883182 -0.36101013 -0.27604106 -0.2842644 -0.2652218 -0.2897301 -0.025000729
0.239076 0.3564003 -0.061361868 -0.004446377 -0.21041878 0.1854733 -0.32026452 -0.38817048
0.10956362 -0.34624982 0.103066586 0.046516374 -0.0035890362 0.08308212 -0.38574854 0.23656309
-0.1458851 -0.43555716 0.16861297 0.2573077 0.31571457 -0.4200149 0.37844348 0.27411154
0.343792 0.10900248 0.20237727 0.29492232 -0.073542684 -0.33291638 -0.29890937 0.13327415
-0.50677574 -0.15410191 -0.021013537 0.27545992 -0.41487 -0.033681273 -0.2017666 -0.23013274
-0.14905931 0.08839694 -0.02937385 -0.044914883 -0.5098503 -0.42586976 -0.045473117 -0.14004013
00000000: f28e 583e 1610 75be 13f5 933d 1d74 d13c
00000010: c957 9bbe 1f03 963e 15d6 993e 6c60 80be
00000020: 7c43 8ebe ee29 0ebe 52d6 b8be 4155 8dbe
00000030: 1a8b 91be 27cb 87be 8157 94be 54ce ccbc
00000040: 57d0 743e 1a7a b63e 9556 7bbd eab2 91bb
00000050: 0578 57be b6ec 3d3e b6f9 a3be 48be c6be
00000060: e462 e03d a847 b1be 9314 d33d f487 3e3d
00000070: 0936 6bbb f526 aa3d d580 c5be 983d 723e
00000080: e762 15be 5901 dfbe e1a8 2c3e d6bd 833e
00000090: 57a5 a13e 310c d7be 58c3 c13e 5958 8c3e
000000a0: 8105 b03e b13c df3d fd3b 4f3e 0f00 973e
000000b0: 8c9d 96bd 0474 aabe a60a 99be 0579 083e
000000c0: 0ebc 01bf e4cc 1dbe 9524 acbc 1509 8d3e
000000d0: d769 d4be 60f5 09bd e79b 4ebe eba7 6bbe
000000e0: 01a3 18be 7409 b53d 6ea1 f0bc abf8 37bd
000000f0: 8d85 02bf 9a0b dabe 0542 3abd ae66 0fbe

model.2.weight f4 [64, 64]
-0.070139386 -0.10856464 0.045311492 -0.11610049 -0.11094179 -0.120821364 -0.054194983 -0.096914686
-0.027826548 -0.13545212 -0.03341587 -0.12240288 -0.03070943 -0.07858685 0.012128721 -0.042142596
0.082160674 0.088724874 0.05354143 0.02649748 -0.053475697 0.0747507 -0.09177266 0.07056659
-0.0074152406 0.060266852 -0.01694241 -0.0012955938 -0.10969545 -0.06427121 -0.12073487 0.022819597
0.008254379 -0.09597564 -0.07250239 0.0299342 -0.00781574 0.06475619 -0.074100666 0.06591851
-0.048389662 0.09090896 -0.09988521 -0.057003763 0.07339211 -0.07348931 0.014529902 -0.09439468
-0.03139388 0.043510552 0.045403495 -0.15439758 -0.060373582 -0.12196014 0.09713279 -0.03804203
-0.03631853 -0.121705785 -0.09753407 -0.056843802 -0.07221 0.035902075 -0.07509945 0.09709444
0.035543073 0.13526058 -0.0020214454 -0.100242116 0.042158723 -0.11821702 0.10692763 0.19447388
0.20487791 0.005647871 -0.020803135 0.17712185 0.12530117 -0.124491304 0.007040312 -0.28884348
0.16723901 0.16502692 0.47007453 0.012304807 -0.04347355 0.092746876 0.077093475 0.027040543
0.011619529 0.07619719 -0.034958784 0.14789115 0.13514042 -0.04043478 -0.02855229 0.077625245
-0.08844825 -0.014298827 -0.016285937 0.34759462 -0.015401971 0.06899916 -0.018672025 -0.1838731
0.19313614 0.13104379 0.14719547 0.10645889 0.09712821 -0.09817018 -0.021340488 0.09207272
0.044444416 0.15833887 -0.11101998 -0.009951292 -0.018979257 0.10367842 0.13029863 -0.049079474
-0.06931254 0.067613825 -0.22554058 0.11992817 0.12129314 0.004944684 0.1817915 -0.10275585
-0.017056251 -0.016474416 -0.11367487 0.10351957 -0.012933996 -0.1199478 -0.13600026 -0.047525663
-0.07566196 0.010584113 0.080969386 -0.059511963 0.09965387 0.03297215 -0.06028285 -0.10294307
0.03438511 -0.042986102 -0.061982017 0.07548599 0.13468549 -0.007988331 0.13103391 0.11464823
-0.11489842 0.12789446 0.037299436 0.0051031355 -0.115179054 -0.07423572 -0.08307301 0.0068599605
0.00070626073 0.029817043 -0.12773032 -0.06715951 0.07633017 -0.123167954 0.07741489 -0.13543104
-0.08069099 -0.10038379 0.09343254 0.052739736 -0.029079165 -0.02542274 0.075351186 -0.0036234192
-0.053990956 -0.03920041 -0.10208957 -0.1260885 -0.053868085 -0.1457475 -0.06350732 0.053162783
0.043279074 -0.08888976 0.07710393 0.0784653 -0.050191432 -0.0091371415 -0.048686877 0.037181
-0.33566514 0.13933428 0.1473183 0.033051282 0.047336638 0.11350234 0.034167938 -0.30106157
0.19519459 0.19758353 -0.25953066 0.12787975 -0.028170822 -0.12699564 0.06742023 -0.2348204
-0.4385937 -0.33900362 -0.23128949 -0.9770778 0.039215617 0.25110036 -0.028611043 0.075284384
-0.10117558 0.054240767 -0.23870863 0.398608 -0.613757 0.19116268 0.29091513 -0.04983099
-0.18651246 0.15163483 0.094341785 -0.5612477 0.1142311 -0.052196644 0.042544723 -0.0076382733
-0.5932944 0.3342713 -0.074595295 -0.042577766 -0.489606 0.014699149 0.10064265 -0.03528742
-0.055954255 0.07869903 0.07782657 -0.17311223 0.13050653 0.21901315 0.30848542 0.24957857
-0.29022944 -0.069303595 0.09754777 -0.3938503 0.062702745 -0.09791375 0.15521602 0.3013357
00000000: 3da5 8fbd 2357 debd 8b98 393d 18c6 edbd
00000010: 7335 e3bd 3171 f7bd 8ffb 5dbd 357b c6bd
00000020: 80f4 e3bc f6b3 0abe 14df 08bd 5cae fabd
00000030: 5892 fbbc 24f2 a0bd 8bb7 463c b79d 2cbd
00000040: db43 a83d 63b5 b53d 424e 5b3d 3e11 d93c
00000050: 5509 5bbd e516 993d 4ef3 bbbd 3785 903d
00000060: 8cfb f2bb 60da 763d cfca 8abc ead0 a9ba
00000070: 02a8 e0bd a0a0 83bd d843 f7bd 2af0 ba3c
00000080: 603d 073c e08e c4bd 227c 94bd 9138 f53c
00000090: 970d 00bc e59e 843d 17c2 97bd 4900 873d
000000a0: 3d34 46bd 7a2e ba3d 9e90 ccbd c77c 69bd
000000b0: 9a4e 963d 9081 96bd d30e 6e3c ff51 c1bd
000000c0: de96 00bd 1f38 323d 04f9 393d 661a 1ebe
000000d0: 4a4a 77bd 3dc6 f9bd 8eed c63d f6d1 1bbd
000000e0: bdc2 14bd e240 f9bd f1bf c7bd 0cd5 68bd
000000f0: d6e2 93bd 0e0e 133d becd 99bd 73d9 c63d
00000100: 9d95 113d c081 0a3e 3a7a 04bb bd4b cdbd
00000110: a0ae 2c3d c41b f2bd e0fc da3d 2924 473e
00000120: 84cb 513e c711 b93b 566b aabc 6e5f 353e
00000130: f34e 003e 4cf5 febd 6bb2 e63b 4be3 93be
00000140: b440 2b3e d1fc 283e 9cad f03e 1a9a 493c
00000150: 5211 32bd 13f2 bd3d 2fe3 9d3d 2184 dd3c
00000160: d65f 3e3c 460d 9c3d f130 0fbd c770 173e
00000170: 4062 0a3e f19e 25bd 7ee6 e9bc fcf9 9e3d
00000180: 5b24 b5bd a145 6abc 166a 85bc ecf7 b13e
00000190: 8c58 7cbc 6e4f 8d3d 13f6 98bc 3b49 3cbe
000001a0: 7bc5 453e 5830 063e 69ba 163e 1e07 da3d
000001b0: 28eb c63d 730d c9bd 3fd2 aebc 9f90 bc3d
000001c0: 590b 363d 9623 223e 715e e3bd be0a 23bc
000001d0: 637a 9bbc 5a55 d43d 016d 053e 8f07 49bd
000001e0: bcf3 8dbd 1e79 8a3d 1cf4 66be e79c f53d
000001f0: 8a68 f83d 0407 a23b 8d27 3a3e a971 d2bd
00000200: 8db9 8bbc 5bf5 86bc 5fce e8bd 1102 d43d
00000210: 1ce9 53bc 31a7 f5bd a743 0bbe 45aa 42bd
00000220: a8f4 9abd fd68 2d3c 47d3 a53d d1c2 73bd
00000230: 5417 cc3d ce0d 073d 26eb 76bd d1d3 d2bd
00000240: 67d7 0c3d 3212 30bd dbe0 7dbd 6698 9a3d
00000250: feea 093e 7de1 02bc c12d 063e b1cc ea3d
00000260: dd4f ebbd c4f6 023e 4bc7 183d 3438 a73b
00000270: ffe2 ebbd e608 98bd 2f22 aabd 85c9 e03b
00000280: 5b24 393a df42 f43c bdcb 02be ed8a 89bd
00000290: fe52 9c3d 7b3f fcbd b38b 9e3d 6fae 0abe
000002a0: 5141 a5bd 0496 cdbd 8f59 bf3d 9f05 583d
000002b0: 6e37 eebc 5a43 d0bc b951 9a3d e376 6dbb
000002c0: 9f25 5dbd 9c90 20bd 5614 d1bd 581d 01be
000002d0: c8a4 5cbd d53e 15be 2010 82bd 38c1 593d
000002e0: 6645 313d d60b b6bd aae8 9d3d 6ab2 a03d
000002f0: 8895 4dbd f3b3 15bc e46b 47bd 1b4b 183d
00000300: 4ddc abbe a5ad 0e3e 9cda 163e c860 073d
00000310: 10e4 413d ea73 e83d aef3 0b3d be24 9abe
00000320: 17e1 473e 5653 4a3e 34e1 84be e9f2 023e
00000330: 7fc6 e6bc 250b 02be 9e13 8a3d c274 70be
00000340: 5a8f e0be e291 adbe 27d7 6cbe c521 7abf
00000350: 8ea0 203d 3a90 803e b561 eabc b32e 9a3d
00000360: 2435 cfbd 912b 5e3d 0970 74be 5916 cc3e
00000370: 2e1f 1dbf 26c0 433e d4f2 943e 951b 4cbd
00000380: 1ffd 3ebe 2946 1b3e 4436 c13d eead 0fbf
00000390: fff1 e93d 26cc 55bd 6043 2e3d 7b4a fabb
000003a0: 24e2 17bf 9c25 ab3e 6bc5 98bd 0666 2ebd
000003b0: a3ad fabe b3d4 703c bc1d ce3d 8b89 10bd
000003c0: 4a30 65bd f52c a13d 8963 9f3d 5544 31be
000003d0: 81a3 053e fc44 603e cdf1 9d3e 8691 7f3e
000003e0: f498 94be 0bef 8dbd 20c7 c73d bfa6 c9be
000003f0: 4c6a 803d 0187 c8bd f3f0 1e3e ac48 9a3e

model.2.bias f4 [64]
-0.16878137 0.0032341615 -0.040292673 -0.052563973 -0.009656259 -0.09568464 0.009328304 -0.055255346
0.005006626 0.1941635 0.07403571 -0.14291383 -0.11020607 -0.14617212 -0.023111872 -0.14599922
-0.05349355 -0.087562636 0.12769371 0.0087706195 0.07013348 0.10461166 0.22971615 0.17789637
0.039093047 -0.0100586 0.0681399 -0.037250318 0.1808869 0.1267004 0.11383366 0.06676215
-0.106201544 0.08542376 0.14712285 -0.10788632 0.056297798 -0.0025957657 0.041798238 -0.036573727
-0.028878313 -0.041839257 0.16159019 0.0940836 0.13058037 -0.003856866 -0.0155385295 0.0040206383
0.047488283 0.061582256 -0.07622664 0.107379615 0.0040725954 0.27964985 0.13596609 -0.054761805
-0.12089954 0.20367204 -0.08939514 -0.03213615 0.16906668 -0.041894823 0.032945707 -0.15807831
00000000: 06d5 2cbe 3af4 533b ee09 25bd 524d 57bd
00000010: 4935 1ebc 4ff6 c3bd bed5 183c 6e53 62bd
00000020: 9f0e a43b ccd2 463e 09a0 973d 0158 12be
00000030: b8b3 e1bd 25ae 15be 1c55 bdbc d280 15be
00000040: 0d1c 5bbd 0a54 b3bd 24c2 023e a5b2 0f3c
00000050: 24a2 8f3d a33e d63d b63a 6b3e 772a 363e
00000060: 0820 203d d4cc 24bc ef8c 8b3d ca93 18bd
00000070: 6a3a 393e c0bd 013e 9f21 e93d 98ba 883d
00000080: 3280 d9bd a7f2 ae3d 5fa7 163e 81f3 dcbd
00000090: 8598 663d b91d 2abb a134 2b3d 55ce 15bd
000000a0: 3692 ecbc a45f 2bbd e677 253e e7ae c03d
000000b0: dcb6 053e 79c3 7cbb 5195 7ebc 8fbf 833b
000000c0: 1383 423d ad3d 7c3d b61c 9cbd d8e9 db3d
000000d0: 6873 853b 442e 8f3e b23a 0b3e ea4d 60bd
000000e0: 2e9a f7bd 678f 503e cd14 b7bd 32a1 03bd
000000f0: d11f 2d3e e899 2bbd 14f2 063d 48df 21be

model.4.weight f4 [2, 64]
-0.0776596 -0.083286814 0.104656644 -0.124480955 0.022600012 0.04118252 -0.049498897 -0.018627824
-0.04896032 -0.1684285 -0.12547824 0.06514743 0.027033513 -0.107455 0.23633228 0.018022478
-0.065280475 0.053665664 0.29464743 0.07889859 0.33910942 -0.081332475 -0.094689295 -0.18089004
-0.14535393 0.048003066 -0.1407186 0.012871384 -0.12977651 0.100713424 -0.2084039 -0.026299363
0.015768457 -0.021761207 -0.036953457 -0.038286183 -0.04356982 -0.07096709 -0.0012462832 -0.030775558
-0.039783522 -0.120994866 -0.041076995 -0.15832087 -0.024593564 -0.05368993 -0.12079758 -0.018792832
-0.009704895 -0.11879837 -0.044855814 -0.13421656 -0.13905165 -0.0747549 -0.0366459 0.015460036
0.07462795 0.0043826224 -0.066768244 -0.11033483 -0.09945288 -0.0191877 0.052935056 -0.035837516
-0.008628512 0.04963006 -0.04925288 -0.42296815 -0.057080455 0.225239 0.16192386 0.056581672
0.024288386 0.13239667 -0.07028821 0.08882677 0.09911142 0.10478963 0.08787078 -0.039396204
0.057481907 -0.025345141 -0.011313232 -0.049143936 -0.079615586 -0.09286028 0.1857854 0.05895205
-0.12086371 0.063109875 -0.19059655 -0.29002222 -0.026374647 0.35843003 -0.049612448 -0.42740157
0.061680973 -0.032995358 0.16902877 -0.06387341 0.10314551 -0.028062819 0.2537492 -0.014988744
-0.062839925 0.015544548 0.08886962 -0.087085746 0.23507856 0.012991209 -0.022838078 -0.13901158
-0.3531074 -0.5466461 0.017976517 -0.06600329 -0.07048236 0.5815981 0.2333641 0.013606947
0.05850195 0.21516703 -0.18630128 -0.069395706 -0.01218651 -0.06627519 0.013836031 -0.0213195
00000000: ff0b 9fbd 4792 aabd 3956 d63d dfef febd
00000010: a923 b93c 01af 283d 5bbf 4abd 6199 98bc
00000020: 9e8a 48bd 8578 2cbe 5e7d 00be 046c 853d
00000030: 6375 dd3c 5e11 dcbd 1701 723e e0a3 933c
00000040: c5b1 85bd 87d0 5b3d 07dc 963e 9595 a13d
00000050: c09f ad3e a491 a6bd 76ec c1bd 3d3b 39be
00000060: a9d7 14be dd9e 443d 8918 10be 7fe2 523c
00000070: 22e4 04be d742 ce3d d567 55be c371 d7bc
00000080: da2c 813c 8f44 b2bc 825c 17bd f9d1 1cbd
00000090: 4476 32bd 3257 91bd 535a a3ba 061d fcbc
000000a0: 0cf4 22bd 28cc f7bd 5a40 28bd de1e 22be
000000b0: 7178 c9bc f9e9 5bbd b964 f7bd 6df3 99bc
000000c0: 4801 1fbc 8f4c f3bd bbba 37bd 1170 09be
000000d0: 8e63 0ebe 1919 99bd 031a 16bd 174c 7d3c
000000e0: 8ad6 983d 1a9c 8f3b cabd 88bd 3af7 e1bd
000000f0: f4ad cbbd 862f 9dbc 6ed2 583d 5cca 12bd
00000100: 9a5e 0dbc e448 4b3d 63bd 49bd 488f d8be
00000110: 32cd 69bd 0da5 663e 5ecf 253e 2fc2 673d
00000120: 70f8 c63c fe92 073e 44f3 8fbd cfea b53d
00000130: eefa ca3d f29b d63d 98f5 b33d ea5d 21bd
00000140: 2672 6b3d 9da0 cfbc 225b 39bc 274b 49bd
00000150: 7f0d a3bd 882d bebd 873e 3e3e b477 713d
00000160: 6587 f7bd c03f 813d be2b 43be cb7d 94be
00000170: a50f d8bc 2484 b73e 6c36 4bbd 61d4 dabe
00000180: 30a5 7c3d 2426 07bd e115 2d3e 10d0 82bd
00000190: f43d d33d ffe3 e5bc 6aeb 813e 5993 75bc
000001a0: 38b2 80bd 8fae 7e3c 4601 b63d 035a b2bd
000001b0: 6fb8 703e 14d9 543c ec16 bbbc 0d59 0ebe
000001c0: 7eca b4be 00f1 0bbf 7d43 933c bc2c 87bd
000001d0: 0e59 90bd 9de3 143f 00f7 6e3e acef 5e3c
000001e0: be9f 6f3d bf54 5c3e c3c5 3ebe 561f 8ebd
000001f0: eda9 47bc 49bb 87bd 85b0 623c 3ba6 aebc

model.4.bias f4 [2]
-0.2959547 0.08665922
00000000: 6087 97be 647a b13d
