trained_models/PPO/Swimmer-v2_actor_250_epochs.pkl (torch, 21855 bytes, 6 tensors)

model.0.weight f4 [64, 8]
-0.1864991 -0.3911978 0.3530188 -0.10339513 0.32569048 -0.22385527 0.2490663 -0.038176525
0.53421783 -0.45227897 0.16447516 -0.3952899 -0.18600847 -0.07941287 0.29201585 -0.23290576
0.091218 -0.47110057 -0.35906062 0.31032804 0.2716924 -0.14369856 0.019885464 -0.21717864
0.04165154 -0.21529378 0.47255751 -0.3874836 -0.3752223 -0.17103772 -0.22476457 0.0017930497
-0.026978176 -0.4092453 0.26163414 0.019542646 -0.24592142 0.17835829 -0.16549788 -0.17791604
0.19789268 0.37049004 -0.4925183 -0.20108573 -0.061388027 -0.31639478 0.26966688 0.4465133
0.32429996 -0.077551164 0.26256076 0.028697649 0.103024736 0.3069752 0.080353476 -0.055271372
0.2876932 0.085947394 0.031085877 -0.18530451 0.2395226 -0.048898127 -0.032785952 0.07832983
0.5938771 -0.37305003 -0.013118339 -0.5040403 0.48647222 0.047845703 0.082913116 -0.260157
0.058943495 -0.41830304 0.24560735 -0.3266942 -0.29683518 0.21713783 0.16840474 0.014898551
0.005571871 -0.01925206 0.06326513 -0.0010688872 0.04810983 0.034600917 -0.006052934 0.015160547
0.34959167 0.46610957 0.0077835238 -0.931868 -0.42312658 0.5592289 -0.5272165 0.2649809
0.027427739 -0.20694801 -0.42127892 -0.15987776 0.3167989 0.51592404 -0.10048639 -0.17463404
0.40212503 0.24706528 0.51526684 0.17872572 -0.15494351 -0.2598067 -0.19222905 0.0022366024
0.20621555 0.427896 -0.5863855 -0.5259315 0.5073047 -0.08619109 -0.30394205 0.13331895
-0.10368896 -0.49615097 0.28543764 -0.25107783 -0.32228932 -0.18320765 0.06682109 0.3868558
-0.15388373 -0.36351612 0.15370673 -0.1181026 -0.10648978 0.35873455 0.27001056 0.10958936
0.3889757 -0.32053405 0.13072927 -0.5542034 -0.35436112 -0.2063817 0.22143416 -0.1838211
0.1288842 0.06464222 -0.23657994 0.19409361 -0.29849532 -0.10295157 0.10534967 -0.005541352
0.40395975 -0.0896913 -0.1666746 -0.21105091 -0.232262 -0.17917807 -0.051150307 -0.113365464
-0.0023530875 0.21886897 0.2258504 -0.68766814 -0.70631427 0.032830693 0.14432277 -0.02978611
-0.4006427 -0.29380062 0.44233063 0.07620093 -0.16981044 -0.0192816 0.20655756 0.04403347
0.10028442 -0.014570344 0.43354762 1.0152917 -0.1659546 0.34497395 -0.2936538 -0.43938932
-0.2607789 0.23066281 0.033358634 -0.11463723 0.21279494 -0.08774196 -0.15060143 -0.13034825
0.053758565 -0.29295614 -0.044033524 0.07253537 0.142241 0.02206058 0.12819827 -0.07359332
0.29958278 -0.28509754 0.3643253 0.009503293 0.0579689 0.24741413 -0.13291357 -0.19078171
0.12458582 0.09950053 0.26711953 0.31460837 -0.2800736 0.45745796 0.061429024 -0.45979115
-0.104484454 -0.19630627 0.5156158 -0.14043896 -0.72240186 0.12008419 -0.21853219 0.1767226
-0.087431245 -0.26206765 -0.15574726 0.25804907 0.025516553 0.273947 0.19896775 0.051098008
0.26520106 0.10364912 -0.50769734 -0.46990445 -0.11084242 0.19721386 -0.25356466 -0.101859815
-0.0060207513 -0.094976276 0.16132165 -0.19725874 0.108978875 0.099432066 0.08656902 0.08586826
0.191303 0.22504745 0.34503987 0.67216784 -0.58138674 0.6174103 -0.5755194 -0.5956157
00000000: 9ff9 3ebe 144b c8be e1be b43e d3c0 d3bd
00000010: e7c0 a63e 513a 65be 3c0b 7f3e fd5e 1cbd
00000020: 80c2 083f 1c91 e7be 2d6c 283e 7063 cabe
00000030: 0179 3ebe 37a3 a2bd 1a83 953e d97e 6ebe
00000040: 81d0 ba3d 1834 f1be cbd6 b7be 51e3 9e3e
00000050: 441b 8b3e b725 13be d7e6 a23c 1464 5ebe
00000060: ce9a 2a3d f975 5cbe 0ff3 f13e 4064 c6be
00000070: 231d c0be 8324 2fbe af28 66be c404 eb3a
00000080: 5601 ddbc 9a88 d1be e9f4 853e e617 a03c
00000090: d3d2 7bbe 8ea3 363e 4778 29be 9f2f 36be
000000a0: 61a4 4a3e dfb0 bd3e 5c2b fcbe 6be9 4dbe
000000b0: 0372 7bbd 7ffe a1be c711 8a3e 649d e43e
000000c0: a50a a63e 25d3 9ebd 5d6e 863e 5517 eb3c
000000d0: a2fe d23d da2b 9d3e 5d90 a43d 3c64 62bd
000000e0: 864c 933e 3005 b03d cfa7 fe3c 77c0 3dbe
000000f0: 6a45 753e 6749 48bd 904a 06bd 646b a03d
00000100: 5408 183f 6a00 bfbe 4dee 56bc c908 01bf
00000110: e312 f93e dbf9 433d 5ace a93d 4c33 85be
00000120: bc6e 713d d12b d6be 7e80 7b3e 7644 a7be
00000130: c8fa 97be 6159 5e3e 4b72 2c3e 0d19 743c
00000140: 3e94 b63b 7fb6 9dbc 2691 813d e719 8cba
00000150: d00e 453d b1b9 0d3d b157 c6bb f163 783c
00000160: aefd b23e eaa5 ee3e ee0c ff3b e78e 6ebf
00000170: 0ca4 d8be a029 0f3f a9f7 06bf 94ab 873e
00000180: 23b0 e03c 2eea 53be dfb1 d7be ffb6 23be
00000190: 7733 a23e 9913 043f cfcb cdbd 44d3 32be
000001a0: 55e3 cd3e aefe 7c3e 87e8 033f e003 373e
000001b0: 83a9 1ebe 6205 85be b1d7 44be f693 123b
000001c0: 2b2a 533e 2f15 db3e 5c1d 16bf 72a3 06bf
000001d0: b9de 013f f484 b0bd 4b9e 9bbe c384 083e
000001e0: e15a d4bd 8007 febe e224 923e 468d 80be
000001f0: 1b03 a5be c99a 3bbe 7fd9 883d f711 c63e
00000200: b293 1dbe c91e babe 4c65 1d3e c7df f1bd
00000210: 5017 dabd 0eac b73e d33e 8a3e 6370 e03d
00000220: d327 c73e 0a1d a4be e5dd 053e 46e0 0dbf
00000230: d26e b5be b955 53be a3bf 623e 993b 3cbe
00000240: 38fa 033e 2463 843d 0342 72be 7ac0 463e
00000250: 61d4 98be 46d8 d2bd 91c1 d73d 3b94 b5bb
00000260: d0d3 ce3e 13b0 b7bd bfac 2abe bb1d 58be
00000270: 17d6 6dbe 757a 37be fc82 51bd 272c e8bd
00000280: 4236 1abb 301f 603e 5445 673e 050b 30bf
00000290: 03d1 34bf 7a79 063d 59c9 133e 0002 f4bc
000002a0: 0a21 cdbe 096d 96be 2979 e23e 3c0f 9c3d
000002b0: cae2 2dbe 72f4 9dbc d383 533e 715c 343d
000002c0: eb61 cd3d 74b8 6ebc f4f9 dd3e 14f5 813f
000002d0: 01f0 29be 6da0 b03e ca59 96be a3f7 e0be
000002e0: d084 85be df32 6c3e 10a3 083d edc6 eabd
000002f0: ebe6 593e 0fb2 b3bd 4337 1abe 037a 05be
00000300: f131 5c3d 59fe 95be 7f5c 34bd 6d8d 943d
00000310: a0a7 113e 64b8 b43c 6846 033e 18b8 96bd
00000320: ea62 993e 4ef8 91be d988 ba3e b3b3 1b3c
00000330: cc70 6d3d 215a 7d3e 7f1a 08be 485c 43be
00000340: da26 ff3d efc6 cb3d e4c3 883e 5914 a13e
00000350: cf65 8fbe ee37 ea3e 009d 7b3d bf69 ebbe
00000360: f2fb d5bd 8304 49be 66ff 033f 3bcf 0fbe
00000370: 54ef 38bf b3ee f53d e7c6 5fbe c5f6 343e
00000380: 270f b3bd bb2d 86be 367c 1fbe 021f 843e
00000390: 1708 d13c c842 8c3e 34be 4b3e 254c 513d
000003a0: 6fc8 873e fd45 d43d 74f8 01bf 5197 f0be
000003b0: 5a01 e3bd 6ef2 493e 3ad3 81be e19b d0bd
000003c0: b949 c5bb ec82 c2bd 8131 253e 32fe 49be
000003d0: 5130 df3d 0aa3 cb3d 194b b13d b3db af3d
000003e0: efe4 433e d772 663e 11a9 b03e 3113 2c3f
000003f0: c3d5 14bf 9a0e 1e3f 3d55 13bf 457a 18bf

model.0.bias f4 [64]
0.16152653 0.22193769 0.28724316 0.35659048 -0.36611566 -0.08028075 -0.22692078 -0.32293466
0.591388 -0.2630356 -0.19369186 -0.07921121 -0.3275695 -0.38935536 -0.07008438 0.13298051
-0.3598241 -0.35767373 -0.3396076 -0.5931117 -0.51869017 -0.19064936 -0.20213272 -0.55071664
0.16049176 -0.15440705 -0.08874635 -0.3177377 -0.45533314 -0.12800942 -0.095170796 -0.25617072
-0.47397014 0.32237566 0.3672277 -0.024506567 -0.10690544 0.292576 -0.2745344 0.14235845
0.31227404 -0.19611105 -0.14561613 -0.34224448 -0.08240601 -0.33730546 -0.22717871 0.32524052
0.2082917 -0.31945142 -0.020300932 -0.01712499 -0.09086028 0.30514708 -0.23890641 -0.21777965
-0.20725237 0.06207324 -0.02619723 0.2628582 0.44475195 0.094194636 -0.42378172 -0.36108246
00000000: 3667 253e a243 633e 8911 933e 0793 b63e
00000010: 8373 bbbe 3c6a a4bd ec5d 68be b157 a5be
00000020: 3465 173f 9aac 86be 2957 46be 7d39 a2bd
00000030: 31b7 a7be 9659 c7be 6688 8fbd 0b2c 083e
00000040: dd3a b8be 0321 b7be 0ce1 adbe 2bd6 17bf
00000050: e1c8 04bf 9639 43be e1fb 4ebe c4fb 0cbf
00000060: f457 243e e21c 1ebe a5c0 b5bd 84ae a2be
00000070: 6d21 e9be e714 03be e8e8 c2bd cf28 83be
00000080: 37ac f2be 6c0e a53e 4505 bc3e ffc1 c8bc
00000090: 3df1 dabd 85cc 953e c68f 8cbe 6ac6 113e
000000a0: 62e2 9f3e 56d1 48be 651c 15be ab3a afbe
000000b0: 7bc4 a8bd 4db3 acbe 89a1 68be ed85 a63e
000000c0: 6b4a 553e 238f a3be 244e a6bc b549 8cbc
000000d0: f414 babd 3d3c 9c3e e2a3 74be a101 5fbe
000000e0: f739 54be 8240 7e3d 939b d6bc 5a95 863e
000000f0: 87b6 e33e 1ee9 c03d ebf9 d8be cddf b8be

model.2.weight f4 [64, 64]
-0.03142919 0.15964341 0.36057052 0.27963105 0.07345674 -0.25604483 0.13663134 -0.46196336
0.40825537 -0.06580614 -0.07344593 -0.505873 -0.051036518 0.8679356 -0.6866062 0.091333866
0.083159685 -0.04998426 -0.026863819 -0.17667322 0.33504173 0.12254372 -0.39822316 0.09980293
0.02022308 0.1136417 -0.15999791 0.41777438 -0.051570684 -0.2683641 0.09722607 -0.24736097
0.018027967 0.2215649 0.23543732 0.26032147 0.0041484917 -0.020053927 0.05815513 -0.05405505
0.13594319 -0.058712397 -0.1001589 -0.2082566 0.079711854 -0.23073015 -0.07579033 0.017193267
0.4817164 -0.059142914 -0.20318635 0.050623395 -0.2156687 0.08000516 -0.024479514 0.1944978
0.055873457 0.04346626 0.04840783 0.31716213 0.40597647 -0.107420005 -0.026957355 -0.08268646
0.020243937 -0.0062755356 -0.035655856 -0.063508585 0.026567359 -0.2519364 -0.03839593 -0.038220897
0.018951232 -0.101871066 -0.09794568 0.001784807 -0.09009175 -0.008093744 -0.112548985 -0.036186658
-0.08068393 -0.017080924 0.00027541904 -0.036628824 -0.06973919 -0.20037925 -0.2084189 -0.10357414
-0.013510556 0.040256996 0.0025623797 -0.14268935 -0.030875657 0.05373049 -0.03711869 0.01838006
0.1194886 -0.06761987 -0.1890994 0.015667936 -0.22726667 0.00736864 -0.067755125 -0.038959138
-0.0076783025 0.029613767 -0.032394435 -0.24123497 -0.17133902 0.03213425 -0.16337249 -0.02513529
-0.42981067 -0.050860938 -0.16802423 -0.06694396 0.08375618 -0.013984998 0.0082943905 -0.14191747
-0.052458122 0.0076437644 -0.27179757 0.030247679 0.022127224 -0.11103522 -0.09959676 0.04276672
-0.12709245 -0.05398077 -0.12211394 -0.04217909 -0.11451634 -0.12248028 0.060018916 0.14554343
0.14107862 0.05549175 0.020050867 -0.23821317 0.015624266 0.034830738 0.099659726 -0.24357936
-0.07054853 0.029262817 0.098454766 0.13186617 -0.43189403 -0.24669768 -0.09206167 0.099115975
-0.16249302 0.04090179 -0.030739449 -0.42975405 -0.048381887 -0.4974052 -0.08745875 -0.30120686
0.008646098 -0.079539575 0.20006703 0.21806256 -0.17714652 -0.071619906 -0.27699363 -0.105551444
-0.049399897 0.19625391 -0.0007784936 0.04693735 0.18066356 0.048322085 -0.086157106 -0.16598408
0.1358304 0.09202333 0.074815646 -0.18624148 -0.3154929 -0.03238923 0.06521822 0.11978976
-0.17936686 0.11047093 0.26052585 -0.0361859 -0.007858325 0.06906912 -0.19464983 0.0039562876
0.20057288 0.3154986 0.35486123 0.04479527 -0.06021703 -0.07556352 -0.030770907 0.1545062
0.4219983 0.051516574 0.020016298 -0.18349491 -0.37509996 0.11974058 -0.3266172 0.24189278
0.010128717 0.06952222 -0.035054423 0.00755672 -0.16057993 0.027336642 0.038721364 0.026016384
0.02410444 0.06633294 0.1580396 0.061382823 0.061616294 -0.2817331 0.031727985 -0.0341707
0.10061761 0.23445074 0.2529657 -0.16863377 -0.087636605 0.09186327 -0.09334693 0.17616229
0.18465076 -0.0074497317 0.055250805 -0.13973986 -0.10441184 0.08021197 -0.037388235 0.35933042
-0.0068125427 0.038205743 -0.24425142 -0.16989326 0.07107102 0.2850604 -0.19293341 -0.047570795
-0.18224038 -0.03219001 0.06832886 0.07658982 0.3958173 0.10642698 -0.08150131 -0.030402167
00000000: e5bb 00bd 9079 233e b39c b83e cd2b 8f3e
00000010: 7d70 963d 4f18 83be 16e9 0b3e 7686 ecbe
00000020: d906 d13e 5fc5 86bd d26a 96bd e580 01bf
00000030: ab0b 51bd 0731 5e3f 6dc5 2fbf 400d bb3d
00000040: a04f aa3d 4cbc 4cbd 8311 dcbc d3e9 34be
00000050: 978a ab3e 34f8 fa3d e8e3 cbbe 7b65 cc3d
00000060: dfaa a53c fbbc e83d 7ed6 23be 86e6 d53e
00000070: c83b 53bd 0567 89be 761e c73d 324c 7dbe
00000080: 63af 933c e9e1 623e 7b16 713e db48 853e
00000090: 12f0 873b 2248 a4bc 1334 6e3d d468 5dbd
000000a0: b134 0b3e 697c 70bd 1c20 cdbd 3841 55be
000000b0: f83f a33d 8644 6cbe f637 9bbd e5d8 8c3c
000000c0: 88a3 f63e d73f 72bd 1510 50be 7a5a 4f3d
000000d0: 41d8 5cbe bfd9 a33d 4389 c8bc 6e2a 473e
000000e0: 91db 643d ad09 323d 4a47 463d 1363 a23e
000000f0: 26dc cf3e 05ff dbbd acd5 dcbc 8557 a9bd
00000100: 9dd6 a53c 02a3 cdbb e00b 12bd ca10 82bd
00000110: caa3 d93c cffd 80be 0d45 1dbd 848d 1cbd
00000120: 9d3f 9b3c c7a1 d0bd bf97 c8bd 2ff0 e93a
00000130: 0682 b8bd 9f9b 04bc 1580 e6bd 7638 14bd
00000140: 9e3d a5bd 4bed 8bbc 1e66 9039 1b08 16bd
00000150: 6cd3 8ebd 3830 4dbe c46b 55be ae1e d4bd
00000160: 615b 5dbc 85e4 243d 99ed 273b 281d 12be
00000170: f2ee fcbc 8114 5c3d c409 18bd c891 963c
00000180: 70b6 f43d 497c 8abd 46a3 41be 0b5a 803c
00000190: 98b8 68be a274 f13b 33c3 8abd 9e93 1fbd
000001a0: 459a fbbb 9298 f23c 07b0 04bd 4d06 77be
000001b0: 7f73 2fbe 349f 033d 1e4b 27be 86e8 cdbc
000001c0: 2510 dcbe 8f53 50bd 8b0e 2cbe ea19 89bd
000001d0: 5c88 ab3d 5521 65bc 32e5 073c d052 11be
000001e0: 54de 56bd 8b78 fa3b 0d29 8bbe fbc9 f73c
000001f0: 2744 b53c 6f66 e3bd 63f9 cbbd 282c 2f3d
00000200: 8624 02be f11a 5dbd e016 fabd fbc3 2cbd
00000210: 8b87 eabd f1d6 fabd 65d6 753d 5609 153e
00000220: ea76 103e 514b 633d b741 a43c 27ee 73be
00000230: ecfc 7f3c adaa 0e3d 661a cc3d de6c 79be
00000240: bf7b 90bd 93b8 ef3c a7a2 c93d ed07 073e
00000250: 3721 ddbe 519e 7cbe d48a bcbd 51fd ca3d
00000260: 9264 26be a388 273d 4cd1 fbbc b908 dcbe
00000270: 162c 46bd e5ab febe 931d b3bd c937 9abe
00000280: 5da8 0d3c a5e5 a2bd 5fde 4c3e cb4b 5f3e
00000290: e665 35be 75ad 92bd 1cd2 8dbe 5b2b d8bd
000002a0: 8c57 4abd c9f6 483e d213 4cba 6141 403d
000002b0: deff 383e 61ed 453d 2373 b0bd bbf7 29be
000002c0: 2017 0b3e ba76 bc3d f238 993d 16b6 3ebe
000002d0: 4988 a1be 92aa 04bd 2191 853d 5554 f53d
000002e0: f2ab 37be 953e e23d a563 853e ab37 14bd
000002f0: 34c0 00bc 1c74 8d3d 4952 47be bfa3 813b
00000300: fa62 4d3e 0889 a13e 5fb0 b53e 3f7b 373d
00000310: 22a6 76bd 0cc1 9abd 4513 fcbc e036 1e3e
00000320: 2910 d83e 0b03 533d 38f9 a33c 17e6 3bbe
00000330: 1a0d c0be 8d3a f53d 5f3a a7be beb2 773e
00000340: ebf2 253c aa61 8e3d 3a95 0fbd 5d9e f73b
00000350: 116f 24be 18f1 df3c 4b9a 1e3d 5020 d53c
00000360: ad76 c53c 90d9 873d 22d5 213e 8e6c 7b3d
00000370: 5e61 7c3d 523f 90be 34f5 013d 93f6 0bbd
00000380: 9b10 ce3d db13 703e b884 813e 55ae 2cbe
00000390: d27a b3bd cf22 bc3d ad2c bfbd e363 343e
000003a0: 1715 3d3e e11c f4bb ab4e 623d f717 0fbe
000003b0: e0d5 d5bd 2c46 a43d 6824 19bd 28fa b73e
000003c0: c03b dfbb a07d 1c3d 0b1d 7abe 80f8 2dbe
000003d0: af8d 913d 70f3 913e 5690 45be 98d9 42bd
000003e0: 399d 3abe acd9 03bd 00f0 8b3d 20db 9c3d
000003f0: 91a8 ca3e 63f6 d93d 29ea a6bd f70d f9bc

model.2.bias f4 [64]
0.14392512 -0.101955086 0.18599701 0.27823064 0.18411082 0.37232387 0.021726998 -0.17461164
0.044598322 0.25572962 0.020383196 0.20504981 -0.10250036 0.2557707 0.022281013 0.26721168
-0.09425629 -0.1367866 -0.07089897 -0.24540092 0.033596806 -0.039096516 -0.13786905 -0.022720728
-0.16483052 -0.10405137 0.08673028 0.084172636 0.04014782 0.091932565 0.109013714 0.11544465
-0.10095427 0.2146894 0.20697208 0.11572477 -0.005019573 -0.16173942 0.19543079 -0.027701104
0.017306693 0.07512656 -0.0026951213 0.0850754 -0.18421611 0.06643038 -0.105649896 -0.07920207
-0.15797277 0.099245876 -0.07891808 -0.14248027 -0.025413753 0.35843155 -0.13385783 -0.013302286
-0.08665715 0.19119486 0.1361644 0.33280334 0.23677944 0.19782557 0.07870379 -0.098729424
00000000: 1b61 133e d4cd d0bd 0076 3e3e 3f74 8e3e
00000010: 8c87 3c3e 3ca1 be3e d1fc b13c 65cd 32be
00000020: bbac 363d feee 823e a9fa a63c 94f8 513e
00000030: b5eb d1bd 61f4 823e ac86 b63c f8cf 883e
00000040: 7109 c1bd c911 0cbe 7b33 91bd 614a 7bbe
00000050: ce9c 093d ab23 20bd 8b2d 0dbe d220 babc
00000060: 55c9 28be e218 d5bd a59f b13d b462 ac3d
00000070: 0a72 243d 2447 bc3d 9542 df3d 3f6e ec3d
00000080: 1dc1 cebd 8ad7 5b3e 7df0 533e 1c01 ed3d
00000090: 3b7b a4bb 059f 25be 021f 483e 6ded e2bc
000000a0: c4c6 8d3c f4db 993d a2a0 30bb 033c ae3d
000000b0: 26a3 3cbe a70c 883d f95e d8bd b234 a2bd
000000c0: 9dc3 21be 6c41 cb3d cd9f a1bd 59e6 11be
000000d0: 8130 d0bc 5784 b73e 0712 09be d5f1 59bc
000000e0: 4e79 b1bd 96c8 433e ae6e 0b3e 3365 aa3e
000000f0: 4f76 723e c992 4a3e 742f a13d a732 cabd

model.4.weight f4 [2, 64]
0.1693777 0.052984837 -0.0961484 0.24339205 0.27197155 0.27893984 -0.062616244 0.08915727
-0.13071427 0.23390701 0.009999266 0.2138482 0.0081639 -0.053445723 -0.039162375 0.18922117
0.035610486 -0.06414721 0.027204366 0.027542042 0.068830036 0.013378522 -0.021884851 -0.07167635
-0.066809624 0.07540301 0.15171583 0.05896763 0.12629421 0.02246619 -0.27665177 0.10053096
-0.040837545 0.1930682 0.29248396 0.09462346 -0.11331808 0.024040896 0.1194015 0.10343427
-0.56478184 0.11693608 0.009001388 0.018628558 0.048577316 0.021855652 -0.11598354 -0.0044807806
0.010091677 0.06130471 -0.016652727 0.020527273 -0.0623673 0.23603755 -0.08018273 -0.46964604
-0.040363137 0.15312539 0.10193184 0.17227244 0.13595611 0.15214425 -0.13733996 0.07982488
-0.3238705 0.04037725 -0.15764023 -0.096276306 -0.19036527 -0.11475739 -0.01316589 -0.01783414
0.3246572 0.031131389 0.005413978 0.043768957 -0.048155338 -0.55942947 -0.012772789 -0.11469756
-0.060063083 0.01400074 0.0878197 0.036658864 0.04925398 0.015403348 0.03646374 0.4164872
-0.10584829 0.048071057 -0.046775274 -0.19240461 -0.12357277 -0.12756968 -0.38131854 0.1771046
0.008490129 0.24728289 0.28081173 0.22884695 -0.060445655 -0.0692321 -0.4622356 0.16903324
-0.0471503 0.1352623 0.03075997 0.096292086 0.35645318 0.119459525 0.011783015 0.029548084
-0.027062116 0.163457 -0.020085616 -0.038637348 -0.35383564 -0.30920464 0.07999978 0.19480133
-0.09310648 -0.106725916 0.3018921 -0.47006816 0.040942863 -0.16663226 -0.33503345 0.14940031
00000000: 5971 2d3e a106 593d 74e9 c4bd c43b 793e
00000010: db3f 8b3e 34d1 8e3e f23c 80bd 1698 b63d
00000020: f6d9 05be 5285 6f3e f6d3 233c 06fb 5a3e
00000030: e1c1 053c e7e9 5abd ba68 20bd 32c3 413e
00000040: 4ddc 113d 9d5f 83bd b1db de3c d99f e13c
00000050: c3f6 8c3d 9731 5b3c dc47 b3bc 0dcb 92bd
00000060: 7cd3 88bd e56c 9a3d 655b 1b3e 0b88 713d
00000070: 4553 013e 040b b83c 4da5 8dbe 2de3 cd3d
00000080: 4545 27bd acb3 453e 75c0 953e f2c9 c13d
00000090: 4f13 e8bd 6af1 c43c c688 f43d 59d5 d33d
000000a0: 8b95 10bf 2f7c ef3d 8f7a 133c eb9a 983c
000000b0: 02f9 463d a00a b33c c788 edbd 83d3 92bb
000000c0: 9057 253c a61a 7b3d 4d6b 88bc d028 a83c
000000d0: db74 7fbd d4b3 713e d836 a4bd 7275 f0be
000000e0: d153 25bd e7cc 1c3e a4c1 d03d 3068 303e
000000f0: 1438 0b3e b4cb 1b3e d9a2 0cbe 3a7b a33d
00000100: 5bd2 a5be 9e62 253d 716c 21be 832c c5bd
00000110: 1def 42be ec05 ebbd bfb5 57bc e718 92bc
00000120: 7839 a63e 4107 ff3c bd67 b13b 1447 333d
00000130: 883e 45bd c536 0fbf f644 51bc 8ee6 eabd
00000140: b504 76bd 5c63 653c d1da b33d 9b27 163d
00000150: 8bbe 493d 535e 7c3c 015b 153d cf3d d53e
00000160: fdc6 d8bd 28e6 443d 6e97 3fbd b705 45be
00000170: b813 fdbd a0a1 02be 2f3c c3be e95a 353e
00000180: 2f1a 0b3c ba37 7d3e 8ec6 8f3e db56 6a3e
00000190: dd95 77bd 8fc9 8dbd 25aa ecbe 0d17 2d3e
000001a0: ac20 41bd 3382 0a3e 55fc fb3c c934 c53d
000001b0: 0881 b63e 32a7 f43d 8c0d 413c d30e f23c
000001c0: 5fb1 ddbc 4661 273e 978a a4bc 3242 1ebd
000001d0: f229 b5be 1250 9ebe edd6 a33d 007a 473e
000001e0: 9cae bebd 1e93 dabd 9a91 9a3e c6ac f0be
000001f0: b4b3 273d a6a1 2abe 8189 abbe 65fc 183e

model.4.bias f4 [2]
0.22284421 0.034997266
00000000: 4631 643e 4b59 0f3d
