trained_models/PPO/Swimmer-v2_critic_250_epochs.pkl (torch, 21599 bytes, 5 tensors)

model.0.weight f4 [64, 8]
0	0x3e847972	0.25873905
1	0x3e37c33a	0.17945567
2	0x3e86fd0a	0.26364928
3	0xbee13ff6	-0.4399411
4	0x3e6b45fc	0.22975916
5	0x3ea1dc45	0.31613365
6	0x3ea5d92e	0.32392257
7	0x3c846f93	0.016166484
8	0x3e4a1cd6	0.19737563
9	0x3ec9fc62	0.39450365
10	0x3babc180	0.005241573
11	0x3d90c57a	0.07068916
12	0xbd7348b7	-0.05939552
13	0x3d39fe41	0.04540849
14	0xbaa9ecd6	-0.0012964259
15	0x3e358d34	0.17729646
16	0xbdb466f7	-0.088087015
17	0xbc3962ae	-0.011315031
18	0xbe03917f	-0.12848471
19	0x3edf696d	0.4363512
20	0x3e86a2a1	0.2629595
21	0xbe65c36b	-0.22437827
22	0xbe89d3ae	-0.2691931
23	0xbd358a55	-0.044321377
24	0xbdbd22a9	-0.092351265
25	0xbe20caa4	-0.15702301
26	0x3d2b8b35	0.041880805
27	0x3ede2b77	0.43392536
28	0x3f1387f9	0.5762935
29	0xbe4fdc9b	-0.20298998
30	0xbdc2f21c	-0.09518835
31	0x3e3e52bc	0.18586248
32	0xbd9f0c38	-0.077660024
33	0x3ed54889	0.41656902
34	0xbe6bfe90	-0.23046327
35	0xbf925e54	-1.1435037
36	0xbcb81dd2	-0.022475157
37	0xbcf54661	-0.029940786
38	0x3d6a8e21	0.05726445
39	0xbd522c64	-0.051311865
40	0x3cb89759	0.022533106
41	0x3e2d1ed9	0.16906299
42	0xbe136eb2	-0.14397696
43	0xbe65b2d8	-0.22431505
44	0xbd59c38c	-0.053165004
45	0xbdf1047e	-0.11768435
46	0x3cbf71d1	0.023369702
47	0x3e52035d	0.20509095
48	0xbe3efaaf	-0.18650316
49	0xbedd9ce1	-0.43283752
50	0x3e1cfeb9	0.15331544
51	0x3f1bc09c	0.60840774
52	0xbe251da0	-0.16124582
53	0xbd7ab39f	-0.061206456
54	0xbeb498ad	-0.35272732
55	0xbd4c5f6e	-0.049895696
56	0x3ebab27a	0.36464292
57	0x3e654f81	0.2239361
58	0x3ebf3ac5	0.37349525
59	0x3dabcdfa	0.08388896
60	0x3e8ca093	0.27466258
61	0xbddcdcab	-0.107842766
62	0x3e09fd6d	0.1347558
63	0x3d31066a	0.043219008
64	0xbe86edd4	-0.26353323
65	0xbed7f584	-0.421795
66	0x3e37d95b	0.17954008
67	0x3f02ed7c	0.5114362
68	0xbed538df	-0.41644952
69	0x3ec2f1a3	0.3807498
70	0x3a17695e	0.0005775894
71	0xbdc57d90	-0.0964309
72	0xbe9dab67	-0.30794832
73	0x3e9b2b6f	0.30306575
74	0xbdead79b	-0.11466905
75	0xbe63dc4d	-0.22252007
76	0x3ec8f970	0.39252806
77	0x3e4e5949	0.20151247
78	0x3e926da0	0.28599262
79	0xbc503c69	-0.012709715
80	0xbe28fd34	-0.1650284
81	0x3e94203f	0.28930852
82	0x3ce44222	0.027863566
83	0xbe2be999	-0.16788329
84	0x3f16e166	0.5893768
85	0xbe1ce38c	-0.15321177
86	0x3ce97848	0.028499737
87	0xbddd1896	-0.10795705
88	0x3e9b3b8b	0.30318865
89	0x3b4746a5	0.0030407098
90	0xbe553128	-0.20819533
91	0xbe26c09f	-0.16284417
92	0x3e6fdf7f	0.234251
93	0xbd9607b5	-0.07325689
94	0x3c7a7bfa	0.015288347
95	0xbeac449f	-0.33646104
96	0x3c0ff876	0.008787265
97	0x3e963dce	0.29344028
98	0xbebcdf8e	-0.3688931
99	0x3f2579b1	0.6463881
100	0x3e490e85	0.19634445
101	0x3e9c8778	0.30572104
102	0x3e21fe31	0.15819623
103	0xbe85e8ed	-0.2615427
104	0xbc8f2e53	-0.017478144
105	0x3e76f907	0.24118434
106	0x3e035c7b	0.12828247
107	0xbf8bbeae	-1.0917566
108	0x3ed24ada	0.41072732
109	0xbd1b29e0	-0.037881732
110	0x3d25baf6	0.040461503
111	0xbec29bce	-0.38009495
112	0xbea32f4d	-0.31872025
113	0xbde2d1fa	-0.11075206
114	0xbdb83d72	-0.08996095
115	0x3ce77232	0.028252695
116	0x3eb84991	0.35993627
117	0x3ee6afe1	0.4505606
118	0x3e1edd88	0.15514195
119	0x3e0881eb	0.1333081
120	0xbe29ccff	-0.16582106
121	0xbede7006	-0.43444842
122	0x3e5bc3a1	0.21461345
123	0x3f449304	0.7678683
124	0xbd75220a	-0.059846915
125	0x3e6ed7c2	0.23324493
126	0xbe45d7d9	-0.1932062
127	0x3df8c0be	0.12146138
128	0xbe44c948	-0.19217408
129	0x3cde6d4f	0.027151732
130	0xbf02db9e	-0.5111636
131	0x3e2200c4	0.15820605
132	0xbe09e110	-0.13464761
133	0xbe29d02d	-0.16583319
134	0xbd7303ec	-0.059329912
135	0xbd4f6904	-0.05063726
136	0xbe916860	-0.28399944
137	0xbe44fe5a	-0.19237652
138	0x3dcee6d0	0.10102618
139	0x3ef3c2ac	0.4760946
140	0x3edc1805	0.42987075
141	0x3ca2489e	0.019810017
142	0xbd7398bd	-0.059471834
143	0x3e69a688	0.22817433
144	0xbeb9e49c	-0.36307228
145	0x3eda1c46	0.42599696
146	0x3ddf4c61	0.1090324
147	0xbf129adf	-0.57267565
148	0x3d43c151	0.047791783
149	0xbe93d8d7	-0.28876373
150	0x3ebdd54a	0.3707679
151	0x3ea427e7	0.32061693
152	0xbe0ee98f	-0.13956283
153	0x3e499655	0.19686253
154	0x3e178f55	0.1480077
155	0xbea1da31	-0.3161178
156	0xbe31ae55	-0.17351659
157	0x3d0fd8d5	0.035118897
158	0x3e7df805	0.24801643
159	0x3e7a90ca	0.24469295
160	0xbe8934c7	-0.26798078
161	0xbee80fca	-0.45324546
162	0xbcb16ae5	-0.021657417
163	0xbf29fd74	-0.66402364
164	0xbe821e07	-0.25413534
165	0xbc9282eb	-0.017884692
166	0x3df4ebf4	0.11959067
167	0xbd271f8a	-0.040801562
168	0xbdbe5a61	-0.09294582
169	0x3d6adba2	0.057338364
170	0x3e3d84e7	0.1850773
171	0xbf373301	-0.715622
172	0x3e96ca81	0.29451373
173	0xbed6cdea	-0.41953975
174	0xbe679c82	-0.22618297
175	0xbd05e6bb	-0.032690745
176	0xbe9a73c8	-0.3016646
177	0x3ee770a9	0.4520314
178	0x3ea2cc30	0.31796408
179	0xbe1d0bda	-0.15336552
180	0x3e017cf7	0.12645327
181	0x3e40b6b6	0.18819699
182	0x3e0fd3f9	0.14045705
183	0xbd011368	-0.031512648
184	0xbe9a55f0	-0.3014369
185	0xbe3ad5ba	-0.18245593
186	0xbe9975fa	-0.2997282
187	0x3e15e8ea	0.14639631
188	0xbedf3818	-0.43597484
189	0x3d37b711	0.04485232
190	0xbe8d8775	-0.27642408
191	0xbe33da25	-0.17563684
192	0xbdbfcb0c	-0.093649
193	0xbf073d83	-0.52828234
194	0x3ec834ca	0.39102775
195	0xbd1964a9	-0.037449513
196	0xbe671145	-0.22565182
197	0x3d9bf599	0.076152034
198	0x3dda1522	0.10648562
199	0x3e3f5fc6	0.18688878
200	0x3e245531	0.16048123
201	0x3e9e227a	0.3088568
202	0x3f0d4b26	0.5519279
203	0xbf02bdd1	-0.51070887
204	0xbdb526f1	-0.08845318
205	0xbedc1e14	-0.42991698
206	0xbe1375c4	-0.14400393
207	0xbdff0fd6	-0.12454192
208	0x3ebb50b1	0.36585
209	0x3e5fafec	0.21844453
210	0xbf33a82d	-0.7017849
211	0xbe19e850	-0.15030026
212	0xbe138d4f	-0.14409374
213	0x3df0f869	0.117661305
214	0x3d57ad84	0.05265571
215	0x3d0a6898	0.033791155
216	0x3e91e82c	0.28497446
217	0x3e5a326d	0.21308298
218	0x3e8213cc	0.2540573
219	0x3ec53bb6	0.38522118
220	0x3e1fc18a	0.15601173
221	0x3e0ade6c	0.1356141
222	0xbea4d514	-0.32193816
223	0x3df266c3	0.118360065
224	0xbef0a1f2	-0.46998554
225	0xbc8e9614	-0.017405547
226	0x3d0d00bd	0.034424532
227	0x3caea3b0	0.021318287
228	0x3e591bd1	0.21202017
229	0xbe556277	-0.20838343
230	0xbd620db4	-0.05518885
231	0xbe41c1d2	-0.18921593
232	0x3e018681	0.12648965
233	0x3e1ad48b	0.15120141
234	0xbb02c0ea	-0.0019951412
235	0x3dc4578b	0.0958701
236	0x3daecb47	0.08534866
237	0xbe0ab094	-0.13543922
238	0xbe2e99fd	-0.1705093
239	0xbe2b2651	-0.16713835
240	0x3ea94292	0.33058602
241	0xbf0bdd92	-0.54634964
242	0xbdba05fc	-0.09083173
243	0x3e92ad90	0.28648043
244	0xbed76c25	-0.42074695
245	0x3ea3a768	0.31963658
246	0x3e18b409	0.14912428
247	0xbe03efb4	-0.12884408
248	0x3eb45f15	0.35228792
249	0x3e866f16	0.26256627
250	0xbee3c359	-0.44484976
251	0xbe66f0dc	-0.22552818
252	0xbcfaa624	-0.0305968
253	0x3e2f3b13	0.17112379
254	0x3eb501bc	0.35352886
255	0x3dfd0724	0.123548776

model.0.bias f4 [64]
0	0x3e8e491c	0.27790153
1	0x3edcebac	0.43148553
2	0x3f206742	0.6265756
3	0x3ee5d90f	0.44892165
4	0xbe42458a	-0.1897184
5	0x3dff21c7	0.124576144
6	0x3e7b58e6	0.24545631
7	0xbe30abf0	-0.17253089
8	0x3ea8af39	0.32946184
9	0xbeeaa3f4	-0.4582821
10	0xbe90faee	-0.28316444
11	0x3edc637a	0.43044645
12	0x3dbb8e24	0.091579705
13	0xbe25b729	-0.16183151
14	0xbf029976	-0.5101541
15	0x3e31bf14	0.17358047
16	0x3e8a8b53	0.2705942
17	0x3f165ec0	0.5873833
18	0xbea70df9	-0.32627848
19	0xbec92b55	-0.39290872
20	0x3dcaf851	0.09910644
21	0xbe714144	-0.23560053
22	0xbedfaa82	-0.43684775
23	0x3ee782f0	0.45217085
24	0x3e3e2028	0.18566954
25	0xbe84425d	-0.2583188
26	0xbe085042	-0.13311866
27	0xbed1add9	-0.40952948
28	0xbebeb8d0	-0.37250376
29	0x3f347462	0.70490086
30	0xbe7b6d52	-0.24553421
31	0x3e8eeab8	0.2791345
32	0x3da055d3	0.0782887
33	0xbe7d1402	-0.24714664
34	0x3d29a17b	0.041413765
35	0xbf1a19d8	-0.60195684
36	0x3e1b4765	0.15163954
37	0xbeeeb4a1	-0.46622184
38	0x3f125dd9	0.5717445
39	0xbe1c2c19	-0.15251197
40	0x3f51aa4b	0.8190047
41	0xbec4e8e2	-0.38458925
42	0xbedae4c0	-0.42752647
43	0x3c3b0844	0.011415545
44	0xbeb3301f	-0.3499765
45	0x3e386924	0.18008858
46	0x3de127f7	0.10993951
47	0x3ebb90dd	0.3663396
48	0xbe7fd317	-0.24982868
49	0x3f16ae1f	0.5885944
50	0x3f0cf0ee	0.5505513
51	0x3f822990	1.0168934
52	0x3ea5ba98	0.32368922
53	0xbcb49fdc	-0.022048883
54	0x3cc5d76c	0.024150573
55	0x3e33e4b4	0.17567712
56	0xbed26c76	-0.41098374
57	0x3e0c86b0	0.13723254
58	0x3e5e897d	0.21732135
59	0xbec0321b	-0.37538227
60	0xbe69e2e9	-0.22840466
61	0xbd07a8e1	-0.03312004
62	0x3df11bb1	0.1177286
63	0x3e240095	0.16015847

model.2.weight f4 [64, 64]
0	0x3e264444	0.16236979
1	0xbb9ab139	-0.0047208336
2	0xbb5439fe	-0.00323832
3	0x3d23cda6	0.039991044
4	0x3e5b9959	0.21445216
5	0x3dc5f577	0.09665959
6	0xbe7c0f89	-0.24615301
7	0x3e8f1853	0.27948245
8	0xbe31a831	-0.17349316
9	0x3e2a7492	0.1664603
10	0x3e087e71	0.13329484
11	0xbd2bba94	-0.04192598
12	0x3e0cb780	0.13741875
13	0x3e35d4d5	0.1775697
14	0x3e25dc82	0.16197398
15	0xbe181fff	-0.14855956
16	0x3df8d6c0	0.12150335
17	0xbd3f1820	-0.046653867
18	0x3e04b7cf	0.12960742
19	0x3d81ae72	0.06332101
20	0xbe85e2f3	-0.2614971
21	0x3d99f481	0.075173385
22	0x3df3e483	0.119088195
23	0xbe24419d	-0.16040654
24	0xbecc53aa	-0.3990758
25	0x3dd6c995	0.104876675
26	0xbcd5987e	-0.02607369
27	0x3e9721bb	0.29517922
28	0x3dd31347	0.10306411
29	0x3c94aecd	0.018149758
30	0x3d69e620	0.05710423
31	0xbe4fb232	-0.2028282
32	0x3b9c8213	0.0047762482
33	0xbd4580fa	-0.048218705
34	0xbdb00b8c	-0.085959524
35	0x3cbb9e9f	0.022902785
36	0xbe9bed09	-0.3045428
37	0x3f007348	0.50175905
38	0xbe304430	-0.17213511
39	0xbef8fff7	-0.48632786
40	0xbd8f73b3	-0.0700449
41	0x3d096bd5	0.033550102
42	0x3d3483a6	0.044070862
43	0x3d00f97f	0.031487938
44	0x3e866a8c	0.26253164
45	0xbd96ad39	-0.07357258
46	0xbe0a3b50	-0.13499188
47	0x3d7b5b9e	0.06136667
48	0x3e50ecf2	0.20402887
49	0xbdfe0eb5	-0.12405149
50	0xbe43ab31	-0.19108273
51	0xbd1db334	-0.03850098
52	0xbe3d3d7b	-0.18480484
53	0x3e1a9dd8	0.15099275
54	0x3d180f4e	0.03712397
55	0xbdb6852c	-0.08912119
56	0xbd79a5a7	-0.060948994
57	0xbe6b1751	-0.22958113
58	0xbd1e3541	-0.038625006
59	0x3e0377cb	0.12838666
60	0xbddbf263	-0.10739591
61	0x3dc69975	0.09697238
62	0x3d87c090	0.06628525
63	0xbd283f75	-0.041076142
64	0x3dc87a57	0.097889595
65	0x3d89b8bd	0.06724689
66	0xbdb81223	-0.08987834
67	0x3d73a5e4	0.059484378
68	0x3e518e5d	0.20464464
69	0x3d7fb1d0	0.062425435
70	0xbe87c8b8	-0.26520324
71	0x3eb3f170	0.3514514
72	0xb9913554	-0.00027696288
73	0x3ddae3b1	0.1068796
74	0x3cd974cb	0.026544949
75	0xbe187a93	-0.14890508
76	0x3cefcee6	0.029273462
77	0x3e69b1bc	0.22821707
78	0x3e8c4b6f	0.274013
79	0xbec2955d	-0.3800458
80	0x3dd5568d	0.10416899
81	0xbdfe1371	-0.12406052
82	0x3e59c342	0.21265891
83	0x3d51cb60	0.051219344
84	0xbe266a6f	-0.16251539
85	0xbd887dee	-0.06664644
86	0x3ad437d8	0.0016190959
87	0xbdf86bee	-0.12129961
88	0xbe80be28	-0.25145078
89	0x3eac327d	0.3363227
90	0xbe87ad2b	-0.26499304
91	0x3e947e85	0.29002777
92	0x3b1d7cc5	0.0024030667
93	0x3d967c89	0.07347972
94	0x3e52699b	0.20548098
95	0xbe4dcf40	-0.20098591
96	0x3d57240a	0.052524604
97	0x3e18da03	0.14926915
98	0x3e40a58c	0.18813151
99	0x3e474088	0.1945821
100	0xbf1fddb5	-0.62447673
101	0x3f0880ba	0.5332142
102	0xbea6317d	-0.32459632
103	0xbeb55bbf	-0.3542156
104	0xbe01ac92	-0.12663487
105	0xbdda4f20	-0.10659623
106	0x3d010a0d	0.031503726
107	0x3e6d6006	0.23181161
108	0x3eaf2d20	0.34214115
109	0xbea87d19	-0.32907942
110	0xbc473d44	-0.012160603
111	0x3d2ba970	0.041909635
112	0x3dc603e3	0.0966871
113	0xbd7579d5	-0.05993064
114	0x3da22a90	0.079182744
115	0xbdeb89f0	-0.11500919
116	0xbe272449	-0.16322435
117	0xbba79b99	-0.0051149842
118	0x3d514177	0.051087823
119	0x3d8241b2	0.06360187
120	0xbd9397b0	-0.072066665
121	0x3cbc5f1a	0.022994567
122	0xbdc819cb	-0.097705446
123	0x3d43804d	0.04772978
124	0x3c14d6d8	0.009084426
125	0x3e3c7597	0.18404232
126	0x3b2c2a7e	0.0026270445
127	0xbd89638a	-0.06708439
128	0x3dd5cbf4	0.104392916
129	0xbd5fa5f0	-0.05460161
130	0xbd621549	-0.05519608
131	0x3c09de14	0.008414764
132	0x3caef926	0.021359038
133	0x3e1737ba	0.14767352
134	0xbe9446f3	-0.2896038
135	0x3ee406a6	0.44536322
136	0xbe43593b	-0.19077007
137	0x3dbdef72	0.09274186
138	0x3cbbdf54	0.02293364
139	0xbc99d66f	-0.018779008
140	0xbe05f8fb	-0.1308326
141	0x3e0bcb65	0.13651808
142	0x3d3ab37c	0.045581326
143	0xbe81e1a7	-0.25367472
144	0xbd61ccea	-0.055127062
145	0xbd8c7f2f	-0.06860196
146	0x3e48621f	0.1956868
147	0x3da64f3b	0.08120581
148	0xbe9bc9cc	-0.30427396
149	0x3e212a44	0.1573878
150	0x3e150975	0.14554389
151	0xbe64fed7	-0.22362839
152	0xbe8cf9b0	-0.27534246
153	0x3d9dc423	0.07703426
154	0xbdc33495	-0.095315136
155	0x3e7b3979	0.24533643
156	0xbdf18822	-0.117935434
157	0xbdf9c08a	-0.12194927
158	0xbc266db0	-0.0101579875
159	0xbe77e47e	-0.24208257
160	0x3de945b2	0.113902465
161	0x3d8074f7	0.06272309
162	0xbe32edd5	-0.17473538
163	0xbc319653	-0.010839063
164	0xbef2c726	-0.47417563
165	0x3f064fd0	0.52465534
166	0xbe2e6471	-0.17030503
167	0xbe387887	-0.18014728
168	0xbd6fe329	-0.058566246
169	0xbe1c23d5	-0.15248044
170	0x3e211754	0.15731555
171	0x3d8f11ab	0.06985792
172	0x3e7a9f66	0.24474868
173	0x3daab4c3	0.08335259
174	0xbd504f6e	-0.050857
175	0x3bb4901c	0.0055103432
176	0x3e42ddcc	0.19029921
177	0x3c165955	0.009176572
178	0xbe4e0da7	-0.20122395
179	0xbe22db43	-0.15903954
180	0xbd9faa22	-0.07796122
181	0x3e3f7b11	0.1869929
182	0x3c2b8f44	0.010471169
183	0xbdee5f76	-0.116393015
184	0x3d7caefd	0.06169032
185	0xbe8b53dd	-0.2721242
186	0xbe78cc3b	-0.24296658
187	0x3e3557b1	0.17709233
188	0xbd54bce8	-0.051937968
189	0x3e50b896	0.20382914
190	0xbd42aff4	-0.047531083
191	0xbd5bf965	-0.053704638
192	0x3cf0f8db	0.029415539
193	0x3d6c5094	0.057694033
194	0x3bfa1aa1	0.007632569
195	0x3e39baa4	0.18137604
196	0x3e0c3b75	0.13694556
197	0x3e988545	0.29789177
198	0xbedefdf9	-0.4355314
199	0x3eb3bfbe	0.35107225
200	0xbe719abd	-0.23594184
201	0x3e34cb31	0.17655636
202	0x3d86443a	0.06555982
203	0xbe0aaef8	-0.13543308
204	0x3d12e404	0.035861984
205	0x3e655b8e	0.22398207
206	0x3d5d7010	0.05406195
207	0xbedf2d31	-0.43589166
208	0xbd09f2e8	-0.03367892
209	0xbd7f9b25	-0.062403817
210	0x3e324d2a	0.17412248
211	0x3d0c1228	0.034197003
212	0xbe2a7ed0	-0.16649938
213	0x3e3e577f	0.18588065
214	0x3de219ae	0.11040054
215	0xbdeec3ab	-0.116584145
216	0xbec39b6e	-0.3820452
217	0x3e477744	0.1947909
218	0xbd82e663	-0.06391599
219	0x3ddc4633	0.10755577
220	0xbdabc433	-0.083870314
221	0x3da1849a	0.0788662
222	0x3ddcbfc6	0.107787654
223	0xbe62cbf8	-0.2214812
224	0x3e12c319	0.14332236
225	0x3d3941a3	0.04522861
226	0xbde021f4	-0.10943976
227	0x3b501d21	0.0031755643
228	0xbe848b48	-0.25887513
229	0x3eb36de9	0.35044792
230	0xbea128d7	-0.3147647
231	0xbe6cdf66	-0.23132095
232	0x3c0fc3c2	0.0087747
233	0x3cf1ad83	0.029501682
234	0x3e0008a6	0.12503299
235	0x3e1e43c4	0.15455538
236	0x3e3affe1	0.18261673
237	0xbe24c6e3	-0.16091494
238	0xbe0783c4	-0.13233858
239	0xbd6aa386	-0.057284854
240	0x3e4790c2	0.19488814
241	0xbbfdb976	-0.007743056
242	0xbe500372	-0.20313814
243	0xbdb30d3c	-0.08742759
244	0xbe29a63a	-0.16567317
245	0x3df6ebb1	0.12056673
246	0xbe277020	-0.16351366
247	0x3d62896c	0.055306837
248	0x3dd5f03a	0.1044621
249	0xbe47dfd4	-0.19518977
250	0xbd8005cf	-0.06251108
251	0x3e494cb8	0.19658172
252	0xbd426339	-0.047457907
253	0x3cec8ea2	0.028876606
254	0x3e120d13	0.142628
255	0xbe252cbe	-0.16130349

model.2.bias f4 [64]
0	0xbe78e420	-0.24305773
1	0xbe5f3eb4	-0.21801263
2	0xbe96aeaa	-0.29430133
3	0xbe798258	-0.24366128
4	0xbe80bfcd	-0.25146332
5	0x3efcb9e2	0.49360567
6	0xbe35c6c6	-0.17751607
7	0x3f08d9da	0.53457415
8	0x3ee7a6be	0.45244402
9	0x3e418edf	0.18902157
10	0x3f1bfbd9	0.60931164
11	0xbe56b994	-0.2096923
12	0x3e9ca857	0.30597183
13	0x3e0c179f	0.13680886
14	0x3e0f0538	0.13966835
15	0x3ea57ed0	0.32323313
16	0x3bb2e062	0.0054588774
17	0xbeae9bf8	-0.3410337
18	0xbe1a7748	-0.15084565
19	0xbdc2b4d5	-0.09507147
20	0x3f10ca8f	0.5655908
21	0xbbf0dabc	-0.007350294
22	0xbde018a6	-0.10942201
23	0xbe8b495e	-0.27204412
24	0x3ea357c4	0.31902897
25	0x3ef14cf5	0.47129026
26	0x3e542115	0.20715745
27	0x3e931ae3	0.2873145
28	0x3f09cbe7	0.53826755
29	0x3ea65b8a	0.32491714
30	0x3ecdeea9	0.40221146
31	0x3caed92b	0.021343788
32	0xbe41a944	-0.18912226
33	0xbd5069db	-0.0508822
34	0x3e9ac39e	0.3022737
35	0xbe5865c9	-0.21132578
36	0x3e169174	0.14703923
37	0x3e132611	0.1436999
38	0x3f0c31b2	0.5476333
39	0xbe9479c8	-0.28999162
40	0x3ea9938b	0.3312038
41	0xbe66b2c0	-0.22529125
42	0x3eb447ec	0.35211122
43	0x3e88f578	0.26749778
44	0xbe8834ac	-0.26602685
45	0x3f2253d1	0.63409144
46	0x3eb3e82c	0.3513807
47	0xbe327d92	-0.17430714
48	0xbd1b3741	-0.03789449
49	0xbd654417	-0.05597314
50	0xbe011f58	-0.12609613
51	0x3eb2be76	0.34910935
52	0x3eb301cd	0.3496231
53	0x3e018128	0.12646925
54	0xbe8298cb	-0.25507197
55	0x3e1f1009	0.1553346
56	0x3e872432	0.26394802
57	0xbe975d66	-0.29563445
58	0x3dfb297a	0.122637704
59	0x3e514101	0.20434953
60	0xbdf97481	-0.121804245
61	0xbeb0b3db	-0.3451222
62	0xbe217e67	-0.15770875
63	0xbd92c603	-0.07166674

model.4.weight f4 [1, 64]
0	0xbe379e5d	-0.17931505
1	0xbd93d66c	-0.07218632
2	0xbe014ee9	-0.12627758
3	0xbdf7d5d6	-0.12101333
4	0xbe12adfc	-0.14324182
5	0x3f1b797c	0.60732245
6	0xbe19848e	-0.14991972
7	0x3f2431ce	0.64138496
8	0x3f2aefb5	0.66772014
9	0x3e6721e9	0.2257153
10	0x3f39cb4d	0.7257584
11	0xbdf3c046	-0.119019076
12	0x3e4aa823	0.19790702
13	0x3f00500f	0.5012216
14	0x3e77cf9c	0.2420029
15	0x3eb55f3d	0.35424224
16	0xbe4cdc8d	-0.20006008
17	0xbe957030	-0.29187155
18	0xbdacd4e7	-0.084390454
19	0xbe4be597	-0.199118
20	0x3f3381e4	0.7012007
21	0x3a59ba80	0.0008305684
22	0x3cf25038	0.029579267
23	0xbe0b737b	-0.13618271
24	0x3e6f8897	0.23391949
25	0x3f36a64a	0.71347487
26	0x3e7ff0b4	0.24994165
27	0x3e9e91a3	0.30970487
28	0x3f362872	0.71155465
29	0x3e68be81	0.22728921
30	0x3f39e400	0.72613525
31	0x3c8b1759	0.016978906
32	0xbe9e7cd7	-0.3095462
33	0xbdab92dc	-0.083776206
34	0x3e7b3d6b	0.24535148
35	0xbe3a3abb	-0.18186466
36	0xbebe77d1	-0.37200788
37	0x3e79ec5b	0.24406569
38	0x3f411e7b	0.75437135
39	0xbe0f162b	-0.139733
40	0x3e3769ad	0.17911406
41	0xbed835bc	-0.42228496
42	0x3e5f570e	0.21810552
43	0x3dc7d050	0.09756529
44	0xbc9ffb8c	-0.019529127
45	0x3f3cd989	0.7376943
46	0x3e89a238	0.26881576
47	0xbd219d19	-0.03945646
48	0xbd3f8551	-0.046758
49	0xbf34b017	-0.7058119
50	0xbd382544	-0.044957414
51	0x3e72f178	0.23724926
52	0x3eee255b	0.46512875
53	0x3e3eb099	0.18622054
54	0xbe03b1bb	-0.12860768
55	0x3e6906eb	0.22756545
56	0x3e8822e6	0.26589125
57	0xbe1ada6b	-0.15122382
58	0x3e6c0fcc	0.23052901
59	0x3e7f6686	0.24941453
60	0xbe0d4807	-0.13797008
61	0xbe0dc6fe	-0.13845441
62	0xbdbff594	-0.09373012
63	0xbda42027	-0.08013945
