best/DoublePrecisionSwimmer-v2_actor_250_epochs.pkl (torch, 21855 bytes, 6 tensors)

model.0.weight f4 [64, 8]
000000 26 d2 b5 3d 4c 65 d2 3c d4 10 23 3e 4f e0 17 bd
       0.08877973 0.025683068 0.15924388 -0.03707915
000010 b1 60 ca 3e d6 04 d7 3d 8e b7 60 3e 64 bd 71 bd
       0.39526895 0.10498969 0.2194502 -0.059018508
000020 4b 20 ab be a7 70 85 be e5 be d2 bc 92 78 cb 3e
       -0.33423075 -0.2606251 -0.025725791 0.39740425
000030 e6 5e e5 be d7 f0 33 3d 49 82 36 3e 37 47 15 3d
       -0.44798964 0.043930855 0.17823137 0.03644487
000040 6d d1 02 3e 61 cc 4d bd 80 28 7b be e1 40 16 bf
       0.12775202 -0.05024374 -0.24527168 -0.5869275
000050 56 ff 89 be e4 49 2b 3e 0b 05 79 be 4a 2c ad be
       -0.26952618 0.16727406 -0.2431833 -0.33822852
000060 2b d5 a0 3e 51 3d d1 3c cc 7a 7f 3e c1 3f 26 bf
       0.31412634 0.025541933 0.24949187 -0.6494103
000070 17 3c f0 3e 53 79 d1 bc 68 46 06 be e6 b8 05 bc
       0.46920845 -0.025570547 -0.13112795 -0.008161759
000080 18 03 12 3e 3f 82 af 3e 9a 55 8d be ad 74 9a be
       0.14258993 0.34279057 -0.2760437 -0.30167142
000090 a9 d6 a7 3e 4d da 42 3d 60 59 cc 3e 1f 46 a1 be
       0.3278096 0.04757147 0.39911938 -0.3149881
0000a0 04 dd ee be 9b 29 f2 3d e7 b1 e2 3d a4 ee 02 3e
       -0.46652997 0.11824342 0.110690884 0.12786347
0000b0 96 e5 8b be bf bf ce be 30 1b 21 3e bf 72 81 bd
       -0.27323598 -0.40380666 0.15733027 -0.06320714
0000c0 e7 b6 00 bf 4d 71 f9 3d da 9b 6c be 4a de 08 bd
       -0.50279087 0.121798135 -0.23106328 -0.033415116
0000d0 99 68 16 3e 9b f5 48 3c 11 27 28 be 49 ce 4f 3e
       0.14688338 0.012265588 -0.16421153 0.20293535
0000e0 a9 70 c1 3c a4 6a 77 3e 58 87 89 bd 77 9d a7 be
       0.02361329 0.24161774 -0.06715268 -0.32737324
0000f0 3b 81 e5 3d 82 ee ac be 80 db 8a 3e 5b 97 6e be
       0.112062894 -0.33775717 0.2712059 -0.23299925
000100 2d 5d 4c 3e 82 3f 75 3d f3 d0 2c 3f 1c 11 35 be
       0.19957419 0.05987502 0.6750633 -0.17682308
000110 66 b1 83 be 2c 01 9a 3d eb 4e 64 3e 1b 87 78 3d
       -0.25721282 0.07519755 0.2229573 0.06067572
000120 0a 02 ec be cd af 74 be e0 26 25 be d8 e2 c3 3d
       -0.46095306 -0.23895188 -0.16128111 0.095647514
000130 cc 06 a8 be 35 e8 69 bd 3a bc b0 3e c1 3c 62 bd
       -0.32817686 -0.057106216 0.34518605 -0.05523372
000140 b2 7d e3 38 9e 8e 34 3d c8 44 b2 be 8b 04 c4 3e
       0.00010847616 0.044081323 -0.348181 0.38284716
000150 6c 4c 19 be 36 dd 64 be bc d3 b4 3d 65 7e 99 3e
       -0.14970559 -0.2235001 0.088294476 0.29979244
000160 b8 6f 23 3e b7 83 1e 3e 1f 26 59 3f a4 c6 a8 3e
       0.15960586 0.15479933 0.84823793 0.3296405
000170 2b 3a 3b 3e a0 37 64 be ec 0f b9 bd a0 bc 15 be
       0.18283908 -0.22286844 -0.0903624 -0.14622736
000180 84 9b dc be 26 02 b1 3e 12 f0 b4 3d 78 f2 fc bd
       -0.430874 0.34571952 0.08834852 -0.12350935
000190 9e 75 a2 3d 2a c5 7d bd 6f 84 cc be 46 fe 1d be
       0.0793259 -0.06195561 -0.3994479 -0.15429029
0001a0 8b fe e2 be a2 ce 80 3e fe f1 4e be be ca d1 3e
       -0.44334826 0.25157648 -0.202095 0.40974993
0001b0 b3 ec 66 3e b5 9f 48 bd ae e8 44 be b4 ad 86 3e
       0.22551231 -0.048980433 -0.19229385 0.263044
0001c0 f4 07 91 3e 4b fd a6 3e bb 4e 1a be f6 f0 95 3d
       0.2832638 0.32615122 -0.15069096 0.0732135
0001d0 5c 17 12 3f 07 07 0b 3f 56 71 ee 3d a0 c1 5c be
       0.57066894 0.543076 0.11642711 -0.21558237
0001e0 12 32 9c bd 1b 0b 5e 3d be 47 a1 be 50 aa 19 3f
       -0.07626738 0.05420981 -0.31500047 0.600255
0001f0 2a 60 21 3d f1 92 5a bd e3 79 cb 3d 08 80 7a 3e
       0.03939835 -0.05336279 0.099353574 0.24462903
000200 f9 f4 e5 bd 7b 97 aa 3e 67 b6 c8 3b 63 7c 80 be
       -0.112283655 0.33318695 0.0061252597 -0.250949
000210 5a d5 f9 3e f7 cc 70 3e cf 07 80 3e 09 b6 1b 3e
       0.48795587 0.23515688 0.25005957 0.1520616
000220 69 b9 7d be b4 60 98 3e 5a 9a b9 be ce 71 09 bf
       -0.2477776 0.2976128 -0.36250573 -0.5368928
000230 82 64 5b 3e fc bf a5 be 75 01 b6 3e 5a 0a de bd
       0.2142506 -0.32373035 0.35547987 -0.10841818
000240 35 bb d0 3e 17 63 87 bd c9 e6 15 bf ee b2 01 be
       0.40767828 -0.06610697 -0.58555275 -0.12665913
000250 8f 4b c4 3e da d2 5d bc c2 04 e6 3e d9 04 b9 3e
       0.38338897 -0.01353904 0.44925505 0.3613651
000260 c6 b5 8c be f4 0c a4 3e 83 90 7c be 70 0a 86 3e
       -0.27482432 0.32041132 -0.24664502 0.26179838
000270 9d cf db be 46 eb bf be ed 6b 59 3d d8 c9 5f bc
       -0.42931834 -0.37484187 0.05308144 -0.013658963
000280 e6 f1 95 3e 6b 98 36 3d 1f 0c 37 3f bc 63 35 3e
       0.29286116 0.04457895 0.7150287 0.17713827
000290 00 a1 33 be b1 a0 d1 3d 82 24 72 3e e8 b7 35 bb
       -0.17541885 0.102357276 0.23646739 -0.0027728025
0002a0 be e8 8a be 02 74 c7 be c3 14 72 3b 01 62 1a 3e
       -0.27130693 -0.38955694 0.0036938644 0.15076448
0002b0 04 b6 29 3c e2 c8 a4 3e b1 b8 6b be b8 b1 63 be
       0.010358337 0.3218451 -0.23019673 -0.22235763
0002c0 03 79 92 be 1b 77 42 3e 5f 51 fc bc 8f e5 14 3f
       -0.2860795 0.18990748 -0.03080052 0.5816278
0002d0 a0 f9 91 3e 9f e4 d4 bd 34 a3 3c be c7 5d c3 3d
       0.2851076 -0.103951685 -0.18421632 0.09539371
0002e0 84 a2 dc be c5 82 9d 3e e5 c2 e8 bd 44 a6 52 bd
       -0.4309274 0.30763832 -0.11365298 -0.051428095
0002f0 09 58 20 bd ab 38 74 be 4c 96 6e be 74 21 fe 3c
       -0.039146457 -0.23849742 -0.23299521 0.031021811
000300 e3 92 a1 be 7b 3e 9f 3e 32 1b a3 be b1 a6 a7 bd
       -0.31557378 0.31102356 -0.31856686 -0.08186091
000310 33 0b 2f be ee 5c af 3e bc ae 1f be 67 63 2c 3e
       -0.17094116 0.34250587 -0.15594 0.16834794
000320 37 12 08 3e 7b 31 06 3f 91 05 92 3e cf 00 a6 3d
       0.13288198 0.5241925 0.28519872 0.08105623
000330 71 98 47 3d c2 37 e3 3d e2 3c 8d 3e d3 4c 91 be
       0.048729364 0.11094619 0.27585512 -0.28378925
000340 3e 1b ac be 5a 6d f8 3e 32 26 df be c1 5d 08 3e
       -0.33614534 0.4852093 -0.43583828 0.13317014
000350 17 6e 04 be cd 74 27 3e 7f ae ad be ea 83 fa bd
       -0.12932621 0.1635315 -0.33922192 -0.12232192
000360 af 98 28 3c 93 c1 e2 bd 93 d0 ff 3e 39 bc 84 bd
       0.010290309 -0.110720776 0.49963817 -0.06481213
000370 47 a9 3d 3d c6 b9 5c be b2 3d e5 bd 2c 55 b9 bd
       0.046304014 -0.21555242 -0.11193408 -0.09049448
000380 bd 14 8a 3e 76 b2 bf 3e c5 28 77 3d 88 46 38 bf
       0.26968947 0.37440842 0.060341615 -0.7198262
000390 3b 5b 3c be e5 86 9e bd e4 a4 a4 3e 1c f1 a7 3d
       -0.18394177 -0.07740573 0.32157052 0.08200285
0003a0 4a c7 d5 be 2d 7e d3 bd 7b 26 2e 3d 8f 63 c9 be
       -0.41753608 -0.103268005 0.042517167 -0.3933377
0003b0 40 3e 88 3d b7 59 82 be 87 ce fb 3e 5c 9d c1 bd
       0.06652498 -0.25459072 0.49181005 -0.09453842
0003c0 34 78 83 be 4f 80 ec bd 4c 75 0a 3e 76 7e 18 bd
       -0.25677645 -0.115479104 0.13521308 -0.037229978
0003d0 bd b9 42 be 0d 41 6f 3d 41 c3 6c be 57 b9 5f be
       -0.19016166 0.058411647 -0.23121358 -0.21848045
0003e0 7d 41 b2 be 5a 57 b6 3e 6a dd e0 bd a6 5c 68 be
       -0.3481559 0.3561352 -0.109797314 -0.22691593
0003f0 5e b4 9a bd 63 21 8c 3d 53 47 2b 3e 64 22 d3 3c
       -0.075539336 0.068423055 0.16726427 0.025773235

model.0.bias f4 [64]
000000 f9 b1 f2 be 07 ef c2 3c 92 26 80 3e 85 13 2b bc
       -0.47401407 0.023795618 0.25029427 -0.010441666
000010 a6 ff 72 3e 97 56 9f bd f0 67 18 bf dd 54 e6 bd
       0.23730335 -0.077801876 -0.59533596 -0.11246655
000020 e7 1f de bd ad 59 af 3e 80 68 c1 bd 05 10 a2 3c
       -0.10845929 0.34248105 -0.0944376 0.01978303
000030 98 88 22 3e ff a7 26 3e 26 f2 1b be 1f 22 35 3c
       0.15872419 0.16275023 -0.15229091 0.011055498
000040 73 41 18 3e 73 aa 80 3e f2 92 2a be 1a e8 ee 3d
       0.14868717 0.25130042 -0.16657618 0.116653636
000050 f3 f0 96 be 79 c7 7d 3e d9 18 7b 3e 8e 51 8e bc
       -0.29480705 0.24783124 0.24521197 -0.017372873
000060 0d a8 34 bd a1 bc 2f bb 6a 1b 48 3e 1e 98 72 3d
       -0.04410558 -0.0026815312 0.19541708 0.0592271
000070 54 76 c1 bc 46 ac e1 be 5e 1a 8e 3e 25 d5 81 3d
       -0.023615994 -0.44076747 0.27754492 0.06339482
000080 f8 0d df 3e d2 76 fc 3e 61 ac 47 bb 3d 26 95 be
       0.43565345 0.49309403 -0.0030467736 -0.29130736
000090 1c 76 0f bf 3d 81 06 be 69 0d ed be 9a ff a9 3e
       -0.56039596 -0.13135238 -0.46299294 0.3320282
0000a0 f8 1a c0 bd 9a 59 97 be b1 69 5e be 60 1c 84 be
       -0.09380144 -0.29560548 -0.21720006 -0.25802898
0000b0 63 3b 59 3e 89 81 79 3e 99 df d4 be ff 30 57 3e
       0.2121406 0.2436582 -0.4157684 0.21014784
0000c0 c3 74 a1 be ff 74 d3 bd ba 2a ee be 9a b1 e0 be
       -0.31534395 -0.103250496 -0.46516973 -0.438855
0000d0 f4 c8 0a be ed ae 15 3e c5 83 ec be 99 6f b4 bd
       -0.1355322 0.1461751 -0.46194282 -0.08810348
0000e0 91 6f f7 bd 62 d9 b6 3d 94 f2 48 be 63 0c ab bd
       -0.120818265 0.08928181 -0.19623786 -0.08351972
0000f0 23 cc d1 be 05 f1 8a 3e 3e b4 78 bd 77 e6 a5 be
       -0.40976056 0.27137008 -0.060718767 -0.32402393

model.2.weight f4 [64, 64]
000000 52 73 e0 bc 63 5c 0a be dc 6d 03 be 9d 6e d4 bd
       -0.027398739 -0.13511805 -0.12834877 -0.1037266
000010 97 ec 1f 3d 36 70 38 3d 6d a1 5b 3b 2f 5e 5f bb
       0.03904399 0.045028888 0.0033512965 -0.0034083237
000020 9f c8 01 be 4d 0c b7 bc f3 1d d0 bd 65 b3 d7 bd
       -0.12674187 -0.022344733 -0.10161962 -0.10532264
000030 8d 84 e0 3b 77 d6 b4 bd dd 49 80 3c 07 eb d6 3b
       0.006851739 -0.088299684 0.01566022 0.006558779
000040 a1 ab 1a be d0 7c 4b 3d 66 ee c8 bd d3 2b e3 3c
       -0.15104534 0.049679577 -0.09811096 0.027730858
000050 1e 70 99 bd 84 1a 00 be a5 6d 02 bc db 62 b6 bd
       -0.07492088 -0.12510115 -0.007960712 -0.08905574
000060 7b 77 d4 3c 6b e0 a5 bd 99 09 fb bd f1 49 5b bd
       0.025935879 -0.08099445 -0.1225769 -0.053537313
000070 36 c2 aa bd 6f 16 c3 bd fa ff b9 3d 1b 02 57 bb
       -0.08337824 -0.09525763 0.09082027 -0.0032807651
000080 43 56 19 3d 7e f0 29 ba 16 f4 a1 bb 06 3f e4 3c
       0.03743578 -0.00064826745 -0.0049424274 0.027862083
000090 56 7f e0 bd ad 2e c6 bd 4c 38 96 bd 77 7d 8f 3d
       -0.109617874 -0.096768714 -0.073349565 0.070063524
0000a0 9f 3b 86 3d cb 5d d0 3b ba 02 f2 bd 7c 13 56 bd
       0.065543406 0.0063588372 -0.11816926 -0.052264675
0000b0 f7 13 82 3d b5 b9 e2 bd 8d e8 30 be 27 4f bb 3c
       0.06351464 -0.11070577 -0.17276211 0.022864891
0000c0 5e f7 02 be f7 8a b1 bd 81 42 a7 bc 35 50 3e 3d
       -0.12789676 -0.086690836 -0.020417454 0.04646321
0000d0 6d 1f 8a 3d 81 df db bd 58 81 3f 3d 68 22 8c 3c
       0.06744275 -0.10735989 0.04675421 0.01710625
0000e0 6c d4 ab bd 3c 14 c6 bb 6f 09 45 be 0e 7f c9 3d
       -0.08390126 -0.0060448926 -0.1924188 0.09838687
0000f0 22 a0 29 3b 03 dc fd bc 1c 61 d8 bc 12 ae a5 3c
       0.00258828 -0.030988699 -0.026413493 0.020224605
000100 db 59 1d be 8c f0 8b bc c9 a3 a7 3c b2 12 04 be
       -0.15366308 -0.017082475 0.020463841 -0.12897757
000110 d3 30 84 3d 01 36 79 bd 66 76 2d bd c6 a9 9c 3d
       0.06454625 -0.060842518 -0.04234924 0.07649569
000120 fe 28 24 3d 56 a9 f4 3c 73 01 10 be d2 51 5f bd
       0.040078156 0.029865902 -0.14063053 -0.05452139
000130 03 ce a5 bd 9d fe c8 3d f0 55 1f 3d 3f 48 22 3c
       -0.08095934 0.09814189 0.038900316 0.00990492
000140 b2 6d 96 3d fa 8f 21 3c db 59 17 be f8 d2 83 bd
       0.073451415 0.009860987 -0.14780371 -0.064367235
000150 17 47 95 3d 50 89 d2 bd 3c 34 d4 3d d4 b5 b4 bd
       0.0728895 -0.102800965 0.103615254 -0.088237435
000160 60 b5 18 3d f1 c3 5e 3d 71 88 e2 bc 38 ad 70 3d
       0.037282348 0.054386083 -0.027652951 0.058758944
000170 18 2c cb bd 1c e7 4c bc c2 15 0c be 81 06 98 3d
       -0.099205196 -0.012506273 -0.13680175 0.074231155
000180 7e 96 8f bc 23 b3 ae bd ba 03 ae 3d a2 29 0d 3c
       -0.017527815 -0.08530261 0.084968045 0.008615883
000190 72 7c 33 bd fa a3 90 bd bc 6e 82 3c 7d fd c3 bd
       -0.043819852 -0.07062526 0.015921943 -0.095698334
0001a0 25 c4 02 be 2a fe 07 be 62 72 99 bd 32 f5 54 bd
       -0.12770136 -0.1328055 -0.0749252 -0.05199165
0001b0 2b c9 8f bd a7 b6 44 be 78 f1 d4 bd dc e4 02 3d
       -0.070207916 -0.19210301 -0.10397619 0.03195654
0001c0 f8 df d9 3c 43 8c 14 be 8f cc 03 be 46 a1 42 3d
       0.026596054 -0.1450663 -0.12871002 0.047517084
0001d0 8e 48 39 bd 72 a1 7b 3d 96 1b 98 3d 71 cd 2e 3b
       -0.04523521 0.061433263 0.074271366 0.0026672746
0001e0 9d a1 fb 3b 1e 4d ca bd 4e 3d 71 3d f0 a3 2c bd
       0.007679178 -0.0987799 0.058896355 -0.04214853
0001f0 9e a3 be bb 33 97 89 3d e5 06 63 3d 2f 7a 78 3d
       -0.0058178445 0.06718292 0.055426497 0.0606634
000200 05 2d 3d be c3 5e 0d 3d e4 69 31 be a6 af f0 3d
       -0.18474205 0.0345142 -0.1732555 0.11752252
000210 45 c3 da bb 60 26 ad 3d 18 24 c3 3d b3 24 7c 3d
       -0.00667611 0.08454585 0.09528369 0.061558437
000220 d1 f4 ef 3b ea e6 50 3d c9 81 c8 3d 67 38 ad bd
       0.0073228856 0.051001467 0.097903796 -0.084580235
000230 8a c7 cf bd c0 2f fd bd d3 cd 3d bd 13 9f c8 3d
       -0.10145481 -0.12362623 -0.046338867 0.09795966
000240 e9 d9 c5 3c 61 c0 0b be 4c fd 5a bd ff 26 04 3d
       0.02415176 -0.13647605 -0.05346422 0.032263752
000250 f9 61 35 ba 48 12 0c be 94 cb d2 bd b8 c7 c7 bd
       -0.0006919201 -0.13678849 -0.10292736 -0.0975489
000260 e1 f7 82 3d b4 c0 96 bd 3a de dd bc 38 07 bd 3d
       0.063949354 -0.07360974 -0.027083505 0.092298925
000270 40 c2 f0 bc 74 4a f8 bb c4 90 dd bc bf 08 01 3e
       -0.0293895 -0.007577235 -0.027046569 0.12600993
000280 84 d1 b0 3d 24 da 6a be 83 ea ba 3d 68 2e f3 bd
       0.08633712 -0.22934777 0.09126761 -0.11874086
000290 9f d1 9d 3d 65 34 0d bd 52 2a 3b bd e2 02 bb 39
       0.07705998 -0.034473795 -0.045694657 0.00035669567
0002a0 a7 c2 8c 3d 8b 90 2b be 2a 01 01 bd 44 2c a6 3d
       0.068730645 -0.16754358 -0.03149525 0.08113912
0002b0 d8 d7 a2 bd 25 89 d0 bc 4d e1 e4 bd e4 93 8b bd
       -0.07951325 -0.02545602 -0.11175785 -0.06815317
0002c0 11 15 55 3d 6a fc f2 bd 94 fa e9 bd 09 b4 80 bd
       0.052022044 -0.118645504 -0.11424747 -0.06284339
0002d0 db 12 af bd fb be 0f be 09 1c 0d bd 0f fe 23 3d
       -0.08548518 -0.14037697 -0.034450565 0.04003721
0002e0 5a a4 15 bc 7b 29 b2 bd 1b 27 9d 3c 6b 1a ed bc
       -0.009133423 -0.08699318 0.019183686 -0.028943261
0002f0 ec da 24 bc 5d ab a7 3b b5 7f 2d 3d 93 02 1b be
       -0.010061961 0.0051168636 0.04235812 -0.151377
000300 30 3c 0b be 24 11 3c 3d f9 f6 b1 3d 12 70 2e 3d
       -0.13597178 0.045914784 0.086896844 0.042587347
000310 1c f0 0c be 22 6d d2 3c 75 d2 88 be 25 55 67 be
       -0.1376347 0.025686804 -0.26723066 -0.22591074
000320 07 08 80 3e 47 45 95 3e b1 45 0d bf e6 0a a2 3e
       0.25006124 0.29154417 -0.55184466 0.3164894
000330 6a 7c 2e 3e c7 04 78 3e 8e f2 23 bf de 23 fa 3c
       0.17039648 0.24220572 -0.64041984 0.030534681
000340 93 87 4b 3e 99 96 80 3e ca dd e6 be 7b d2 9f 3e
       0.19875936 0.25114897 -0.45091087 0.3121527
000350 04 85 aa 3d b2 24 fe bb 9d 10 0c 3e ec 01 85 b8
       0.08326152 -0.0077558393 0.13678212 -6.342292e-05
000360 f6 a9 13 be 54 d4 cc be d6 3c 0e 3d c9 24 12 3e
       -0.14420304 -0.40005744 0.034725986 0.14271845
000370 c1 10 94 be c4 2e 84 3c e3 b4 bd 3d 3b b3 4c 3d
       -0.28919032 0.01613558 0.09263017 0.049975615
000380 84 97 26 3e de af d2 3d fd dc 23 3e 57 9f 12 bf
       0.16268736 0.1028745 0.16002269 -0.57274383
000390 95 1c 03 bd cd a0 3a 3d 42 57 35 bc c4 f3 6d 3e
       -0.03200968 0.045563508 -0.011068167 0.2323752
0003a0 ae 5b 71 3d c5 ec 2d 3d ca b7 a1 be 45 20 9f 3c
       0.058925323 0.04246213 -0.31585532 0.019424567
0003b0 98 96 17 3e 10 2d c3 3e 16 61 22 3e f1 5e 82 3d
       0.1480354 0.38120317 0.15857348 0.06365765
0003c0 14 49 cb be e9 88 fa be 77 45 bf be 12 ec c8 3d
       -0.39704192 -0.4893258 -0.37357685 0.09810652
0003d0 63 a1 b2 be f8 07 ae bd 4b e5 70 be ce ab e7 be
       -0.34888753 -0.08497614 -0.23524968 -0.45248264
0003e0 9d 7b d7 be e1 a2 63 3d 1a 0d 28 bf 88 fa b6 3d
       -0.42086497 0.055575255 -0.6564499 0.08934504
0003f0 1a 84 01 bf 1c 63 95 3e 37 1f 8c 3e de c7 9a be
       -0.50592196 0.29177177 0.27367565 -0.30230612

model.2.bias f4 [64]
000000 99 c5 a9 3c 36 26 d0 bd 7f 6b dd bd da 2a 3f 3e
       0.020724105 -0.10163538 -0.10811519 0.1866869
000010 bd 7d 4d 3d 4a d7 8f 3d e8 35 af bd d4 3e c1 bd
       0.05016874 0.07023485 -0.08555204 -0.09435812
000020 17 cc 01 bd f9 ee f3 bd 38 60 6b 3e 14 9b 26 3d
       -0.031688776 -0.11910815 0.22985923 0.040675238
000030 90 19 f4 bb aa 4a e5 bd 26 e4 09 3e 32 56 d3 3d
       -0.0074493363 -0.11195882 0.13465938 0.10319175
000040 78 1f c1 3e 32 19 9f bd c9 64 73 3b f3 66 0f bd
       0.3771932 -0.077684775 0.003713893 -0.03501029
000050 98 a7 28 bd b2 8c 46 3d ec ab 96 3d b7 29 c3 bd
       -0.041175455 0.04847402 0.0735701 -0.09529441
000060 70 c2 37 3e 3d 0f 27 be 1d c0 bc bd 77 11 f7 bd
       0.17945266 -0.16314407 -0.0921633 -0.12063878
000070 d5 3c 50 bd 00 2a 47 3e f1 94 f1 bc 66 ee ae 3d
       -0.050839264 0.19449615 -0.029489966 0.08541565
000080 ce 4a 92 bd 2a 24 f2 bd fc 8f 04 be a5 ae fc bd
       -0.07143174 -0.11823304 -0.1294555 -0.12337998
000090 09 9f 1d 3d 67 46 07 be 70 35 12 be 73 ef 1e be
       0.038481746 -0.1321045 -0.14278197 -0.1552103
0000a0 59 f7 76 bd 27 25 54 3e b4 d2 e5 3d 73 dd b5 3b
       -0.060294483 0.20717297 0.11221829 0.0055500804
0000b0 b0 e2 5e bd 89 92 21 3e 28 79 c2 bd a3 4c 90 3d
       -0.054415405 0.15778555 -0.09495765 0.07045867
0000c0 59 73 db 3d ff c8 43 3d a2 29 9f bb 07 65 92 bd
       0.1071536 0.047799107 -0.004857258 -0.07148176
0000d0 02 f9 0a bd bd e5 25 be d8 63 42 be 04 b0 9a bd
       -0.03392888 -0.1620092 -0.189834 -0.075531036
0000e0 3d 47 44 bc 35 8b 0d be b2 d9 f9 bd a7 33 0a be
       -0.011979875 -0.13822635 -0.12199725 -0.13496266
0000f0 af c3 67 3e 73 80 d2 bd f0 ec 24 bc 5d 14 1f 3d
       0.22633241 -0.10278406 -0.010066256 0.03883778

model.4.weight f4 [2, 64]
000000 c0 49 5f bd 1d ac 36 3c 7a 81 ad bc 97 84 c7 be
       -0.054513693 0.011149433 -0.021179903 -0.38968346
000010 dc 5f e5 bb 4a 72 03 be 25 fd 5e 3d d8 ea 15 3d
       -0.0069999527 -0.12836567 0.054440636 0.036600918
000020 d9 e4 96 3c e0 ef a2 bd 50 09 96 3d 27 ef d6 bd
       0.01841967 -0.07955909 0.07325995 -0.104948334
000030 1f 3a 26 be e2 a7 e8 3c f8 ad 5c be 9f 87 90 3d
       -0.16233109 0.028400365 -0.21550739 0.07057118
000040 64 1f 94 be bb f5 af bc 65 6b 75 bd 72 3e 09 bd
       -0.289302 -0.021479478 -0.059916873 -0.033506818
000050 41 81 da 3d fb 0d f2 bc ac fc 00 be f8 a8 76 3c
       0.106691845 -0.029547682 -0.12596387 0.015054934
000060 4b 25 e0 bd 8d 2b c9 bc d7 de 68 3d 6b 46 d8 bc
       -0.10944613 -0.0245569 0.05685314 -0.026400765
000070 e7 85 ef bb b6 88 92 be ee c6 b3 bd 15 5e 6b bd
       -0.0073096636 -0.28619927 -0.08778177 -0.05746277
000080 37 83 87 bc b8 a4 61 bc ca a9 b3 3c 04 07 ba bb
       -0.01654206 -0.013772182 0.021931548 -0.005677106
000090 28 c2 25 3d 61 c5 09 3d 5c d9 f4 3c 8b 03 d4 bc
       0.040468365 0.0336355 0.029888801 -0.025880596
0000a0 1e 21 86 3c 44 91 53 be bf 63 60 be e5 63 a8 3d
       0.016373213 -0.20660883 -0.2191305 0.08222178
0000b0 a5 56 83 bd 16 6e 32 bd be af bf 3d 22 6b fa 3c
       -0.064130105 -0.043562017 0.09359692 0.030568663
0000c0 4e 34 1c be 48 17 26 3b 5d 54 bb 3c 3f 44 24 3c
       -0.15254328 0.0025343467 0.022867376 0.010026037
0000d0 d5 96 d1 bd bc d9 3a 3c 02 be bd 3c 94 ba 30 bc
       -0.10233847 0.011404451 0.023161892 -0.010786671
0000e0 43 aa fd 3c 2d ae 39 3d 5d 8f 4f 3d 52 15 46 3d
       0.030964976 0.045332123 0.05067383 0.048360176
0000f0 11 b9 27 be 35 ba 14 3d bf 1a 54 3d a7 67 90 bc
       -0.16379191 0.036310393 0.05178332 -0.01762755
000100 e5 eb 74 3d 60 bc 35 3b 8a 4e 32 3d 88 45 b4 be
       0.05979528 0.0027730688 0.043531932 -0.35209298
000110 d9 3c 40 3d 1f cb 0b bf 29 da 40 bc 6a 5d 91 bd
       0.04693303 -0.54606813 -0.011770763 -0.070978954
000120 87 53 19 3d 85 88 1b bd c7 b9 cb be c8 8a 10 bd
       0.037433174 -0.037971992 -0.39790174 -0.035288602
000130 14 dc fd be 35 ef 1b 3d 80 37 20 bd f1 a3 87 be
       -0.4958197 0.038069922 -0.03911543 -0.26492265
000140 87 f0 f8 bc d4 f4 6c 3d b2 bd 85 bd a9 b0 e0 bc
       -0.03038813 0.057850674 -0.06530322 -0.027427988
000150 a4 87 48 be be e0 a0 bc 37 28 d8 3c 1d 75 00 3a
       -0.19582993 -0.019638415 0.026386363 0.0004900264
000160 fd fa e0 bc da 3c 86 bd 87 cb f2 3a 87 f3 2c 3d
       -0.02746343 -0.06554575 0.0018523791 0.042224433
000170 5b 68 4c be 66 c1 ea bd 31 34 6f 3e bb 29 63 3d
       -0.19961683 -0.11462669 0.23359753 0.05545972
000180 5c 51 21 3d 89 d0 58 bc 1d 3c 0e bc bd 0f bd 3a
       0.03938423 -0.013233312 -0.008681324 0.0014424246
000190 5d a6 0f 3d c9 11 d9 bc 0b 34 aa 3c 64 03 8d 3b
       0.035070766 -0.026497738 0.02077677 0.0043033827
0001a0 e6 25 13 bb c8 29 2b bd 84 1e 35 bd 0b 84 1e bd
       -0.002245301 -0.041787893 -0.044218555 -0.038700145
0001b0 06 04 6f bd 2d 23 26 be 8e 41 b8 3d be 9a 70 3e
       -0.058353446 -0.16224356 0.089968786 0.2349653
0001c0 0b 4c 06 3e 4e b8 00 3b df 80 8c 3d dc 0a 0c 3d
       0.13114946 0.0019641104 0.06860518 0.034190044
0001d0 d2 ba d4 bc 82 0e a9 3b 14 35 83 bd 22 87 f4 bc
       -0.02596799 0.0051592 -0.06406608 -0.029849593
0001e0 ec cb 07 3e ea ad 26 bd 50 93 b1 3d 06 82 1a 3d
       0.13261384 -0.0406932 0.08670676 0.037721656
0001f0 af b6 a1 3d 63 c5 1c 3c 83 54 87 3e 57 a5 b7 bd
       0.07896172 0.009568545 0.26431665 -0.08967083

model.4.bias f4 [2]
000000 f7 65 84 be 92 04 e4 bd
       -0.25859043 -0.11133684
